stock market/Stock_Data/NVDA/trained_weights/Open_Close_Comparasion/OC.pth (torch, 10866 bytes, 11 tensors)

fc1.weight f4 [25, 3]
-0.26192483 0.039923742 0.33884317 -0.8711662 -0.42779255 -0.12186088 -0.7982603 -0.24233237
-0.774997 -0.6355826 -0.75149184 -0.22473973 -0.061998654 0.42102614 -0.28824812 0.3886891
-0.13607247 0.45839697 -0.7284112 -0.683951 -0.005834749 -0.24251847 0.44100696 -0.21501829
0.07031163 0.31969035 0.5381709 0.28410572 0.47122535 0.5272781 -0.39828438 0.33844405
0.16707695 -0.22069648 -0.27624997 -0.81466746 -0.14726566 -0.31323838 -0.4243983 -0.63493913
-0.029829534 0.68100935 0.4243368 0.1796042 0.35528603 -0.39601362 -0.7676622 -0.10620675
-0.42840424 -0.513438 -0.7871242 0.4372985 0.11752106 0.35706112 0.49570587 0.014299213
-0.5258316 0.58261025 0.5991566 0.23824237 0.54001385 0.5502479 0.051855996 0.53081137
-0.020232012 0.21835025 -0.5873716 -0.23684333 -0.09879939 0.6397753 -0.572303 -0.06396593
-0.26101875 0.35649556 -0.10908452
00000000: 031b 86be 1487 233d da7c ad3e c004 5fbf
00000010: a007 dbbe 3292 f9bd c95a 4cbf fa25 78be
00000020: 3466 46bf 8bb5 22bf c561 40bf 2c22 66be
00000030: 4df2 7dbd bd90 d73e 4295 93be 4202 c73e
00000040: 9556 0bbe 02b3 ea3e 2879 3abf 6a17 2fbf
00000050: 6c31 bfbb c356 78be aacb e13e c12d 5cbe
00000060: 8bff 8f3d 74ae a33e 91c5 093f 4e76 913e
00000070: 7344 f13e b3fb 063f eeeb cbbe 8a48 ad3e
00000080: 3816 2b3e 42fe 61be a370 8dbe 0c8e 50bf
00000090: cfcc 16be c860 a0be bc4a d9be 5f8b 22bf
000000a0: 115d f4bc a156 2e3f ac42 d93e 2aea 373e
000000b0: 0de8 b53e 4cc2 cabe 8385 44bf ed82 d9bd
000000c0: cd57 dbbe ac70 03bf f980 49bf 97e5 df3e
000000d0: e2ae f03d b7d0 b63e 29cd fd3e 3f47 6a3c
000000e0: e69c 06bf f225 153f 5462 193f cff5 733e
000000f0: 593e 0a3f 0cdd 0c3f f466 543d 41e3 073f
00000100: 9bbd a5bc 3597 5f3e fc5d 16bf 0f87 72be
00000110: 5657 cabd 50c8 233f 7382 12bf 9200 83bd
00000120: 40a4 85be 9686 b63e b467 dfbd

fc1.bias f4 [25]
-0.75227475 0.6539278 1.0657636 0.9293076 -0.19328424 -0.2620496 0.79316485 0.17932716
-0.12365885 -0.5691381 -0.7016189 0.62861496 -0.1386575 -0.02923085 -0.48100433 0.5396859
0.9742883 -0.38336346 -0.006539826 -0.74038136 -0.58208233 -0.15666898 0.024791365 -0.01104046
0.15705428
00000000: 1495 40bf d067 273f f16a 883f 1ae7 6d3f
00000010: 4eec 45be 5d2b 86be da0c 4b3f 8aa1 373e
00000020: da40 fdbd 09b3 11bf 4c9d 33bf e9ec 203f
00000030: 3bfc 0dbe 8975 efbc 3346 f6be db28 0a3f
00000040: f56a 793f 3748 c4be 094c d6bb a289 3dbf
00000050: 5903 15bf d56d 20be 4317 cb3c 0ce3 34bc
00000060: d6d2 203e

fc2.weight f4 [25, 25]
0.050211262 0.060337402 -0.06262297 -0.11128551 -0.12978797 0.0507903 0.08784532 0.011634274
-0.10999164 -0.06464223 0.124101356 0.0298556 -0.06698602 -0.049470305 -0.14594747 -0.08015756
-0.027517637 0.035200592 0.063256435 -0.007360001 -0.0830317 0.083197266 0.02795242 -0.08941759
0.043009814 0.1649621 0.12845954 -0.04701549 0.034423687 0.016458133 0.04066526 0.25418207
-0.07607247 -0.017377876 -0.06613505 -0.10875366 -0.019470217 0.10917044 0.05884739 -0.09350742
-0.0067271222 -0.028559405 0.16899769 -0.073221356 0.07722948 -0.0046117315 0.021309247 0.0052400706
-0.24154781 -0.07228562 0.14156312 -0.048411082 0.0014446789 -0.0081171505 0.09532679 0.13305151
-0.04475269 0.0045712586 0.039775718 0.06712213 -0.091844656 0.12038167 0.038101375 0.04005565
0.120742954 -0.03129888 0.10074263 -0.06487642 -0.03093479 -0.039489336 -0.14443354 0.17933214
0.032512683 -0.07025197 -0.16110995 0.14669317 -0.02468747 0.059040092 0.029071571 -0.0062941117
0.055675652 -0.08870649 0.21792856 -0.014407831 -0.06442981 0.1256464 0.09071361 -0.029574078
0.6283678 -0.12194979 0.0018406975 0.09748232 -0.12711906 -0.560838 -0.018910151 0.003603479
0.070606545 0.08141604 -0.5217133 0.11918456 -0.15337797 0.010857895 -0.09949713 0.015717462
0.14376277 0.047746137 0.010327191 -0.03315808 0.12256076 0.09542989 -0.21769623 -0.05064115
-0.0051282425 -0.6291463 0.09790346 -0.036190115 0.079080805 0.049275532 0.50567937 -0.11725568
0.061166838 0.11667516 -0.08148331 0.4430201 -0.27169934 -0.11901522 -0.16238293 -0.15114295
0.08870819 0.07125277 -0.042713407 -0.11159739 -0.08792526 -0.025874436 0.10612186 -0.014980643
0.09101823 -0.08452504 0.029795017 0.11775712 0.01929956 0.012844005 0.037854698 -0.0090684835
-0.07776001 0.018092187 -0.17641167 -0.09244256 0.26493514 0.047974702 0.182677 -0.047356583
-0.0691008 0.037053775 0.029057557 0.0025060866 0.0145514365 0.23503545 -0.041212633 0.067869045
0.2631159 0.08133635 0.04004731 0.6826277 -0.03379417 0.009730255 0.10282442 0.012649676
-0.6110946 -0.121365376 -0.12855634 0.0029848714 -0.021182783 -0.67207444 0.2619493 -0.013555873
-0.119345896 -0.060394123 0.034861065 -0.11513973 -0.002972515 -0.097948164 -0.2564889 0.06592185
0.05162362 -0.23380947 -0.0047990074 -0.06895306 -0.4984865 -0.09875776 -0.003085769 0.0255128
0.012675278 0.19374499 0.15957628 0.09492822 0.08148474 -0.03271845 0.4043477 -0.006702299
0.17504814 0.12786938 0.01703257 -0.021371009 -0.01754962 -0.14507292 0.079580136 0.24230306
0.04267188 -0.059330564 -0.011185969 -0.016501103 -0.06393864 0.63807786 -0.0012020596 -0.060275517
0.029806012 0.008712563 -0.47338304 -0.037855353 0.043032646 -0.1073684 -0.12817395 -0.2772134
-0.015595971 0.06531497 0.019388935 -0.035568923 -0.055953786 0.1981816 -0.003419243 0.059175808
0.15550768 0.06997403 -0.08768875 0.2531807 0.15477055 0.05874376 0.47796246 0.039043743
0.12690927 0.011848171 -0.01635525 -0.4973716 -0.10978764 -0.01164223 0.093547046 -0.03741092
-0.45991385 0.056159798 -0.12429546 -0.053642858 0.063003436 0.029011115 -0.16987778 0.093461916
00000000: 53aa 4d3d 5a24 773d 7940 80bd a8e9 e3bd
00000010: 23e7 04be 7d09 503d 3fe8 b33d af9d 3e3c
00000020: 4c43 e1bd 2563 84bd da28 fe3d bb93 f43c
00000030: f72f 89bd 60a1 4abd 4173 15be a629 a4bd
00000040: ab6c e1bc 7f2e 103d 978c 813d 2a2c f1bb
00000050: 860c aabd 5463 aa3d 79fc e43c 9220 b7bd
00000060: 0f2b 303d d3eb 283e e68a 033e 5093 40bd
00000070: daff 0c3d 35d3 863c 9e90 263d 2724 823e
00000080: e2cb 9bbd 0c5c 8ebc d071 87bd 3dba debd
00000090: 0180 9fbc c094 df3d f609 713d d180 bfbd
000000a0: 316f dcbb 6af5 e9bc bb0d 2d3e 14f5 95bd
000000b0: 7d2a 9e3d 021e 97bb bb90 ae3c e6b4 ab3b
000000c0: 4f58 77be 7c0a 94bd ecf5 103e b34a 46bd
000000d0: 615b bd3a ccfd 04bc b13a c33d a83e 083e
000000e0: 994e 37bd 7fca 953b ddeb 223d 5477 893d
000000f0: 0d19 bcbd aa8a f63d 3010 1c3d 6511 243d
00000100: 1548 f73d 4133 00bd 2752 ce3d eedd 84bd
00000110: f56a fdbc 92bf 21bd 63e6 13be d8a2 373e
00000120: 052c 053d 44e0 8fbd 02fa 24be bc36 163e
00000130: 613d cabc 06d4 713d 8127 ee3c d63e cebb
00000140: 270c 643d c0ab b5bd aa28 5f3e d30e 6cbc
00000150: c7f3 83bd 73a9 003e 0fc8 b93d 5645 f2bc
00000160: b6dc 203f d0c0 f9bd 8f43 f13a d0a4 c73d
00000170: 802b 02be 1493 0fbf 76e9 9abc 5828 6c3b
00000180: 2a9a 903d 74bd a63d 018f 05bf 0917 f43d
00000190: 1d0f 1dbe 50e5 313c 27c5 cbbd e8c1 803c
000001a0: 8c36 133e 7491 433d 6133 293c c4d0 07bd
000001b0: 2301 fb3d bf70 c33d c3eb 5ebe 186d 4fbd
000001c0: d10a a8bb bb0f 21bf 9c81 c83d 163c 14bd
000001d0: 1ef5 a13d 24d5 493d 3474 013f bf23 f0bd
000001e0: 148a 7a3d 63f3 ee3d b9e0 a6bd 88d3 e23e
000001f0: 2d1c 8bbe 40be f3bd b647 26be 38c5 1abe
00000200: a4ac b53d f9ec 913d 41f4 2ebd 2c8d e4bd
00000210: 2912 b4bd a0f6 d3bc 6b56 d93d 5f71 75bc
00000220: c467 ba3d 771b adbd ae14 f43c a52a f13d
00000230: 1c1a 9e3c a96f 523c 870d 1b3d fa93 14bc
00000240: a440 9fbd 1136 943c 43a5 34be 8652 bdbd
00000250: 94a5 873e 1f81 443d ae0f 3b3e faf8 41bd
00000260: b884 8dbd b3c5 173d 1d0a ee3c 283d 243b
00000270: 2669 6e3c 22ad 703e 94ce 28bd edfe 8a3d
00000280: 21b7 863e ac93 a63d a608 243d b0c0 2e3f
00000290: c16b 0abd a66b 1f3c 9c95 d23d 9640 4f3c
000002a0: b270 1cbf 698e f8bd 46a4 03be d59d 433b
000002b0: 8487 adbc 120d 2cbf 381e 863e 7419 5ebc
000002c0: 9f6b f4bd d45f 77bd 7aca 0e3d 61ce ebbd
000002d0: 87ce 42bb 0c99 c8bd 8352 83be 0902 873d
000002e0: 4a73 533d c06b 6fbe fe40 9dbb 4337 8dbd
000002f0: 9f39 ffbe 8241 cabd 9d3a 4abb 3800 d13c
00000300: f8ab 4f3c 1665 463e f767 233e ba69 c23d
00000310: 79e1 a63d c803 06bd a906 cf3e f69e dbbb
00000320: d23f 333e 31f0 023e e387 8b3c 4112 afbc
00000330: 38c4 8fbc ff8d 14be e9fa a23d 4b1e 783e
00000340: b6c8 2e3d 9b04 73bd 5b45 37bc 522d 87bc
00000350: 43f2 82bd 1259 233f 6d8e 9dba 76e3 76bd
00000360: bd2b f43c 23bf 0e3c 435f f2be 370e 1bbd
00000370: 0043 303d f7e3 dbbd 0840 03be eaee 8dbe
00000380: 3e86 7fbc dbc3 853d 8bd5 9e3c b8b0 11bd
00000390: cc2f 65bd 1ef0 4a3e 6115 60bb 5562 723d
000003a0: 683d 1f3e 8b4e 8f3d 2996 b3bd e7a0 813e
000003b0: 2c7c 1e3e 4c9d 703d 7fb7 f43e 55ec 1f3d
000003c0: 81f4 013e d51e 423c 72fb 85bc 7ea7 febe
000003d0: 58d8 e0bd 0dbf 3ebc 9895 bf3d 313c 19bd
000003e0: d479 ebbe d107 663d 9e8e febd 9db8 5bbd
000003f0: f207 813d b8a8 ed3c 71f4 2dbe f668 bf3d

fc2.bias f4 [25]
0.15663755 -0.11668449 -0.17785576 0.00218018 -0.15573066 0.12715973 -0.041135803 0.005520814
0.12278984 -0.14137112 0.11531686 -0.142122 0.015145315 0.061908998 -0.030370222 -0.16440971
-0.067202754 -0.1180426 -0.02477325 -0.05609353 -0.013563975 0.089637905 0.057179987 0.13737664
-0.18312998
00000000: 9865 203e 47f8 eebd d21f 36be 5ae1 0e3b
00000010: dc77 1fbe 2936 023e 047e 28bd f2e7 b43b
00000020: 3d79 fb3d 97c3 10be 3f2b ec3d 6e88 11be
00000030: 0e24 783c 4a94 7d3d f9ca f8bc 055b 28be
00000040: 99a1 89bd 52c0 f1bd 45f1 cabc 54c2 65bd
00000050: 6f3b 5ebc 1494 b73d 9035 6a3d 76ac 0c3e
00000060: 6d86 3bbe

fc3.weight f4 [25, 25]
0.08566081 0.056085426 -0.06192937 -0.2181617 -0.13516569 -0.15915641 -0.1784008 -0.19871497
0.10078806 0.029485941 -0.20410392 0.07486191 0.12103403 0.036003426 0.062918425 0.12613468
-0.14208212 0.015554808 0.021583328 0.07658755 0.07198328 0.095786236 -0.18526013 0.057388917
0.04810662 -0.03545086 -0.08300687 -0.113894954 -0.22212294 0.230466 -0.13916817 -0.11193658
0.023869716 -0.11226544 -0.13909857 0.19409566 0.15536812 0.15422593 0.15736096 -0.043726962
0.044986427 -0.041507326 -0.15771759 -0.1079233 -0.052165423 0.15569617 0.15529191 -0.20283712
0.061328217 -0.03997333 0.034254834 0.107932195 -0.047605827 0.08254351 0.060089365 -0.17114797
0.047766566 -0.15780744 -0.060252637 0.018502355 0.113793656 -0.14390042 0.19509865 -0.12524801
0.098006174 -0.078701474 -0.007815152 -0.017301112 -0.1493851 -0.090376735 0.1233608 0.058186784
-0.043640345 -0.1285829 -0.016753703 -0.0970939 -0.13228697 -0.1047074 -0.31072313 0.07770794
0.06510638 -0.10220264 0.1973693 -0.07587561 -0.123844594 0.092497274 0.19455391 0.14811859
-0.031671844 -0.10847332 -0.05722527 0.02661672 -0.29090673 0.09255459 0.1322454 0.058797292
-0.04428521 0.026437266 0.099057265 0.23586324 -0.01204563 0.055196088 0.07836079 -0.18722996
-0.054501757 0.009847278 -0.24300131 0.09413327 -0.11047149 0.0014292474 0.09652314 -0.22845037
0.141552 0.14305754 -0.06736288 0.12830892 0.12272915 -0.1559744 0.013881694 -0.05606125
0.03287289 0.122896396 -0.108002685 -0.11486946 -0.16094506 -0.017917866 -0.018706415 0.058293086
0.08340504 -0.09271697 0.18114805 -0.030508272 0.07958943 -0.18955384 0.08633395 0.10719605
0.11785646 -0.080676295 -0.15282835 0.09763863 -0.116108745 -0.1603353 -0.10485406 -0.06824965
0.04997382 -0.1679265 0.00859809 -0.013476231 0.04788576 -0.0035110712 0.03387909 -0.07147939
-0.06239908 -0.11883268 0.03580658 -0.0030609076 0.12230798 0.044232108 -0.06261115 -0.069840126
0.051891014 -0.17185192 0.07632187 -0.0039129583 -0.12619978 0.084896296 -0.09072942 -0.13999188
0.15906368 -0.09493179 -0.15612495 0.07564033 -0.20507626 -0.20659296 0.068727955 -0.14387195
-0.052087713 0.16838518 -0.10964193 -0.09639271 0.16094477 -0.16450344 -0.06476616 -0.15852813
0.048357055 0.0120638665 -0.10867022 -0.0039955797 -0.06556805 -0.20464283 0.036947932 -0.17277971
0.12727988 -0.0186239 0.019515166 0.11662974 -0.13014002 0.14413527 0.08668792 -0.08264829
-0.07795353 -0.10480008 0.16208974 0.1680088 0.04840461 -0.10273713 0.056563005 0.102449894
-0.05653289 0.09810461 -0.011272213 -0.18347707 0.015066068 -0.03859269 -0.20445696 0.06683132
0.08346711 -0.118160054 -0.111639455 0.022154199 0.0055154716 -0.16111158 -0.100516886 0.094961785
-0.057432536 0.093626864 -0.08514434 0.1847212 -0.075345926 -0.14798674 0.057778835 -0.1282382
0.18302433 -0.054544657 0.011565623 0.11327923 -0.16463546 -0.18737079 0.0018706877 -0.1631291
-0.10201861 -0.050974898 0.0030820663 -0.008518497 -0.086723 0.16977853 0.05961679 -0.08697569
0.14311983 0.1857762 -0.19219904 -0.13536675 -0.08207925 -0.025379255 -0.05596654 0.08213912
00000000: ef6e af3d d5b9 653d a7a9 7dbd c865 5fbe
00000010: e068 0abe e6f9 22be b3ae 36be f07b 4bbe
00000020: f869 ce3d 808c f13c 9e00 51be 3351 993d
00000030: b1e0 f73d 5478 133d 60db 803d 7329 013e
00000040: fa7d 11be 98d9 7e3c 85cf b03c efd9 9c3d
00000050: f86b 933d 932b c43d d5b4 3dbe a410 6b3d
00000060: 720b 453d ec34 11bd 81ff a9bd c241 e9bd
00000070: 3274 63be 47ff 6b3e 1a82 0ebe 013f e5bd
00000080: 6c8a c33c 6ceb e5bd db6f 0ebe 03c1 463e
00000090: d218 1f3e 67ed 1d3e 3b23 213e 0b1b 33bd
000000a0: b043 383d 9603 2abd b880 21be e406 ddbd
000000b0: 69ab 55bd d16e 1f3e d804 1f3e 89b4 4fbe
000000c0: 4c33 7b3d 13bb 23bd cc4e 0c3d 8e0b dd3d
000000d0: 54fe 42bd 920c a93d 4420 763d 6a41 2fbe
000000e0: e0a6 433d 4698 21be 78cb 76bd 4092 973c
000000f0: a60c e93d a25a 13be f1c7 473e 0441 00be
00000100: 76b7 c83d 3d2e a1bd 200b 00bc 10bb 8dbc
00000110: 68f8 18be 7017 b9bd 96a4 fc3d 4455 6e3d
00000120: 38c0 32bd 3cab 03be 103f 89bc 2bd9 c6bd
00000130: 3c76 07be d570 d6bd 1a17 9fbe 5725 9f3d
00000140: 7e56 853d 9e4f d1bd 2e1b 4a3e ac64 9bbd
00000150: 3ca2 fdbd 366f bd3d 2439 473e 66ac 173e
00000160: 56ba 01bd 4327 debd 0b65 6abd 4f0b da3c
00000170: baf1 94be 438d bd3d 576b 073e 6ed5 703d
00000180: 6964 35bd f792 d83c 89de ca3d 2286 713e
00000190: 095b 45bc 4b15 623d 9f7b a03d 36b9 3fbe
000001a0: 3c3d 5fbd 7a56 213c 56d5 78be f2c8 c03d
000001b0: e03e e2bd 9655 bb3a edad c53d e5ee 69be
000001c0: 02f3 103e ad7d 123e 8df5 89bd 6a63 033e
000001d0: 6c59 fb3d c1b7 1fbe 0b70 633c 7ba0 65bd
000001e0: b9a5 063d 1bb1 fb3d 8330 ddbd ae40 ebbd
000001f0: c8ce 24be 7dc8 92bc 323e 99bc bbc4 6e3d
00000200: 43d0 aa3d 65e2 bdbd e07e 393e 7cec f9bc
00000210: c8ff a23d 671a 42be dbcf b03d 9a89 db3d
00000220: ba5e f13d 9d39 a5bd 097f 1cbe c3f6 c73d
00000230: 6cca edbd f02e 24be babd d6bd 79c6 8bbd
00000240: 59b1 4c3d edf4 2bbe 01df 0c3c 69cb 5cbc
00000250: dc23 443d 001a 66bb cdc4 0a3d c963 92bd
00000260: 2d96 7fbd 8c5e f3bd eca9 123d 8299 48bb
00000270: 9b7c fa3d ba2c 353d 463a 80bd 5708 8fbd
00000280: ac8b 543d f3f9 2fbe a44e 9c3d 4638 80bb
00000290: 843a 01be 1cde ad3d 59d0 b9bd 085a 0fbe
000002a0: 97e1 223e 996b c2bd 38df 1fbe 51e9 9a3d
000002b0: 83ff 51be 1b8d 53be 3ec1 8c3d 2b53 13be
000002c0: ed59 55bd 2a6d 2c3e f38b e0bd 8b69 c5bd
000002d0: b5ce 243e 9773 28be 1fa4 84bd 3355 22be
000002e0: 0c12 463d 86a7 453c 7e8e debd 5aed 82bb
000002f0: 8b48 86bd e48d 51be b756 173d 2aed 30be
00000300: a855 023e 2691 98bc 45de 9f3c 93db ee3d
00000310: 6d43 05be 3298 133e 7089 b13d 8243 a9bd
00000320: 1aa6 9fbd 6da1 d6bd dafa 253e 800a 2c3e
00000330: ea43 463d d867 d2bd 9cae 673d 40d1 d13d
00000340: 088f 67bd 12eb c83d 17af 38bc 6ae1 3bbe
00000350: abd7 763c 5e13 1ebd 2a5d 51be dcde 883d
00000360: cef0 aa3d e6fd f1bd 3aa3 e4bd b97c b53c
00000370: 21bb b43b 6ffa 24be ccdb cdbd 537b c23d
00000380: 613e 6bbd 71bf bf3d 2860 aebd 8e27 3d3e
00000390: f74e 9abd d689 17be 80a9 6c3d e050 03be
000003a0: bb6a 3b3e 386a 5fbd bd7d 3d3c f1fe e73d
000003b0: 3396 28be 21de 3fbe dd31 f53a 510b 27be
000003c0: 22ef d0bd 0ecb 50bd 7efc 493b 2b91 0bbc
000003d0: d49b b1bd 6cda 2d3e bc30 743d 5020 b2bd
000003e0: 018e 123e 1e3c 3e3e d3cf 44be 959d 0abe
000003f0: 2a19 a8bd 28e8 cfbc 2c3d 65bd 8e38 a83d

fc3.bias f4 [25]
0.12236811 0.14362451 -0.12840626 0.027725488 0.13962835 -0.19640048 0.136994 0.0653166
-0.0050833058 -0.19060187 -0.067488596 0.024355583 -0.10814564 0.14955612 0.14922322 -0.14940883
0.091749884 0.03228894 -0.057279512 -0.0007535648 -0.16401395 0.045226507 -0.18725514 0.18203056
-0.1854308
00000000: 229c fa3d 4e12 133e ee7c 03be 9020 e33c
00000010: bcfa 0e3e 351d 49be 2848 0c3e b6c4 853d
00000020: dc91 a6bb 232d 43be 7637 8abd 5c85 c73c
00000030: 767b ddbd 3d25 193e f9cd 183e a1fe 18be
00000040: 5de7 bb3d 6841 043d ec9d 6abd e18a 45ba
00000050: 46f3 27be 6e3f 393d d0bf 3fbe 3866 3a3e
00000060: 92e1 3dbe

fcFinal.weight f4 [1, 25]
-0.12307121 0.16940434 -0.005970359 0.1252938 -0.047088545 -0.17897536 0.16564651 -0.047521535
-0.011697495 -0.14667195 -0.16896582 -0.06048825 -0.12060479 -0.04068432 -0.1238611 0.17789957
-0.1686211 -0.014498569 0.010141879 0.03836016 0.16226256 0.17151067 0.104885325 -0.15921915
0.10507016
00000000: c20c fcbd 5578 2d3e 00a3 c3bb 054d 003e
00000010: ebdf 40bd 5145 37be 3d9f 293e f1a5 42bd
00000020: daa6 3fbc 2c31 16be 6005 2dbe 87c2 77bd
00000030: a5ff f6bd 9aa4 26bd e3aa fdbd 4e2b 363e
00000040: 02ab 2cbe 688b 6dbc 202a 263c 8b1f 1d3d
00000050: 2828 263e 7ea0 2f3e 1ece d63d 580a 23be
00000060: 062f d73d

normalize2D.weight f4 [2]
1.0 1.0
00000000: 0000 803f 0000 803f

normalize2D.bias f4 [2]
0.0 0.0
00000000: 0000 0000 0000 0000

normalize2D.running_mean f4 [2]
0.0 0.0
00000000: 0000 0000 0000 0000

normalize2D.running_var f4 [2]
1.0 1.0
00000000: 0000 803f 0000 803f
