stock market/trained_weights/test1.pth (torch, 11316 bytes, 11 tensors)

fc1.weight f4 [25, 2]
000000 c5 db a9 3e f4 00 40 bf 9f 72 ef 3e 4a a6 c6 3c
       0.33175483 -0.75001454 0.46767136 0.024249215
000010 88 a2 4d 3e c1 51 1e bf 3b 11 22 bf e8 55 d1 3e
       0.20081532 -0.61843497 -0.6330754 0.40885854
000020 08 9d 3b 3d b8 b0 84 be b2 c2 26 bf 39 0b 9d 3b
       0.045804054 -0.25916076 -0.6514083 0.0047925976
000030 2e e4 1a bf d7 c6 0a bf 11 fd c1 3e d0 10 ce 3e
       -0.60504425 -0.54209656 0.37888387 0.40247202
000040 31 07 1b be 4b 21 18 be 7b 38 ff 3e 34 f0 97 be
       -0.15139462 -0.1485645 0.4984778 -0.29675448
000050 a8 c0 a0 3e 8b a8 99 be 52 70 09 bf a0 1b 91 3e
       0.31396985 -0.300114 -0.5368701 0.2834139
000060 d9 38 ae 3e 43 1a 2f bf 75 b8 62 be d4 2f d4 3e
       0.34027746 -0.6839945 -0.22140677 0.4144274
000070 aa ef ad be ac df ba 3e f1 46 1d bf 1d 57 a5 3e
       -0.33971912 0.36498773 -0.61436373 0.32293025
000080 6f aa f2 bd 29 9b 55 be 92 24 bf 3e 76 47 8d 3e
       -0.11848914 -0.2085997 0.37332588 0.27593583
000090 43 db 11 bf 46 38 3e 3e b6 d9 2a 3d d9 7e 01 3f
       -0.5697519 0.18576154 0.04171153 0.5058418
0000a0 24 ab 1c 3e e2 3a 27 3f fa 2c ba bd 1e d9 39 be
       0.1529966 0.65324223 -0.0909061 -0.1814923
0000b0 25 c8 05 bf c5 9a d9 3d cd f4 85 3d f4 0a f2 be
       -0.5225852 0.10625223 0.06540833 -0.47273982
0000c0 42 9a 2f 3e c4 a7 0e bf
       0.17148688 -0.5572474

fc1.bias f4 [25]
000000 39 6b 03 be 1b 08 c4 bc 24 82 1d 3f 12 1b 2f bf
       -0.12833871 -0.023929646 0.61526704 -0.6840068
000010 31 6c 23 be a5 3c 15 bf fa 5b 17 3f 00 d9 f7 be
       -0.1595924 -0.5829566 0.5912472 -0.48407745
000020 28 e2 e9 be de 30 c5 3e 28 c6 82 bc dc be 1c be
       -0.45680356 0.38513845 -0.015963629 -0.15307182
000030 76 ba 1e bf 7a b0 18 3f 75 0f 07 bf 72 73 2b bf
       -0.62003267 0.5964428 -0.5275796 -0.6697303
000040 8c e6 f2 be 31 43 00 bf eb df 26 bf b7 d2 1f 3e
       -0.47441518 -0.50102526 -0.6518542 0.15607725
000050 0d c8 93 be 6a 0b 02 bf c7 f3 44 3e 08 01 80 be
       -0.28863564 -0.50798666 0.19233619 -0.25000787
000060 1e 1e 25 bf
       -0.6449908

fc2.weight f4 [25, 25]
000000 f6 99 da 3d 37 96 ea 3d 6e a1 07 be d1 d2 04 3e
       0.10673897 0.114544325 -0.13245174 0.12971045
000010 e0 bd ef bd ef ad 7e bd d0 92 35 3d 6d cd 3b 3e
       -0.11706138 -0.062177595 0.044329464 0.18340082
000020 1a 47 25 3e 31 e6 1d 3e b4 63 aa bb 59 27 1e 3e
       0.16140404 0.15419842 -0.005199874 0.15444697
000030 be c9 2a 3e 9f 1f 80 bc 70 5c 4c 3d 0b 4d 56 bc
       0.16678521 -0.015640078 0.049892843 -0.013079892
000040 b9 ed b4 3c b6 1d 35 3e a6 83 83 bd 57 45 80 bd
       0.022086011 0.17687115 -0.06421594 -0.062632255
000050 4f 0b 3b be 0c 30 21 3e 78 7b 9c 3d 01 cf 84 3d
       -0.18266033 0.15740985 0.07640737 0.06484795
000060 e7 e3 b5 bd e2 4e 8d bc 6d d1 f9 3c fe 10 d7 bd
       -0.088813595 -0.017249528 0.03049537 -0.10501288
000070 04 c7 15 be be c2 b0 bb c8 f4 d3 bd a3 af 31 3d
       -0.146267 -0.005394309 -0.10349423 0.04338039
000080 81 61 29 be d5 fe 4b 3d 5a a7 08 be bd 34 10 bd
       -0.16541101 0.049803574 -0.1334509 -0.035206545
000090 50 a5 03 be 6b 7e 1b 3b e8 a9 92 3c e9 88 2b 3e
       -0.1285603 0.0023726474 0.017903283 0.16751446
0000a0 a5 c8 85 3a 2e f9 55 3d fc 3c 0f be 3a 64 de bc
       0.0010206891 0.05223959 -0.13988107 -0.027147401
0000b0 d3 86 dd bd 73 04 de bd 90 93 0e be b0 9a 7f ba
       -0.10816731 -0.10840692 -0.13923478 -0.0009750528
0000c0 ca ca dc bc 9b da e9 bc 1e 68 f8 3d a1 aa eb 3c
       -0.026952166 -0.028546622 0.12129234 0.028767886
0000d0 f2 48 c8 bd 4e ba dc 3d da 14 ff bd e9 ce f5 bd
       -0.09779538 0.10777722 -0.12455149 -0.120023556
0000e0 42 aa 93 bd 04 6d 53 bd 56 3a d2 3d 2a 90 9b bd
       -0.072102085 -0.051617637 0.10265033 -0.075958565
0000f0 82 45 c9 3d 21 ea 5c 3e 58 4f 72 bd d2 e4 08 bd
       0.09827711 0.21573688 -0.0591577 -0.033421345
000100 ce df 40 3e fc 69 21 3e 7e 39 69 bd 0a f9 85 3d
       0.18835375 0.15763086 -0.056939594 0.06541641
000110 c0 59 08 3d f0 e0 53 3e 8c 3f f8 3d 53 f7 c4 bd
       0.033288717 0.20691276 0.121214956 -0.09617486
000120 7f eb 35 3e 97 ee 90 bd 8c e4 57 bd 36 05 01 be
       0.17765616 -0.070767574 -0.052708194 -0.12599644
000130 e6 0d 18 be 81 43 c2 bd a4 2b 12 3e 0c e7 7d bd
       -0.14849052 -0.094855316 0.1427446 -0.06198792
000140 e6 71 2b be aa e2 3b be 95 93 60 bd 33 14 8e 3d
       -0.16742668 -0.18348184 -0.054828245 0.069374464
000150 0b 64 38 3e d9 11 fa bc 35 13 f8 3d c4 c8 48 3e
       0.18006913 -0.030526089 0.121130385 0.19607836
000160 3a c5 7f bc ac 29 07 be e0 e0 cb bd 95 00 f2 3d
       -0.015610987 -0.1319949 -0.09955001 0.11816517
000170 4d 19 f6 3d 30 99 10 3d 04 60 a5 bc de 78 eb 3d
       0.120165445 0.03530234 -0.020187385 0.11497663
000180 5a ba 5f bd cd 69 4d 3d e4 35 bb 3c 46 2b 6b 3d
       -0.054621078 0.050149728 0.022852845 0.057414316
000190 ad 84 16 be f4 e2 2a 3e b4 16 40 be 86 6e f7 3d
       -0.1469905 0.16688138 -0.1875866 0.120816275
0001a0 ba 71 90 3d 31 8d d2 3d 17 43 52 3d 0e 92 d8 bc
       0.070529416 0.102808364 0.051333513 -0.026436832
0001b0 9d dd 03 3e 43 6c 1c 3d 8f e1 2a 3e 5a 16 3f 3d
       0.12877508 0.038189184 0.16687606 0.046652175
0001c0 49 36 22 3e 81 5b 90 3d 8d f8 5e be de 5b 15 3e
       0.1584102 0.07048703 -0.21774502 0.14585826
0001d0 4d 5d 83 3c 90 e6 de bd a0 c8 15 3e bb 9f 11 3e
       0.0160357 -0.1088382 0.14627314 0.14221089
0001e0 3f d1 a1 bd 5a 27 ea bd 47 ab c7 3d e0 a4 4c be
       -0.07901239 -0.11433287 0.097494654 -0.1998477
0001f0 8d f5 24 3d 6b 55 ed bd d0 a0 92 bc 4a aa 18 bd
       0.040273238 -0.11588558 -0.017898947 -0.037271775
000200 05 cb 99 3d 61 a3 36 be 6a 3a f4 3c 4a 45 1d 3e
       0.07509426 -0.17835762 0.02981301 0.15358463
000210 48 a5 1e 3d f9 9f 12 be a6 6e 41 bc e9 57 c4 bd
       0.038731843 -0.14318837 -0.011806166 -0.0958708
000220 11 d2 79 3d 64 5e 46 be 26 19 6f bd 57 e6 41 bd
       0.06099135 -0.19371945 -0.058373593 -0.04733881
000230 8b a9 c6 bd ea c0 4a be df e0 4e bd 73 46 16 be
       -0.097003065 -0.19800153 -0.050507423 -0.14675312
000240 36 fd 8f 3d 30 fa cf bd c9 b0 07 3e a6 72 88 bd
       0.07030718 -0.10155141 0.13251032 -0.066624925
000250 e4 39 b9 bd 33 c9 dd 3d 7a 73 c3 3d f0 00 85 bd
       -0.09044245 0.10829391 0.0954351 -0.064943194
000260 8a 37 da bd fd 0f 2c 3e 09 11 24 3e 26 89 42 be
       -0.106551245 0.16802974 0.16022123 -0.1899763
000270 71 8b 5c be 87 2d 4a 3d d8 8a f7 bd 01 07 e7 bd
       -0.21537568 0.049359825 -0.12087029 -0.11280633
000280 df de 54 3c 7d 8d 0c 3e 99 24 d6 3c 93 cd 03 be
       0.01299259 0.13725848 0.026140498 -0.12871389
000290 65 25 27 3e 81 49 03 be 42 15 d6 3c 1f 9f f5 3d
       0.16322859 -0.12821008 0.026133183 0.119932406
0002a0 96 e4 b6 3d d9 5b 04 3e 36 f1 23 be 9a 75 8f 3d
       0.08930318 0.12925662 -0.16009983 0.070048526
0002b0 cc ea 40 be 8c d0 2a 3e 59 d5 a1 bd 25 4f 01 3e
       -0.18839568 0.16681117 -0.07902021 0.12627847
0002c0 cb 90 b5 bd b3 17 b9 3c ec 70 df 3d 71 d2 f9 bd
       -0.08865508 0.022594308 0.1091021 -0.12198342
0002d0 90 d0 32 3e 6c 36 da bd 8c ff 00 3d 7f 3f b0 bd
       0.17462373 -0.106549114 0.03149371 -0.08605861
0002e0 23 31 a4 bc c0 db a8 bd e1 ee 27 be 43 41 40 be
       -0.020042961 -0.08245039 -0.16399719 -0.18774895
0002f0 7a 79 26 3d 52 b7 fb bd fc 88 13 3e ed 97 e3 bc
       0.040643193 -0.12290825 0.14407724 -0.027782405
000300 9b a2 eb bc fc 5c 71 3b 0d 7a bf bd 57 07 37 3e
       -0.02876406 0.0036829105 -0.09349451 0.17873894
000310 4f 93 1d 3d dc 49 6c 3d 04 30 5c bd 48 e1 02 be
       0.038470563 0.057687625 -0.05375673 -0.1278125
000320 00 d5 81 3d 5c 3d 04 3d 9d 37 3a 3d 69 6a df bd
       0.06339455 0.03228508 0.045463193 -0.10908968
000330 aa 9a 09 be 7e 8b 07 be c1 ed cd bc 7b 42 26 be
       -0.13437906 -0.13236806 -0.025137784 -0.16236298
000340 10 6a f8 3d b3 a1 8e 3c 66 b5 b1 3d c3 7a 9f 3d
       0.12129605 0.017411089 0.08677177 0.07787087
000350 a6 00 2d bb 27 4c 06 be d6 0b ca bd 43 1d 41 be
       -0.0026398092 -0.13114987 -0.09865539 -0.18858819
000360 05 0c 1b 3e 40 bf 92 3c 94 ae 8e 3d b7 82 80 3d
       0.15141304 0.01791346 0.06966892 0.06274932
000370 1f d6 d9 bd b6 8a 35 3e 2c d8 11 3e b9 b4 50 3d
       -0.106365435 0.17728695 0.1424262 0.0509536
000380 da f7 80 3d be 68 d1 3c db 3c a6 3c 9e 3b 2f be
       0.06297274 0.02556264 0.02029269 -0.17112586
000390 df 97 2b 3e 9e 90 a2 3d 4a 2b d2 3d f9 3d 0d 3e
       0.16757153 0.0793774 0.10262163 0.13793172
0003a0 c7 d1 e0 3c ad 81 3a be 95 a6 db 3d 0b a7 95 bd
       0.02744378 -0.1821353 0.107251324 -0.073072515
0003b0 4f 62 5f bc f8 e3 e7 3d 41 e4 88 3c 68 ba a1 bd
       -0.013634278 0.113227785 0.016710402 -0.07896882
0003c0 b6 e7 0e be e5 52 40 3e 92 93 40 3e a8 4f 7c 3d
       -0.13955578 0.18781622 0.18806294 0.061599404
0003d0 81 14 48 bd d5 8c 5e 3d d0 f3 34 be 3a 91 d1 3a
       -0.04884768 0.054333527 -0.17671132 0.0015988715
0003e0 bb d9 14 3c d6 80 84 3d a4 1a f2 bc 4c 74 f5 bc
       0.009085114 0.06469886 -0.029553719 -0.029962681
0003f0 4f 3b 95 bd 8b 13 f7 3d 9e 6e 5b bd 2e 24 4c bc
       -0.07286703 0.120642744 -0.05357229 -0.012459798

fc2.bias f4 [25]
000000 66 08 26 bb f2 c9 d9 3d 0d 20 cd bc b0 8e ab 3d
       -0.0025334596 0.10634221 -0.025039697 0.08376825
000010 0b e7 ab 3d b6 ce 30 be 6b c6 13 bd 80 95 00 3e
       0.08393677 -0.17266354 -0.036077898 0.1255703
000020 c2 e0 2f 3c 9d fc d9 3d 4d 61 15 bd af 79 36 be
       0.010734739 0.10643885 -0.036469746 -0.17819856
000030 ef b8 86 3d dc 34 07 3d 00 67 56 be 26 67 3f 3d
       0.06578242 0.033009395 -0.20937729 0.04672923
000040 71 8e 90 bc ff a3 ec 3c 14 cb bf 3c 14 06 e6 3c
       -0.017646046 0.028886793 0.023412265 0.02807907
000050 22 a2 19 bc 65 f2 e4 3d 2a cd b6 bc e1 93 0b 3e
       -0.009377034 0.111790456 -0.022314627 0.1363063
000060 ed 80 2b 3e
       0.167484

fc3.weight f4 [25, 25]
000000 00 1a 5b bd 4f 8a 1d 3e 91 37 48 be db 95 d2 bb
       -0.053491592 0.15384792 -0.19552447 -0.0064265556
000010 13 b7 fd 3c ad 74 d4 3d 1e 39 3f bc b9 96 eb bb
       0.030971086 0.10373817 -0.011671333 -0.0071895984
000020 22 a7 09 3e 2b d8 5a be 66 16 d1 bd 50 92 d4 3d
       0.13442662 -0.21371524 -0.1020935 0.103794694
000030 7c 94 06 be 7d 49 a3 3d 26 2b 14 3e b5 7c 04 be
       -0.1314258 0.07973001 0.14469585 -0.12938197
000040 70 21 07 3e b0 22 9b 3d 5e 84 b5 bd e3 11 8e bd
       0.13196349 0.075749755 -0.08863138 -0.06937005
000050 4d e2 03 3e 83 5b 47 3d 37 c0 c4 3c b6 33 34 be
       0.12879296 0.048671257 0.024017436 -0.17597851
000060 cc 3e 1d be 75 2e 45 be 1e 72 51 bd 03 f8 1d bd
       -0.15355986 -0.19256003 -0.05113422 -0.0385666
000070 25 37 26 be 4f 76 6b bd 05 03 25 be a3 ee e1 3d
       -0.16231973 -0.057485875 -0.16114433 0.110318445
000080 d6 71 0a 3d d5 bd 74 bd 76 66 35 3d f9 9b 73 bd
       0.03379997 -0.05975135 0.044287167 -0.05947492
000090 02 b6 36 3e 2e ae 9a bc 1b c1 15 3e e6 07 1b 3d
       0.17842868 -0.018881883 0.14624445 0.03784933
0000a0 5a 31 f2 3d fc 87 48 bd a0 da b9 bc 27 60 85 bc
       0.11825819 -0.04895781 -0.022687256 -0.0162812
0000b0 ca de 7e bd 2c 77 0f bc a3 46 e8 bd 64 32 8d 3d
       -0.062224187 -0.00875644 -0.11341598 0.06894377
0000c0 7d e4 25 3e 3b 03 1d 3e 00 6e 2e 3b f6 07 21 be
       0.16200443 0.15333264 0.0026615858 -0.15725693
0000d0 ed dc ac bd b7 a2 b2 bd 98 04 1a 3d 76 75 94 bd
       -0.08440576 -0.08722442 0.037602037 -0.072489664
0000e0 95 a8 30 be 52 57 dc 3d ee 76 80 3d bf 3a 3d be
       -0.17251809 0.107588425 0.06272684 -0.18479441
0000f0 56 99 13 be 3e 56 1f be 31 ff 31 3e 88 b6 1d bd
       -0.14413962 -0.15560243 0.17382504 -0.038504153
000100 00 75 9c bb 4b ce 44 3e 68 65 5f bd 32 79 0c be
       -0.0047746897 0.1921932 -0.054540068 -0.13718107
000110 3a e8 24 be 02 5c e1 3d ad 15 39 be 70 fd 3a be
       -0.16104212 0.11003877 -0.18074675 -0.18260741
000120 a5 fc 0c 3e c2 1d c1 3d 84 5d 95 bd 4a 26 1c be
       0.13768251 0.09429504 -0.07293227 -0.15248981
000130 65 2b d2 bd 32 37 26 be 90 06 12 be 3e a9 42 3e
       -0.10262183 -0.16231993 -0.14260316 0.19009873
000140 86 2f a6 3c 5a 7e 02 3e 12 6c cc bd d0 c5 99 bd
       0.020286333 0.12743512 -0.0998155 -0.07508433
000150 80 71 13 3e 22 7a 95 bd de 6a c2 3d 50 24 9b bd
       0.14398766 -0.072986856 0.094930395 -0.075752854
000160 cc ac 18 3e 6d d1 c6 bd d6 b7 29 be c0 66 2d be
       0.14909667 -0.097079135 -0.16574034 -0.16933727
000170 da df db 3c 6c 55 f9 bd d0 09 db 3d 3a c5 8c bd
       0.02684014 -0.12174496 0.10695231 -0.068735555
000180 8b 87 f9 3d 28 dd 17 3d 53 c9 07 3e d7 99 20 be
       0.12184056 0.037076145 0.13260393 -0.15683685
000190 81 37 22 be 9c 73 3b bd 0c 11 56 3e 61 73 01 bd
       -0.15841486 -0.04576455 0.2090494 -0.031604175
0001a0 57 46 f7 bd f4 16 89 3a 5c e5 eb bd 0a 9d 0c 3e
       -0.12073963 0.0010459111 -0.11518356 0.1373178
0001b0 3e 1f d5 3c 29 e8 a6 bc 85 e7 d6 3d b1 81 63 3e
       0.026015874 -0.020374374 0.104933776 0.22217442
0001c0 ea af bb bd 8d aa 2c 3e ab e4 e4 3d 37 6c 5c 3e
       -0.09164412 0.16861935 0.111764275 0.21525656
0001d0 a6 c3 ab bd ee c0 87 bd c8 41 9f bd a5 74 f8 bc
       -0.08386926 -0.06628595 -0.07776219 -0.030329058
0001e0 8d 98 8f bd 93 18 b6 bd 40 cf 5e 3d b0 89 7e bc
       -0.070115186 -0.08891406 0.054396868 -0.015535757
0001f0 04 ca 7f 3d 62 93 79 3d fb 12 37 be f4 3d 82 bd
       0.062448516 0.06093157 -0.17878334 -0.06359473
000200 e8 a9 10 be da 9a cb 3d b1 58 2c be e6 3b b9 bc
       -0.14127314 0.09941645 -0.16830708 -0.02261157
000210 f2 b3 b6 3d 38 2a 3d be 15 3c ba bd 90 8b 7f 3d
       0.089210406 -0.18473136 -0.09093491 0.062388957
000220 11 58 ff bb 55 3e 1a 3d 16 08 b2 3d ff c1 85 bd
       -0.0077924808 0.0376571 0.086929485 -0.065311424
000230 ea d8 9f 3d e4 3c f4 3d f3 4e 48 be c5 81 2b bc
       0.07805045 0.119256765 -0.19561367 -0.010467951
000240 43 c3 2a be 11 d6 4c 3d c6 b4 d5 bc 31 92 cd bd
       -0.16676049 0.050008837 -0.026087176 -0.100376494
000250 24 3f b9 bc 49 bd c8 bd e6 3e c9 3d b9 23 06 be
       -0.022613116 -0.09801728 0.0982645 -0.13099565
000260 86 71 55 be ad c8 49 bc 43 1f a1 bd 30 d7 69 3d
       -0.20844087 -0.012315911 -0.07867291 0.057089984
000270 08 96 83 bd 60 14 cf 3d 79 3e 3d bd a5 d1 e2 bd
       -0.064251006 0.10111308 -0.046202157 -0.11075143
000280 47 43 da 3b 58 e9 06 3e 4c 28 02 bd e9 0b c7 3d
       0.006660852 0.13174951 -0.03177671 0.097190686
000290 60 82 ef bc a7 45 7e 3d 6f 90 24 3d 3c ec ed bc
       -0.029236972 0.062078144 0.040176805 -0.02904331
0002a0 5b 13 4f 3d 46 f0 d0 3c 73 84 0e be ec df 2b bd
       0.05055557 0.025505196 -0.13917713 -0.041961595
0002b0 ea 67 c3 3d 4c f4 0a 3d d5 5c 1e 3e 98 7b cd bc
       0.095413044 0.033924386 0.154651 -0.025083348
0002c0 d5 56 48 be 5d c5 0f be 3f 55 44 3e 60 7a 32 be
       -0.19564374 -0.14040132 0.19173144 -0.17429495
0002d0 73 5c 2c 3e d0 41 6f 3c 80 bc c2 bc 69 e0 3d 3e
       0.16832142 0.014603093 -0.023771524 0.18542637
0002e0 6d 03 43 be 03 8b 21 3e a0 fe 43 3c 47 79 b9 bd
       -0.19044276 0.15775685 0.011962563 -0.09056335
0002f0 dd 9a 46 be 9d 9f 49 be c3 e3 48 be d2 8c d8 3d
       -0.19395013 -0.19689794 -0.19618134 0.10573734
000300 fa 1b db bd a0 ae 41 3d 10 dc ed bc bd 12 13 be
       -0.106986955 0.047285676 -0.029035598 -0.14362617
000310 c0 c3 fc 3b b2 1c e5 3d 7c 1e 99 bd 14 3f 3c bd
       0.007713765 0.11187114 -0.074765176 -0.045958593
000320 d3 75 9c 3d 12 42 43 be 85 64 51 bd 18 51 4c bb
       0.07639661 -0.19068173 -0.051121254 -0.0031176265
000330 a4 2c 33 be d4 61 c2 bd 4d 56 ad 3c b5 db 3c 3e
       -0.17497498 -0.094913155 0.021159315 0.18443187
000340 ac e8 7b bd cc c4 af 3c e7 20 b7 bd 96 d0 ce 3d
       -0.06150119 0.021456145 -0.089418225 0.10098378
000350 c5 79 36 3c 58 3f 8e 3d 6b 2e 20 3d 2e 41 02 3e
       0.011137431 0.069456756 0.039106768 0.12720177
000360 b9 f5 23 3e cc 45 e4 bd cb c6 04 3e 79 56 b3 bd
       0.16011705 -0.11146125 0.12966458 -0.08756728
000370 46 92 1a 3e 60 3c 52 bd b5 e5 6c 3d 54 76 fd 3d
       0.15094861 -0.05132711 0.057836253 0.12376085
000380 04 76 0c 3e f7 56 b9 bd 2d e2 34 3e 20 90 44 bd
       0.13716894 -0.0904979 0.17664404 -0.04798901
000390 89 9b 59 be bc e1 ab 3d ed 74 42 be d1 1c 09 3e
       -0.21250738 0.08392665 -0.18989916 0.13389899
0003a0 12 ae 1a bc 0e 94 1b be ef c9 2e 3e b4 aa 17 3e
       -0.009440916 -0.15193197 0.17069219 0.14811212
0003b0 81 bf 2c 3e 47 ea 99 3d 87 43 95 bd e9 99 cc 3d
       0.16869928 0.07515388 -0.072882704 0.099902935
0003c0 e6 d3 b8 bb 04 bd 5a bd 4f d7 3a be 2e 18 ee bc
       -0.0056404946 -0.053402916 -0.18246196 -0.029064264
0003d0 d2 9f 82 bd 9d bf 93 bd 51 87 39 3d a8 c0 13 3d
       -0.063781396 -0.07214282 0.045295063 0.036072403
0003e0 ca 75 06 3c 9a f9 27 be ac ce 1f bd b9 94 09 3e
       0.008206794 -0.16403809 -0.039015457 0.1343564
0003f0 76 8b 12 be 74 09 13 3d 35 d3 18 3e 57 18 d9 bd
       -0.14311013 0.035897687 0.14924319 -0.106003456

fc3.bias f4 [25]
000000 4e 5b 0e 3e d1 72 2d be 70 cf c7 bc 89 ff e3 3c
       0.13902017 -0.1693833 -0.024390906 0.02783181
000010 2a a6 6c 3e 4f c3 2b 3e ff 64 5c bc f0 f3 e3 bc
       0.23110262 0.16773723 -0.013451814 -0.02782628
000020 c9 35 ad 3d ac c8 1a bd 8f e1 40 be 95 99 20 3b
       0.08457524 -0.037789032 -0.18836044 0.0024505605
000030 d9 f6 77 3c 24 4f d0 3c a5 ca 61 3d f6 70 83 3b
       0.015134537 0.025428362 0.055124898 0.0040112687
000040 50 94 6c 3c 11 ea 2c 3e db 05 31 bd b0 3b 54 3c
       0.014439657 0.16886164 -0.043218475 0.012953684
000050 00 3e f8 3b c3 be e6 3d 42 80 8b bd 3d 44 a9 bd
       0.0075757504 0.11266854 -0.068115726 -0.082649685
000060 1b aa 42 bd
       -0.047525506

fcFinal.weight f4 [1, 25]
000000 5e 75 9d bd dc bc 0e be 00 3e 7c 3b 7b cb f2 3d
       -0.07688402 -0.13939232 0.0038489103 0.11855217
000010 e8 27 02 3e af c5 4a bd 4a 78 74 bc a2 f6 a1 3d
       0.12710536 -0.049504932 -0.014921257 0.079083696
000020 fc 56 16 3e d5 75 2c be 42 ba bf 3d 49 71 77 bc
       0.1468162 -0.16841824 0.09361698 -0.015102693
000030 5b 02 f4 3d 19 49 2e 3e cf 81 22 3e df 92 f7 bd
       0.11914512 0.17020072 0.1586983 -0.1208856
000040 02 c7 84 3d 57 ea cd bd d6 2e 01 bd b3 1e 29 3e
       0.0648327 -0.100544624 -0.031538807 0.16515617
000050 f6 3f 25 be 3d 89 ff 3d fd a9 b0 bd 14 53 bd 3d
       -0.1613768 0.12477348 -0.08626173 0.092443615
000060 17 0d b8 3d
       0.08986872

normalize2D.weight f4 [2]
000000 70 d9 88 3f 76 50 6c 3f
       1.0691357 0.92310274

normalize2D.bias f4 [2]
000000 6a 62 ea 3c e1 2f 9c 3d
       0.02861138 0.0762632

normalize2D.running_mean f4 [2]
000000 f4 df b1 40 4f 01 b2 40
       5.558588 5.5626597

normalize2D.running_var f4 [2]
000000 b1 4d 38 43 13 a0 38 43
       184.30348 184.62529
