stock market/trained_weights/Gaussian_Close_NN/30.pth (torch, 10866 bytes, 11 tensors)

fc1.weight f4 [25, 3]
0	0x3e85c908	0.26129937
1	0x3f8ed068	1.115735
2	0x3f1f05f5	0.62118465
3	0xbf1fde2b	-0.62448376
4	0xbf901430	-1.1256161
5	0xbfbb2963	-1.4622005
6	0xbf3721e1	-0.7153607
7	0xbf5faaee	-0.87370193
8	0xbf736368	-0.95073557
9	0xbf23e19f	-0.64016145
10	0x3e856691	0.26054814
11	0x3ec2648d	0.3796734
12	0x3eed2aea	0.46321803
13	0x3c191276	0.00934278
14	0xbef7d239	-0.48402575
15	0xbf4b14d5	-0.7932866
16	0xbf685b5a	-0.9076439
17	0xbf7197ff	-0.9437255
18	0x3f22b414	0.6355603
19	0xbefbabcd	-0.4915451
20	0xbe1a257d	-0.15053363
21	0x3e81c38b	0.253445
22	0x3f623476	0.883613
23	0x3f4a04e7	0.7891373
24	0x3f2cb814	0.6746838
25	0x3f27f408	0.6560674
26	0x3edb2f68	0.42809606
27	0xbdf306f6	-0.11866562
28	0xbf7f0444	-0.99615884
29	0xbed36e18	-0.41294932
30	0xbed4e518	-0.41581035
31	0xbf2bc868	-0.6710267
32	0xbcd16202	-0.02555943
33	0xbe989079	-0.29797724
34	0xbe9e7bff	-0.30953977
35	0x3f1c41c2	0.6103784
36	0xbf6a5cb3	-0.915477
37	0xbf01dc1c	-0.50726485
38	0xbf0d2a4e	-0.55142677
39	0x3ed522d0	0.41628122
40	0x3f64aefb	0.893295
41	0x3f9b5a83	1.2136997
42	0xbf0c124f	-0.54715437
43	0x3f04ab67	0.5182404
44	0x3d172d2f	0.036908325
45	0xbf1ea450	-0.6196947
46	0xbf10d315	-0.56572086
47	0xbf0366c7	-0.513287
48	0x3e87bbbb	0.26510414
49	0xbe12b327	-0.14326154
50	0xbe8ce3dc	-0.27517593
51	0x3e6a1dbc	0.22862905
52	0x3c039647	0.008031434
53	0xbe7fefd1	-0.24993826
54	0xbdf79fec	-0.120910496
55	0x3e4f92de	0.20270869
56	0x3da1ea0e	0.079059705
57	0x3da4e024	0.08050564
58	0x3e0bbed1	0.1364701
59	0xbd7c5297	-0.0616022
60	0xbf62172d	-0.88316613
61	0xbf881521	-1.0631448
62	0xbf77947d	-0.9671095
63	0x3ee17b87	0.44039556
64	0x3f90414b	1.1269926
65	0x3f88a8ae	1.0676477
66	0xbeaccd32	-0.33750302
67	0xbf2bdb47	-0.67131466
68	0xbfa8ca88	-1.3186808
69	0x3f3b721c	0.7322099
70	0x3eb0868d	0.34477654
71	0x3eaade1f	0.3337259
72	0x3f222946	0.6334423
73	0xbe9a7d87	-0.30173895
74	0xbe692b64	-0.22770458

fc1.bias f4 [25]
0	0xbf00b1f2	-0.50271523
1	0x3fae6477	1.362441
2	0x3f59fde0	0.8515301
3	0x3d359677	0.044332948
4	0x3de6f6b9	0.11277527
5	0x3f761535	0.9612611
6	0x3cb3d6ee	0.021953072
7	0xbeb4c80a	-0.35308868
8	0x3d3f5544	0.046712175
9	0x3e67deba	0.22643557
10	0xbe70365d	-0.23458238
11	0xbd0928b4	-0.033486083
12	0x3f117b31	0.568286
13	0xbf59dbfe	-0.85101306
14	0xbd4d328f	-0.050097045
15	0x3d51737b	0.05113552
16	0x3db0be61	0.08630062
17	0x3e84a5eb	0.25907835
18	0xbe924f2b	-0.28576025
19	0xbf12592d	-0.5716732
20	0x3f910e7e	1.1332548
21	0xbf73c001	-0.9521485
22	0x3f32dbe2	0.69866765
23	0x3e8b442b	0.27200446
24	0xbadb40aa	-0.0016727645

fc2.weight f4 [25, 25]
0	0x3e0582c1	0.1303816
1	0x3dfaedb0	0.122523665
2	0xbca71657	-0.020396395
3	0x3da3d27a	0.079991296
4	0x3de6c680	0.112683296
5	0xbe37b51f	-0.17940186
6	0xbd457018	-0.048202604
7	0xbd3a4be0	-0.045482516
8	0xbe04b214	-0.12958556
9	0xbe31c3c5	-0.17359836
10	0xbdc3c472	-0.09558953
11	0x3b86910a	0.0041066455
12	0xbe10ae11	-0.14128901
13	0xbd4bd17d	-0.04976033
14	0x3d4e7334	0.050402835
15	0xbcd77722	-0.026301924
16	0x3dd67dbf	0.10473203
17	0xbda01cf7	-0.078180246
18	0xbdd6f45a	-0.10495825
19	0xbd2aea4f	-0.04172736
20	0x3c748641	0.014924587
21	0x3d3ddba0	0.04635203
22	0x3dc229d5	0.09480635
23	0x3e3831af	0.17987703
24	0x3e24281c	0.16030926
25	0x3d718e06	0.058973335
26	0x3da9b9d1	0.08287395
27	0xbd9f61ae	-0.07782303
28	0xbbd06f83	-0.0063609495
29	0x3d868e64	0.065701276
30	0xbe2aa161	-0.16663124
31	0x3d6c7ef5	0.057738263
32	0x3cad2c95	0.021139422
33	0xbd1d3825	-0.03838362
34	0x3d8f8871	0.07008446
35	0x3c7b219f	0.01532784
36	0x3c8e42b2	0.017365787
37	0xbe1019e4	-0.14072376
38	0x3d900222	0.07031657
39	0x3e266564	0.16249615
40	0x3c27f6d8	0.010251723
41	0xbd165ac8	-0.03670767
42	0x3cb7090c	0.022343181
43	0x3d258422	0.040409215
44	0x3c83d1cc	0.01609125
45	0xbe12f6ce	-0.14351961
46	0xbda4434c	-0.08020648
47	0x3df7777c	0.12083337
48	0xbc7a087a	-0.01526081
49	0xbcca285d	-0.02467745
50	0x3d56a364	0.052401915
51	0xbe4a3b35	-0.19749148
52	0x3ce0c679	0.02743839
53	0x3e1b0145	0.15137203
54	0xbe51dba2	-0.2049394
55	0xbded7533	-0.115946196
56	0xbe77899b	-0.24173586
57	0xbd1e6b99	-0.038676832
58	0x3e4e0b02	0.20121387
59	0xbd232e26	-0.039838932
60	0x3d6a1433	0.05714817
61	0xbd4225d0	-0.047399342
62	0xbde42ba4	-0.11141136
63	0x3dd1fa0a	0.10252769
64	0xbcaca640	-0.021075368
65	0x3c477244	0.012173239
66	0xbd9dd001	-0.07705689
67	0x3da1de1b	0.079036914
68	0x3d8e60f8	0.06952089
69	0xbd7108fb	-0.058846455
70	0xbd5af3bc	-0.0534551
71	0x3d0264ed	0.03183453
72	0x3d4ae2c2	0.04953266
73	0xbcc1a03f	-0.023635982
74	0x3bed30cf	0.0072384845
75	0xbcb30383	-0.02185226
76	0xbe3f80cf	-0.1870148
77	0x3e0643aa	0.1311175
78	0xbd2bf243	-0.041979086
79	0x3d87c2ae	0.06628929
80	0xbe2421e4	-0.16028553
81	0xbd5c01cf	-0.053712662
82	0x3be1470a	0.0068749236
83	0x3c8146ea	0.015780885
84	0xbe134019	-0.1437992
85	0xbe0ae4d1	-0.13563849
86	0x3c878be5	0.0165462
87	0x3cefa57d	0.029253716
88	0xbdd440a3	-0.10363891
89	0x3e1eab06	0.15494928
90	0x3e36a2ec	0.17835587
91	0xbe0b23f3	-0.13587932
92	0x3e04aec7	0.12957297
93	0x3e1f52f7	0.15558992
94	0xbd94c1dc	-0.07263538
95	0xbde7aaf2	-0.11311902
96	0x3e06122b	0.13092868
97	0x3c1392a4	0.00900713
98	0xbe20e500	-0.15712357
99	0xbd79b5c7	-0.060964372
100	0x3da030f4	0.07821837
101	0x3d4e4926	0.05036273
102	0x3ba9cd51	0.0051819463
103	0xbe0237ff	-0.12716673
104	0x3dd80ce3	0.10549333
105	0x3e203db8	0.15648544
106	0x3f00505d	0.50122625
107	0xbd9e6c55	-0.077355064
108	0x3d8e2ea4	0.0694249
109	0xbd34324e	-0.043993287
110	0x3ddfae5e	0.1092193
111	0xbeab53ac	-0.33462274
112	0x3baca45b	0.005268616
113	0xbd3fb31a	-0.046801664
114	0xbeb9ef7d	-0.36315528
115	0x39889e38	0.00026057824
116	0xbd80bcb0	-0.06285989
117	0xbd058407	-0.032596614
118	0xbd2a8dcd	-0.041639138
119	0x3e47b67b	0.19503205
120	0x3da0ead9	0.07857294
121	0xbe31a024	-0.17346245
122	0x3d9fe2bf	0.0780692
123	0xbd1e7e70	-0.0386948
124	0x3e70848d	0.23488064
125	0xbdca9807	-0.09892278
126	0x3e0fcce9	0.14043011
127	0xbd6604c9	-0.056156907
128	0xbed929a8	-0.42414594
129	0x3e96fb50	0.2948861
130	0xbcbaba70	-0.022793978
131	0x3f02a48f	0.51032346
132	0xbdce5a0a	-0.10075767
133	0xbd45da31	-0.048303787
134	0x3c008f7c	0.007846709
135	0xbd45d096	-0.048294626
136	0xbf096ff0	-0.5368643
137	0x3d7d2749	0.061805043
138	0xbe241606	-0.16024026
139	0xbef6304e	-0.4808373
140	0x3c7eb6e1	0.015546531
141	0x3db90075	0.0903329
142	0x3eb6a2fe	0.35671228
143	0x3e862ec8	0.26207566
144	0x3da4caf1	0.080465205
145	0xbd183430	-0.037159145
146	0xbd824313	-0.0636045
147	0x3e212aa4	0.15738922
148	0x3dc76131	0.09735335
149	0x3e77c286	0.24195299
150	0x3e040d7e	0.12895772
151	0xbdf61eb7	-0.12017577
152	0xbdf73e18	-0.1207239
153	0x3e52abe0	0.20573378
154	0xbde9cf1e	-0.114164576
155	0xbe1b923c	-0.15192503
156	0xbecfefaf	-0.40612552
157	0x3b7586a2	0.003746428
158	0x3b55d45f	0.0032627804
159	0x3dcb3046	0.09921317
160	0xbd8907b5	-0.06690923
161	0x3e3cc360	0.18433905
162	0xbd1e2568	-0.038609892
163	0x3da3d27d	0.07999132
164	0x3e9bbf51	0.304194
165	0xbe2aff23	-0.1669889
166	0x3c30ddf4	0.010795105
167	0xbe1b51e0	-0.15167952
168	0xbc8be68d	-0.017077709
169	0xbe0e6099	-0.13904037
170	0xbcd5a94d	-0.026081705
171	0x3e483358	0.19550836
172	0xbd7d4150	-0.061829865
173	0xbe0665b7	-0.13124739
174	0xbd1d1526	-0.038350247
175	0xbd22f910	-0.039788306
176	0xbce156c2	-0.02750719
177	0xbe174e14	-0.14775878
178	0xbd340940	-0.043954134
179	0x3d8c6aa5	0.06856278
180	0xbe074951	-0.13211562
181	0xbe168b4d	-0.14701577
182	0x3d8e3e28	0.06945449
183	0xbe0b6cde	-0.13615748
184	0xbcc901bf	-0.024536965
185	0xbd4e5dfe	-0.050382607
186	0xbcdc7f7d	-0.02691626
187	0xbd3eed89	-0.04661325
188	0x3d054f43	0.032546293
189	0x3e346d51	0.17619826
190	0x3dd6eefa	0.104948
191	0x3d8ee6ed	0.06977639
192	0xbcf2f2c8	-0.029656783
193	0xbdf272de	-0.118383154
194	0x3d81f971	0.06346405
195	0x3cd2497e	0.02566981
196	0x3cfc0e6c	0.030768596
197	0xbc88fa0d	-0.016720796
198	0x3d965aa5	0.07341508
199	0x3decd20c	0.11563501
200	0x3e33f813	0.17575102
201	0xbe7beab9	-0.24601258
202	0xbe20c385	-0.15699585
203	0xbd801a24	-0.06254986
204	0x3dd6b74c	0.1048418
205	0xbcdf9923	-0.027294701
206	0xbd18216c	-0.03714125
207	0xbe16a420	-0.14711046
208	0xbd456786	-0.04819443
209	0xbe186534	-0.14882356
210	0x3e1aef4a	0.15130344
211	0x3e40a97d	0.18814655
212	0xbd172211	-0.036897723
213	0x3becf5b2	0.0072314376
214	0x3c9628d7	0.01833002
215	0x3db0f23a	0.08639951
216	0x3ddb2910	0.107011914
217	0xbd5c2f9d	-0.053756345
218	0xbdaf97bc	-0.08573863
219	0x3e3038b8	0.17209136
220	0xbe48787e	-0.19577214
221	0x3df3578f	0.11881935
222	0x3d1ce784	0.038306728
223	0x3d37089e	0.044685952
224	0x3df4cbe7	0.11952954
225	0x3dd3aff4	0.10336295
226	0xbe5992c6	-0.21247396
227	0x3d98a162	0.07452656
228	0xbd87ddfb	-0.06634136
229	0x3e11de58	0.14244974
230	0xbde2cd49	-0.11074311
231	0x3d903806	0.070419356
232	0x3e3a4584	0.1819058
233	0xbdef667e	-0.11689471
234	0xbe0b83df	-0.13624524
235	0x3e1f6970	0.15567565
236	0x3e0286e5	0.1274677
237	0xbe09682f	-0.13418649
238	0x3e1b3473	0.15156727
239	0x3cd0d717	0.025493188
240	0xbe14686b	-0.14492957
241	0x3dc0fa59	0.0942275
242	0xbe09facd	-0.13474579
243	0xbda5508c	-0.08072004
244	0x3d919342	0.07108165
245	0xbd8eb2b2	-0.06967677
246	0xbd9a176a	-0.07523997
247	0x3d80efa3	0.06295707
248	0xbdb5c06e	-0.08874594
249	0xbc9978c9	-0.018734353
250	0xbd2f765b	-0.042837482
251	0xbe24a722	-0.16079381
252	0xbdb91ae1	-0.0903833
253	0x3ddadd88	0.10686785
254	0x3dff1b70	0.12456405
255	0xbdf7d683	-0.12101462

fc2.bias f4 [25]
0	0xbdd97329	-0.10617668
1	0xbd06eaff	-0.032938953
2	0x3e0f0036	0.13964924
3	0x3dd9b949	0.106310435
4	0xbdae464d	-0.085095026
5	0xbd9fa356	-0.07794826
6	0x3e273d0d	0.16331883
7	0x3da5f3a6	0.08103113
8	0xbd9cf6d6	-0.07664268
9	0x3c673465	0.014111613
10	0x3e24b465	0.1608444
11	0x3e2335fe	0.15938565
12	0xbd362f05	-0.044478435
13	0x3e1044a0	0.14088678
14	0xbd07c796	-0.033149324
15	0x3b41bd65	0.002956235
16	0x3e05dc1b	0.13072245
17	0xbd40dee6	-0.047087573
18	0xbd842ab7	-0.0645346
19	0xbc61e264	-0.013786886
20	0xbd961d46	-0.07329802
21	0x3da07c2e	0.078361854
22	0xbd4fad07	-0.05070212
23	0x3d5024cf	0.050816353
24	0x3c381284	0.011234883

fc3.weight f4 [25, 25]
0	0xbd21722b	-0.03941552
1	0x3de662d5	0.112493195
2	0xbd0aed35	-0.033917625
3	0xbcba8c2e	-0.022771921
4	0xbe06e030	-0.13171458
5	0xbdc7af30	-0.09750211
6	0x3dfcf646	0.123516604
7	0xbd0ddf3e	-0.03463673
8	0x3e3a134d	0.18171425
9	0xbdbf1bda	-0.09331484
10	0x3bc8bd0c	0.006126052
11	0xbdd65179	-0.104647584
12	0x3dd232b2	0.102635756
13	0x3dc96e07	0.09835439
14	0xbcda38c2	-0.026638392
15	0x3e21cfd5	0.15801938
16	0xbd633d82	-0.05547858
17	0x3d7c6fc4	0.061630026
18	0xbe1dddd4	-0.15416652
19	0x3ca551b4	0.02018056
20	0x3df609c4	0.120135814
21	0x3e2cf974	0.16892034
22	0xbca8dfb1	-0.020614477
23	0xbe1f8d7f	-0.1558132
24	0x3c8651ad	0.016396368
25	0xbc81f344	-0.015863068
26	0xbd9888bd	-0.07447956
27	0xbdde3f94	-0.1085197
28	0x3d33e590	0.0439201
29	0xbe8245b9	-0.2544382
30	0xbe720ce1	-0.23637725
31	0xbc41f91d	-0.011839178
32	0x3d39d6ff	0.045371052
33	0x3c8153c2	0.01578701
34	0x3e1bfeb1	0.15233876
35	0x3db34eeb	0.08755287
36	0x3db6b15b	0.089205466
37	0xbd4ee25e	-0.05050885
38	0x3e1957d2	0.14974907
39	0xbe21fa3e	-0.15818116
40	0x3e1dce64	0.15410763
41	0xbdf92c21	-0.1216662
42	0x3e00a0aa	0.12561288
43	0xbe3d25fe	-0.18471524
44	0x3e07ac43	0.13249306
45	0x3db3f2d4	0.0878655
46	0xbd2c5e92	-0.042082377
47	0x3e000ee3	0.12505679
48	0x3d16d233	0.036821555
49	0x3dde9af7	0.10869401
50	0xbd171f0b	-0.03689484
51	0x3d33d913	0.04390819
52	0xbe10839f	-0.1411271
53	0x3d92a0d1	0.071595795
54	0x3d5436ae	0.05180996
55	0xbe89af97	-0.26891777
56	0xbc7e2450	-0.015511587
57	0x3d1e0da7	0.03858724
58	0x3dd77847	0.10520988
59	0xbe08516e	-0.13312313
60	0xbe3eeae7	-0.18644296
61	0x3cb760a4	0.022384949
62	0x3d914ab5	0.07094327
63	0x3d8a32e1	0.06747986
64	0x3d423434	0.047413066
65	0x3e017195	0.12640984
66	0x3cf4fb8b	0.029905101
67	0x3e405e17	0.18785892
68	0x3e1edf63	0.15514903
69	0x3bc66077	0.00605398
70	0x3cd032a8	0.02541478
71	0x3dab6544	0.08368924
72	0x3dcd1a95	0.10014836
73	0xbe7edd31	-0.24889065
74	0x3e233207	0.15937053
75	0x3da9eed8	0.08297509
76	0x3e110030	0.14160228
77	0x3b01c0c6	0.001979874
78	0x3da3e5db	0.08002826
79	0xbea30efa	-0.31847364
80	0xbdb2c62b	-0.08729204
81	0xbd8a1ec1	-0.06744147
82	0xbd80219a	-0.06256409
83	0xbd1900f6	-0.037354432
84	0xbb441a87	-0.0029923038
85	0x3deec5f9	0.11658854
86	0x3e41fef4	0.18944913
87	0x3e3572c3	0.1771956
88	0x3e20b550	0.15694165
89	0x3e3ab1cb	0.18231885
90	0x3d98c16e	0.07458769
91	0x3c900bfd	0.017583841
92	0x3d9db2ed	0.07700143
93	0xbe03f321	-0.12885715
94	0xbc185d1c	-0.009299543
95	0xbdbc3ddd	-0.09191487
96	0xbe2e9f9c	-0.17053074
97	0x3e391f09	0.18078245
98	0xbe4d975d	-0.20077272
99	0x3df3f3ec	0.11911759
100	0x3d7b0a32	0.06128902
101	0x3e268486	0.16261491
102	0x3e3b118e	0.18268415
103	0xbe3600f9	-0.17773809
104	0xbe7ab7a1	-0.24484111
105	0xbda31818	-0.0796358
106	0x3e29f352	0.16596726
107	0x3d84189f	0.064500086
108	0x3e18aff3	0.1491087
109	0xbd515f40	-0.051116228
110	0xbe3faaa7	-0.18717442
111	0x3e301371	0.17194916
112	0x3da1c04a	0.07898004
113	0xbd8dfa1f	-0.069324724
114	0x3d7da82e	0.061927967
115	0xbcc3c727	-0.023898674
116	0xbd25f8f8	-0.04052064
117	0x3e29317b	0.16522782
118	0x3d62757e	0.05528783
119	0x3a59b8c3	0.00083054247
120	0xbc9cf33d	-0.019158954
121	0x3e37283e	0.17886445
122	0xbd265d1a	-0.040616132
123	0xbdd302b2	-0.103032485
124	0xbdcdf869	-0.10057146
125	0xbc614c34	-0.013751078
126	0x3df82730	0.121168494
127	0x3da9514e	0.08267461
128	0x3d9d2a82	0.07674123
129	0xbe334fbc	-0.17510885
130	0xbe5666be	-0.2093763
131	0x3dd8742c	0.10569033
132	0xbe10ddd7	-0.14147125
133	0xbe5045b1	-0.20339085
134	0xbdcd74db	-0.10032054
135	0x3e16feb1	0.14745595
136	0x3e3320cc	0.1749298
137	0xbd9caf66	-0.07650642
138	0x3e166645	0.1468745
139	0x3ddc0b8a	0.107443884
140	0x3de8bd8b	0.113642775
141	0xbe136c60	-0.1439681
142	0x3de4d5ff	0.11173629
143	0xbdacd19d	-0.08438418
144	0xbd7465dc	-0.059667453
145	0xbd85de41	-0.06536532
146	0x3e30d030	0.17266917
147	0x3db59554	0.08866373
148	0xbe18a702	-0.14907458
149	0xbe1b47e0	-0.15164137
150	0x3e07508c	0.1321432
151	0xbdafd6f3	-0.0858592
152	0xbc29ef7c	-0.010372039
153	0x3dfe7538	0.124247015
154	0xbe6168b0	-0.22012591
155	0xbe6a393d	-0.22873397
156	0xbcd76d9f	-0.026297389
157	0xbd794cd9	-0.060864303
158	0xbd7cdf5e	-0.061736457
159	0x3e179d5a	0.14806119
160	0xbe49ab1f	-0.19694184
161	0x3cd0ed5b	0.025503805
162	0x3e4e08e0	0.20120573
163	0x3dc314d9	0.09525461
164	0x3d91c0a0	0.071168184
165	0x3d415a5c	0.047205314
166	0xbda5ebe1	-0.08101631
167	0x3c62f14f	0.013851478
168	0x3dac5388	0.0841437
169	0x3dfb5d4a	0.12273653
170	0xbe067315	-0.13129838
171	0xbdf14da9	-0.117823906
172	0x3e3c55f5	0.18392165
173	0xbc3c1bf5	-0.011481275
174	0x3d9761a1	0.07391668
175	0xbd162904	-0.03666021
176	0xbe32294f	-0.1739857
177	0x3d46387e	0.04839372
178	0x3da47d06	0.08031659
179	0x3dd9df9a	0.10638352
180	0xbd643ab5	-0.05572005
181	0x3e4ebcba	0.20189181
182	0xbe49e227	-0.19715177
183	0x3d0e458f	0.034734305
184	0x3d8646fd	0.06556509
185	0x3d1864ce	0.03720551
186	0x3d924a37	0.071430616
187	0x3e436609	0.19081892
188	0xbde0af8d	-0.10970984
189	0x3e2d9c44	0.16954142
190	0x3c86f33e	0.016473409
191	0xbe1dddf9	-0.15416707
192	0x3d963528	0.073343575
193	0xbe5b94fb	-0.2144355
194	0xbdcfec3b	-0.10152479
195	0xbcf9c94c	-0.030491494
196	0xbdb17e1c	-0.086666316
197	0x3cbbfb3c	0.022946946
198	0xbdc44b6b	-0.09584697
199	0x3d524f7a	0.051345326
200	0xbe2fd503	-0.17171101
201	0x3df5a256	0.11993854
202	0xbdf5d75d	-0.12003968
203	0xbe45c503	-0.19313435
204	0x3d578644	0.05261828
205	0x3e281523	0.16414313
206	0xbdeed5a3	-0.11661842
207	0xbdbd83d7	-0.09253662
208	0x3d9f680e	0.07783519
209	0xbdd3300a	-0.10311897
210	0x3e4a621f	0.19763993
211	0xbc89f8f0	-0.016842335
212	0x3d8572a2	0.06516005
213	0x3d7c9934	0.061669543
214	0xbdb1e9fd	-0.08687208
215	0xbe1dba48	-0.15403092
216	0xbe41bddd	-0.18920083
217	0xbe10d288	-0.14142811
218	0xbdd443d0	-0.10364497
219	0x3e267007	0.16253673
220	0xbc2cf980	-0.010557532
221	0xbd16caa0	-0.036814332
222	0x3dc313c6	0.09525256
223	0xbdaf913a	-0.08572622
224	0xbd2e9b88	-0.042628795
225	0xbe051f2d	-0.13000174
226	0xbe18fbc4	-0.14939791
227	0x3dfa23a9	0.12213833
228	0x3db6afe4	0.08920267
229	0xbe542618	-0.20717657
230	0xbe0b1090	-0.13580537
231	0x3e26e4f7	0.1629828
232	0x3e1dae4d	0.15398522
233	0xbd85610b	-0.0651265
234	0x3d49d5f9	0.049276326
235	0xbdc13450	-0.09433806
236	0x3e2a3bd8	0.16624391
237	0x3e2eb295	0.17060311
238	0xbdb634fe	-0.08896826
239	0xbd129c96	-0.035793863
240	0x3e60ad21	0.21941043
241	0xbd9f8267	-0.07788544
242	0x3e1c648c	0.1527273
243	0xbe4e62c3	-0.20154862
244	0x3da1f2e6	0.07907657
245	0xba8851c1	-0.0010400341
246	0xbd9f0ad2	-0.07765736
247	0xbdc590bf	-0.09646749
248	0xbe329f1f	-0.17443512
249	0xbd761577	-0.060079064
250	0x3e0da799	0.13833465
251	0xbe4ed48a	-0.20198265
252	0x3e11765e	0.1420531
253	0xbdcd5211	-0.100254185
254	0xbe7dfeb3	-0.24804191
255	0xbd78821d	-0.06067096

fc3.bias f4 [25]
0	0xbd6a6b9a	-0.057231523
1	0xbc2e893b	-0.0106528355
2	0xbe05673b	-0.1302766
3	0xbe0c1010	-0.13678002
4	0xbe1076de	-0.14107844
5	0xbdb89043	-0.09011891
6	0xbc0e7148	-0.008694001
7	0x3db53913	0.08848777
8	0x3d818faa	0.0632623
9	0x3e275dbe	0.16344354
10	0x3ca084e1	0.019594612
11	0x3d1d20c9	0.038361344
12	0x3de1ba98	0.11021918
13	0xbe3d1f2a	-0.1846892
14	0xbe5c9c61	-0.21544029
15	0x3df81e17	0.12115114
16	0xbde917ca	-0.113814905
17	0xbe16f7f0	-0.14743018
18	0xbe1f6e66	-0.15569457
19	0xbd9a6c91	-0.07540239
20	0xbd7d1b25	-0.061793465
21	0xbe551804	-0.20809942
22	0xbe178954	-0.1479848
23	0xbdfe0547	-0.1240335
24	0x3e066a1e	0.13126418

fcFinal.weight f4 [1, 25]
0	0x3e278334	0.16358644
1	0x3e37942c	0.17927617
2	0x3d9dd6d3	0.0770699
3	0x3d613cd3	0.054989647
4	0x3e1cb54f	0.15303539
5	0xbe035e95	-0.12829049
6	0x3dbdd4ed	0.09269128
7	0x3de17f79	0.110106416
8	0xbe193cb8	-0.14964569
9	0x3e2c4d10	0.16826272
10	0x3df9eceb	0.12203392
11	0xbdfe9dcd	-0.12432442
12	0xbddce925	-0.10786656
13	0xbe1eee29	-0.15520538
14	0xbd8c089e	-0.06837581
15	0xbd554f26	-0.052077435
16	0xbe3b31b3	-0.18280677
17	0x3e0f9a7f	0.1402378
18	0xbd864ca6	-0.06557588
19	0x3e241372	0.16023043
20	0xbe141729	-0.1446196
21	0xbdb894fe	-0.09012793
22	0xbe3768dd	-0.17911096
23	0x3dc7e24a	0.09759958
24	0x3e5de822	0.21670583

normalize2D.weight f4 [2]
0	0x3f800000	1.0
1	0x3f800000	1.0

normalize2D.bias f4 [2]
0	0x00000000	0.0
1	0x00000000	0.0

normalize2D.running_mean f4 [2]
0	0x00000000	0.0
1	0x00000000	0.0

normalize2D.running_var f4 [2]
0	0x3f800000	1.0
1	0x3f800000	1.0
