stock market/trained_weights/Gaussian_Close_NN/v1.pth (torch, 10866 bytes, 11 tensors)

fc1.weight f4 [25, 3]
-0.41943723 -0.49775437 -0.611359 -0.032248575 0.11236684 -0.09585839 0.6749925 0.91127634
1.2845362 0.62902963 0.98502463 0.5471462 -0.4460511 0.5021343 0.34085733 0.17108704
-0.6343468 -0.8173206 0.29544732 0.1547888 -0.25570568 -0.49025148 -0.36045045 -0.9598723
-0.21508344 -1.100597 -0.84478533 -0.09447714 -0.005998218 0.26043516 -0.75875056 -0.7344523
-0.19922775 -0.64045763 -0.6137466 -0.7270225 -0.7024839 0.34530708 0.36574692 -0.9925934
-0.92845625 -0.9639087 0.23841056 0.5307847 0.5607242 0.49284148 0.3171185 0.29712254
-0.37435433 -0.93352437 -0.74441963 0.6622218 -0.59212273 -0.08516383 0.050901227 0.6866378
0.34901774 0.5303676 0.63926446 0.6317608 -0.051763028 -1.1411453 -1.2785162 0.5725153
0.477848 0.8981133 0.6114265 0.59373987 0.20078394 0.01667479 0.2218946 -0.065037005
0.4787803 0.69010633 0.92219394
00000000: 7ac0 d6be a9d9 febe 0682 1cbf 1517 04bd
00000010: 9620 e63d 6751 c4bd 4fcc 2c3f 6849 693f
00000020: af6b a43f 1608 213f 932a 7c3f c611 0c3f
00000030: cf60 e4be e08b 003f da84 ae3e 7131 2f3e
00000040: 8d64 22bf ec3b 51bf df44 973e f580 1e3e
00000050: dbeb 82be 3e02 fbbe f68c b8be 31ba 75bf
00000060: d53e 5cbe 5de0 8cbf da43 58bf 3b7d c1bd
00000070: b38c c4bb c257 853e 7a3d 42bf 1105 3cbf
00000080: 5c02 4cbe 08f5 23bf 7f1e 1dbf 261e 3abf
00000090: fcd5 33bf 17cc b03e 2e43 bb3e 9a1a 7ebf
000000a0: 4faf 6dbf b8c2 76bf e621 743e 82e1 073f
000000b0: 9f8b 0f3f b855 fc3e 5b5d a23e 7220 983e
000000c0: 5fab bfbe 74fb 6ebf 4992 3ebf 5e87 293f
000000d0: 5b95 17bf 606a aebd ce7d 503d 7fc7 2f3f
000000e0: 74b2 b23e 2cc6 073f d6a6 233f 13bb 213f
000000f0: 7805 54bd 0d11 92bf 6ba6 a3bf 5d90 123f
00000100: 7ea8 f43e c1ea 653f 7286 1c3f 56ff 173f
00000110: 4e9a 4d3e 9299 883c 5738 633e 1f32 85bd
00000120: b122 f53e cfaa 303f e714 6c3f

fc1.bias f4 [25]
0.1822135 -0.09041422 -1.0771627 -0.61336166 0.11580198 0.29803824 0.033552315 0.08289311
0.5561531 0.21161613 0.34168962 0.35531995 -0.13355374 1.1234081 -0.22479402 0.13621421
0.44927022 0.07193682 0.17155305 -0.33502403 0.8700173 -0.31190327 -0.027290585 -0.5328935
-0.4560832
00000000: 2d96 3a3e 172b b9bd 78e0 89bf 4505 1dbf
00000010: 9729 ed3d 7898 983e 276e 093d ddc3 a93d
00000020: 0d60 0e3f e6b1 583e f1f1 ae3e 7fec b53e
00000030: 50c2 08be d6cb 8f3f 6730 66be bd7b 0b3e
00000040: bf06 e63e 9d53 933d 9aab 2f3e 4588 abbe
00000050: 74b9 5e3f c9b1 9fbe 8190 dfbc b56b 08bf
00000060: bd83 e9be

fc2.weight f4 [25, 25]
-0.07359075 -0.10935518 -0.12486138 0.073903635 0.09800707 -0.16765913 -0.11618809 0.14399968
0.20531948 0.0064500174 -0.09061411 -0.18159401 0.100236535 0.0020385298 -0.124028414 0.06950897
-0.08636681 0.016396495 0.072232515 -0.0038710476 0.19201444 0.18706852 -0.10936872 -0.028024148
0.19788657 -0.1068712 -0.12300645 0.23385659 0.23958632 0.03910176 -0.077503674 -0.18073866
-0.084786035 -0.19384079 -0.069892205 0.04618462 -0.018994393 0.20669845 -0.23984805 0.058193754
-0.042299688 -0.15302785 -0.19356363 -0.13422337 0.1700098 -0.06496095 0.17233783 -0.16045679
-0.0069922856 -0.1280808 -0.036329098 0.20073539 -0.076998375 -0.088057905 -0.122609444 0.11218634
0.16370629 -0.17207728 -0.00490498 -0.00046348828 -0.08228986 0.021381423 0.16608137 -0.050515816
0.06852131 -0.17042887 -0.1328286 0.0012007088 0.07295646 -0.1716649 -0.19270964 0.124089845
0.0967232 0.13402517 -0.15569206 0.05906416 -0.04183035 0.23872027 0.03818855 -0.036803078
-0.1837759 0.061898667 -0.09201885 -0.15151386 0.065542825 -0.13678773 -0.14158323 0.04801585
0.067821264 0.09439777 0.08206882 -0.11956913 -0.23826222 -0.06661877 -0.11115763 0.09243965
-0.11214799 0.05642268 0.15618208 0.18419099 -0.15200348 0.06436207 0.07109712 -0.08595432
-0.09527932 0.055178013 0.04816717 0.0977233 -0.033580408 0.16793478 -0.17330535 -0.1523799
-0.16912962 0.041066356 0.11660452 -0.16531122 0.07390425 0.020311391 -0.116960086 0.096417695
0.039905593 -0.08428418 -0.11177424 0.258078 -0.1460991 -0.10500616 -0.1264224 0.3039486
0.026271263 -0.07938405 -0.050971914 -0.04486037 0.018427003 -0.018525345 0.008892704 0.08429695
-0.19154607 0.7265386 -0.16364358 -0.11060346 0.12566571 -0.08248607 -0.4551933 -0.0042372774
-0.015206329 -0.04823942 -0.080815665 -0.08884701 -0.0668006 0.2162187 -0.14641559 0.031026226
0.2135737 0.07858684 0.036439534 -0.009175565 -0.0114321625 0.016005713 -0.14873827 -0.11020486
-0.021043465 -0.096954316 0.2246437 -0.35848936 -0.121464044 -0.123105556 -0.26044375 -0.25003207
0.12647387 0.16182064 -0.32278636 0.20410123 0.07978475 0.010082072 -0.023988424 -0.19239832
0.104973026 -0.12177441 -0.110237174 -0.1318946 -0.097540945 -0.13369949 -0.033902407 -0.18928686
0.15176481 0.11948357 -0.18732084 0.118086606 -0.21137986 0.08998069 -0.10808413 0.17318338
-0.20300968 0.14887042 0.16014999 0.10453032 0.0339331 -0.08800618 0.018219028 0.11531176
-0.14266145 -0.14256759 0.01943895 0.06763081 0.0905055 -0.19393681 -0.037070427 -0.12064847
-0.11215926 -0.0707745 -0.06210606 -0.06265566 0.27932337 0.014686859 0.08758805 -0.13594157
-0.19181575 -0.30114678 -0.03674914 0.19237162 -0.07121605 0.16208804 0.05229304 -0.07415112
0.018546076 0.026263783 -0.056210313 0.17749555 0.27850735 0.04041646 -0.2982199 0.13524082
-0.022573894 -0.31380332 -0.02166952 -0.20181543 -0.0673955 0.0804142 -0.33899498 0.17394273
0.20964314 -0.11112495 -0.24141014 0.10783253 -0.10451105 -0.17216873 0.11362184 0.026394451
-0.051282924 -0.01139898 -0.089625366 0.1537981 -0.09836319 -0.12048188 0.022094153 -0.102394395
00000000: bfb6 96bd 9cf5 dfbd 53b7 ffbd ca5a 973d
00000010: eeb7 c83d d6ae 2bbe 05f4 edbd a774 133e
00000020: 453f 523e ab5a d33b e493 b9bd c8f3 39be
00000030: d048 cd3d db98 053b 9c02 febd b85a 8e3d
00000040: 15e1 b0bd f151 863c a4ee 933d 67b1 7dbb
00000050: 6f9f 443e e48e 3f3e b5fc dfbd e692 e5bc
00000060: c7a2 4a3e 4adf dabd ceea fbbd 1a78 6f3e
00000070: 1e56 753e 2b29 203d 3fba 9ebd 8e13 39be
00000080: 4da4 adbd 337e 46be a523 8fbd 162c 3d3d
00000090: 219a 9bbc c2a8 533e ba9a 75be 935c 6e3d
000000a0: 7042 2dbd 55b3 1cbe 8b35 46be da71 09be
000000b0: 0d17 2e3e 3f0a 85bd 5479 303e c94e 24be
000000c0: 8b1f e5bb 9d27 03be d2cd 14bd 948d 4d3e
000000d0: 53b1 9dbd b457 b4bd a91a fbbd f4c1 e53d
000000e0: 9fa2 273e 0735 30be f4b9 a0bb 5800 f3b9
000000f0: 9687 a8bd 1828 af3c 3c11 2a3e ace9 4ebd
00000100: e754 8c3d e884 2ebe 3804 08be 1a61 9d3a
00000110: 326a 953d ecc8 2fbe ad55 45be d122 fe3d
00000120: d016 c63d e53d 093e bd6d 1fbe 43ed 713d
00000130: 4d56 2bbd 1673 743e 996b 1c3d d3be 16bd
00000140: c02f 3cbe 7589 7d3d 6174 bcbd 7326 1bbe
00000150: 513b 863d 1512 0cbe 32fb 10be 45ac 443d
00000160: e0e5 8a3d 9e53 c13d b313 a83d a9e0 f4bd
00000170: 03fb 73be 6c6f 88bd 9da6 e3bd 0051 bd3d
00000180: d8ad e5bd 781b 673d 32ee 1f3e 909c 3c3e
00000190: cda6 1bbe 43d0 833d 5e9b 913d d208 b0bd
000001a0: ce21 c3bd 5702 623d f04a 453d 2723 c83d
000001b0: 9c8b 09bd 18f7 2b3e f576 31be 7a09 1cbe
000001c0: 5130 2dbe 3235 283d 5ace ee3d 5847 29be
000001d0: 1d5b 973d 1364 a63c c588 efbd a476 c53d
000001e0: 0c74 233d 2f9d acbd e5e9 e4bd cd22 843e
000001f0: 019b 15be 780d d7bd e074 01be 279f 9b3e
00000200: d536 d73c 1b94 a2bd edc7 50bd 82bf 37bd
00000210: 3af4 963c 77c2 97bc b4b2 113c e1a3 ac3d
00000220: a724 44be 6ffe 393f 2f92 27be 1184 e2bd
00000230: 83ae 003e 75ee a8bd 190f e9be dcd8 8abb
00000240: f723 79bc b396 45bd af82 a5bd 6cf5 b5bd
00000250: c1ce 88bd 6f68 5d3e f8ed 15be b62a fe3c
00000260: 10b3 5a3e 23f2 a03d 9f41 153d 1c55 16bc
00000270: f74d 3bbc 6a1e 833c d84e 18be 16b3 e1bd
00000280: 5863 acbc fc8f c6bd 0009 663e eb8b b7be
00000290: 24c2 f8bd c41e fcbd e258 85be 3404 80be
000002a0: 5e82 013e 4fb4 253e 4144 a5be eaff 503e
000002b0: 3066 a33d 462f 253c 5f83 c4bc 1104 45be
000002c0: 19fc d63d dd64 f9bd 07c4 e1bd 610f 07be
000002d0: 8cc3 c7bd 85e8 08be 40dd 0abd 6ad4 41be
000002e0: 3c68 1b3e cdb3 f43d 09d1 3fbe 64d7 f13d
000002f0: f673 58be cc47 b83d 365b ddbd fc56 313e
00000300: c5e1 4fbe 7d71 183e 5cfe 233e fe13 d63d
00000310: 6ffd 0a3d 963c b4bd 1240 953c 9228 ec3d
00000320: d815 12be 3dfd 11be 6f3e 9f3c 0682 8a3d
00000330: f35a b93d 5f97 46be 29d7 17bd 8c16 f7bd
00000340: c1b3 e5bd 39f2 90bd ed62 7ebd 9c51 80bd
00000350: 7903 8f3e 27a1 703c 5d61 b33d 4434 0bbe
00000360: 596b 44be e92f 9abe 4486 16bd 11fd 443e
00000370: b8d9 91bd 68fa 253e 3a31 563d 8bdc 97bd
00000380: f1ed 973c 2527 d73c c93c 66bd 65c1 353e
00000390: 8498 8e3e bb8b 253d 47b0 98be 927c 0a3e
000003a0: e3ec b8bc d4aa a0be 4784 b1bc b4a8 4ebe
000003b0: a706 8abd 33b0 a43d c090 adbe 0b1e 323e
000003c0: b1ac 563e 7a95 e3bd 3834 77be 4dd7 dc3d
000003d0: e409 d6bd 004d 30be 91b2 e83d 2d39 d83c
000003e0: 0b0e 52bd cac2 3abc 818d b7bd 407d 1d3e
000003f0: a472 c9bd 34bf f6bd ccfe b43c 27b4 d1bd

fc2.bias f4 [25]
-0.10259559 0.07801071 0.1824825 -0.075025246 0.20220952 0.014238479 0.15303582 0.049446546
0.12105712 -0.072247386 -0.1771752 -0.060127135 -0.06263391 0.15997325 -0.060761046 -0.031033233
-0.07043282 0.15882076 -0.14580287 -0.15827076 0.07806072 -0.037146557 -0.1082554 -0.13167922
0.13397183
00000000: a31d d2bd 14c4 9f3d b1dc 3a3e d6a6 99bd
00000010: 0310 4f3e 8248 693c 6cb5 1c3e 7688 4a3d
00000020: ccec f73d 70f6 93bd 6a6d 35be df47 76bd
00000030: 3546 80bd 07d0 233e 93e0 78bd 6839 febc
00000040: 153f 90bd e9a1 223e 594d 15be bb11 22be
00000050: 4cde 9f3d fd26 18bd 02b5 ddbd ebd6 06be
00000060: e92f 093e

fc3.weight f4 [25, 25]
-0.16157302 0.091782235 -0.02518234 0.09411584 -0.19192348 0.088527404 -0.08982751 -0.058226857
0.081522964 0.15194203 -0.12078654 0.16051431 0.0033798707 -0.16274387 -0.108295105 -0.028360322
-0.025705248 0.10723751 -0.014296186 -0.04966415 0.10874576 -0.032368917 -0.10373006 -0.11656718
0.07785185 -0.16964279 -0.093365856 -0.08782325 0.15331534 0.13578457 0.049575455 -0.06667655
0.07199059 -0.049249344 0.03815962 -0.22291669 -0.1426854 0.17479625 0.2157311 0.10311384
-0.09020984 0.14559421 0.07206513 -0.02139648 0.065608926 0.089435 0.011885101 -0.23557293
0.1429055 0.15098344 -0.108821794 -0.02024827 0.0750063 -0.0578251 0.13940616 -0.080730945
0.13066664 -0.16382727 0.13531668 0.14458013 0.104659095 -0.008748447 -0.008186279 0.18331857
0.22670494 -0.10151022 -0.102069214 0.117021695 0.17589344 -0.065391816 0.14921685 0.09086307
-0.19837941 0.036745995 -0.110075295 0.08938031 0.0045024427 0.12400344 -0.092736535 0.073683605
-0.16715264 0.15181854 -0.14039642 -0.19066644 0.07430687 -0.14298262 -0.061157264 0.017564487
0.06464603 -0.14016707 0.009705621 0.15547709 -0.048340797 -0.08086717 0.026192522 0.18613768
0.060198497 0.17547944 -0.114363864 -0.20326665 0.1167853 -0.05635721 -0.16662101 0.14750469
0.14303035 -0.10227642 -0.14961155 -0.08626485 0.19265667 -0.18617621 -0.15924826 0.17590222
-0.14218019 -0.08950794 0.12637281 0.163719 0.061360978 0.08439329 0.0026348727 -0.0071709803
-0.14958982 -0.15332471 -0.1855266 -0.031259313 -0.061127122 0.17345318 -0.22144194 -0.21830526
-0.0006583202 0.046869326 -0.09966349 0.16879806 -0.016455129 -0.20194304 -0.09130063 0.051216546
0.044420887 -0.20788331 -0.12502979 0.019804247 -0.21650404 -0.058310393 0.089665055 -0.12191168
-0.09838893 0.13466497 0.091126435 0.11035995 0.16052736 0.0547974 0.18719546 0.029575026
-0.09336264 -0.07886767 -0.18663915 -0.046291053 0.095258415 -0.015193345 0.028576342 0.027540972
0.076586135 -0.13210028 0.0791746 0.1326084 -0.06416173 0.17875303 -0.1486105 0.0473666
-0.096175686 -0.20597592 0.19540831 0.16041102 0.025053857 -0.13438083 0.17417328 0.14807047
-0.011639863 -0.0877985 -0.073211715 0.118439004 0.08824836 -0.021918297 0.08583172 -0.073351055
-0.16471274 0.10047041 0.13426627 0.0034202337 -0.17269698 -0.15152907 -0.093206696 0.025796935
-0.020180315 0.041666195 -0.0487376 0.023618937 -0.14772329 -0.07945917 0.062439337 0.1862333
-0.120148204 -0.10031741 -0.016685754 0.010910943 0.13504519 0.072609946 -0.17234817 -0.1475575
0.05900325 -0.079068 -0.11317422 -0.09804244 -0.027511835 0.07774167 -0.11994493 0.15090813
-0.1350277 0.021020561 0.0063444376 0.07674338 0.10872461 0.055250183 0.1003838 -0.18983229
0.0097563565 -0.18669645 0.03167276 0.09525384 -0.19183564 0.09015335 -0.06655362 -0.060450792
-0.092327856 -0.18309946 0.009611413 -0.12447603 -0.11695514 -0.10382211 -0.11441205 0.18361945
-0.0340766 -0.11609864 -0.058805257 0.08664049 -0.10905781 -0.030039638 0.16457514 0.022406578
0.05101089 -0.09589141 -0.21403581 0.17229961 0.119471036 -0.019184742 0.011594345 -0.038269605
00000000: 6673 25be 53f8 bb3d 324b cebc cebf c03d
00000010: 9787 44be db4d b53d 7cf7 b7bd 497f 6ebd
00000020: 83f5 a63d b196 1b3e ef5e f7bd dd5d 243e
00000030: d280 5d3b 54a6 26be d3c9 ddbd e853 e8bc
00000040: d093 d2bc 579f db3d 8d3a 6abc a36c 4bbd
00000050: 19b6 de3d 4595 04bd 6d70 d4bd c6ba eebd
00000060: ca70 9f3d d7b6 2dbe 9936 bfbd addc b3bd
00000070: b2fe 1c3e 1c0b 0b3e a20f 4b3d b78d 88bd
00000080: cd6f 933d aeb9 49bd 434d 1c3d 4644 64be
00000090: 1f1c 12be cafd 323e 9de8 5c3e 592d d33d
000000a0: f0bf b8bd a616 153e e296 933d ac47 afbc
000000b0: f95d 863d b329 b73d bab9 423c 083a 71be
000000c0: d255 123e 679b 1a3e f6dd debd b3df a5bc
000000d0: e79c 993d 03da 6cbd 7dc0 0e3e 4456 a5bd
000000e0: 7acd 053e 56c2 27be 7590 0a3e d00c 143e
000000f0: 8257 d63d a555 0fbc be1f 06bc ddb7 3b3e
00000100: 5725 683e 97e4 cfbd aa09 d1bd 12a9 ef3d
00000110: 691d 343e 25ec 85bd 4dcc 183e 6b16 ba3d
00000120: f923 4bbe f882 163d 286f e1bd 060d b73d
00000130: 3a89 933b 84f5 fd3d a7ec bdbd 6ee7 963d
00000140: 102a 2bbe 5276 1b3e 14c4 0fbe 103e 43be
00000150: 332e 983d 096a 12be 0a80 7abd 66e3 8f3c
00000160: 2365 843d f587 0fbe 5304 1f3c 6335 1f3e
00000170: 0001 46bd b09d a5bd b391 d63c e09a 3e3e
00000180: b392 763d e2b0 333e 9a37 eabd 2225 50be
00000190: 222d ef3d d1d6 66bd b39e 2abe 780b 173e
000001a0: 8c76 123e 4d76 d1bd c533 19be a0ab b0bd
000001b0: ca47 453e faa4 3ebe fa11 23be b61f 343e
000001c0: af97 11be f04f b7bd e067 013e f4a5 273e
000001d0: a655 7b3d 64d6 ac3d d4ad 2c3b 8bfa eabb
000001e0: 132e 19be 2701 1dbe affa 3dbe c409 00bd
000001f0: 6f60 7abd b69d 313e adc1 62be 6a8b 5fbe
00000200: 1f93 2cba 0dfa 3f3d 5f1c ccbd 66d9 2c3e
00000210: e8cc 86bc 28ca 4ebe d3fb babd 71c8 513d
00000220: adf2 353d 5ddf 54be cf07 00be 843c a23c
00000230: 3cb3 5dbe e1d6 6ebd 50a2 b73d d5ac f9bd
00000240: 2380 c9bd 9de5 093e 7fa0 ba3d 6604 e23d
00000250: 4961 243e 3d73 603d 2bb0 3f3e 5347 f23c
00000260: e934 bfbd 5f85 a1bd 551e 3fbe b09b 3dbd
00000270: d816 c33d 82ed 78bc ef18 ea3c 9b9d e13c
00000280: 31d9 9c3d 4c45 07be 4b26 a23d 7fca 073e
00000290: 3a67 83bd 090b 373e 5a2d 18be 7b03 423d
000002a0: c2f7 c4bd 5aeb 52be 1e19 483e c942 243e
000002b0: bf3d cd3c 219b 09be 7b5a 323e c99f 173e
000002c0: 20b5 3ebc b3cf b3bd 06f0 95bd 2690 f23d
000002d0: 8ebb b43d 008e b3bc 8ac8 af3d 1439 96bd
000002e0: 75aa 28be 6ec3 cd3d 197d 093e 0026 603b
000002f0: 7ad7 30be 702a 1bbe 27e3 bebd 1854 d33c
00000300: 3051 a5bc 2caa 2a3d 14a1 47bd 807c c13c
00000310: c644 17be 7dbb a2bd 64c0 7f3d f1b3 3e3e
00000320: 4310 f6bd 3773 cdbd 90b0 88bc d0c3 323c
00000330: 4949 0a3e 86b4 943d 0a7c 30be 5019 17be
00000340: 64ad 713d 67ee a1bd e3c7 e7bd 7aca c8bd
00000350: 8060 e1bc 0637 9f3d b0a5 f5bd a987 1a3e
00000360: b444 0abe 5033 ac3c 00e5 cf3b a22b 9d3d
00000370: 02ab de3d 044e 623d 0696 cd3d 6563 42be
00000380: 20d9 1f3c 5b2d 3fbe 4cbb 013d 7214 c33d
00000390: 9070 44be 52a2 b83d 444d 88bd 409b 77bd
000003a0: 6316 bdbd 6d7e 3bbe 3079 1d3c 4aed febd
000003b0: 2d86 efbd b0a0 d4bd dd50 eabd bd06 3c3e
000003c0: e893 0bbd 20c5 edbd c8dd 70bd 9270 b13d
000003d0: b359 dfbd b015 f6bc 6386 283e 008e b73c
000003e0: ccf0 503d b762 c4bd 342c 5bbe 4f6f 303e
000003f0: 3bad f43d 5229 9dbc 35f6 3d3c 97c0 1cbd

fc3.bias f4 [25]
0.009245445 -0.037898954 -0.17448339 -0.13227297 -0.06138863 0.12161491 -0.031648718 -0.13185258
-0.00611493 -0.19207028 0.06998439 0.076626375 0.18321256 0.046996906 -0.1799924 0.08086748
0.06653498 0.113105774 0.030599708 -0.10379633 -0.080111265 0.12972456 -0.106536016 0.10360625
0.109410256
00000000: 357a 173c ef3b 1bbd c6ab 32be 9172 07be
00000010: a572 7bbd 3d11 f93d 16a2 01bd 5d04 07be
00000020: c05f c8bb 12ae 44be fa53 8f3d 4aee 9c3d
00000030: 139c 3b3e d47f 403d ed4f 38be d99d a53d
00000040: 7e43 883d 00a4 e73d 3dac fa3c 2c93 d4bd
00000050: 6011 a4bd 84d6 043e 8e2f dabd 832f d43d
00000060: 7c12 e03d

fcFinal.weight f4 [1, 25]
-0.11214479 0.07821955 0.078147344 -0.10514905 -0.12544471 -0.06461385 0.15975198 0.05899234
-0.005943984 0.06542678 0.1244708 -0.06598383 0.06545513 0.1808318 -0.18038413 0.08135199
0.00073530927 -0.005020283 0.041068748 -0.10822193 0.16705827 -0.032877095 0.16271624 -0.09845713
-0.1362474
00000000: 2bac e5bd 9231 a03d b70b a03d 6358 d7bd
00000010: 9474 00be 4454 84bd 0696 233e f4a1 713d
00000020: c0c5 c2bb 7afe 853d 8cea fe3d 8822 87bd
00000030: 570d 863d f92b 393e 9eb6 38be df9b a63d
00000040: c5c1 403a 3081 a4bb b437 283d 76a3 ddbd
00000050: 5311 2b3e 22aa 06bd 169f 263e e4a3 c9bd
00000060: 7084 0bbe

normalize2D.weight f4 [2]
1.0 1.0
00000000: 0000 803f 0000 803f

normalize2D.bias f4 [2]
0.0 0.0
00000000: 0000 0000 0000 0000

normalize2D.running_mean f4 [2]
0.0 0.0
00000000: 0000 0000 0000 0000

normalize2D.running_var f4 [2]
1.0 1.0
00000000: 0000 803f 0000 803f
