stock market/trained_weights/NVDA/Moving_average_Gaussian/30_days.pth (torch, 11424 bytes, 11 tensors)

fc1.weight f4 [25, 3]
000000 48 bf 70 be ea 46 82 bf 3a f1 d9 bf aa 61 05 3f
       -0.23510468 -1.0177891 -1.7026742 0.5210215
000010 0b 4a 5f 3f b8 df d0 3f 31 3e 2b 3f e0 bb 1f 3f
       0.87222356 1.6318274 0.6689177 0.6239605
000020 c8 8f 69 3e fc b7 58 3f 0f 1b 94 be aa a4 13 bf
       0.22808754 0.8465574 -0.28926894 -0.5767313
000030 e9 c2 97 be ad 4e 9e bf f9 83 99 bf 91 e3 f6 3e
       -0.29640892 -1.236776 -1.19934 0.48220494
000040 2e da 5b 3e e1 bc 33 bf b3 12 15 3f c1 e5 3b 3f
       0.21469948 -0.7021008 0.5823166 0.7339745
000050 08 5d 8f 3f a5 d7 0f bf e8 cb 9d be a7 dc a4 bf
       1.1200266 -0.5618842 -0.3081963 -1.2879838
000060 7b 6d 33 3f ba 59 60 3f a9 06 2a 3f c4 f2 1f 3f
       0.7008893 0.8763691 0.6641641 0.62479806
000070 b1 0e 99 3f d8 1e 89 3f 71 2e 6c be ff b6 69 be
       1.1957608 1.0712538 -0.23064591 -0.22823714
000080 9d 7f af 3e b4 5f a9 be 75 74 b6 be 38 c4 11 3f
       0.3427705 -0.33080828 -0.35635725 0.5694003
000090 23 66 03 bf 23 97 88 bf 6f 48 b3 bf 2e 60 47 be
       -0.51327723 -1.0671123 -1.400648 -0.19470283
0000a0 c3 e2 cf bf 64 1d 9c bf 12 65 e2 bc 27 80 a7 bf
       -1.6241077 -1.2196469 -0.027636085 -1.3085984
0000b0 43 87 e2 bf 62 b8 90 bd 53 7c b5 bf ae 45 d1 bf
       -1.7697529 -0.07066418 -1.4178566 -1.634939
0000c0 46 23 91 be ee 19 ce be 7a 1a 0d 3f 5a 55 fe be
       -0.28347224 -0.40254158 0.55118525 -0.49674493
0000d0 81 fa bc 3e 87 a1 16 bc 36 76 a2 3e 69 1a 8d 3f
       0.3690987 -0.009193785 0.31730813 1.1023685
0000e0 a4 a2 f6 3e 0d 4d 5c be db 9a c5 bf 4b ee 95 bf
       0.4817096 -0.21513768 -1.5437883 -1.1713346
0000f0 e3 b1 24 be 6b a6 20 bf 04 2c 51 bf cb 31 36 3f
       -0.16083483 -0.62753934 -0.8170779 0.7116973
000100 d2 a8 ab be 5d 78 75 be dc 83 85 be e6 c0 b0 3f
       -0.33527237 -0.23971696 -0.26077163 1.3808868
000110 27 43 dd 3f 9f 94 04 3e 5a b4 85 3f b8 86 e0 3f
       1.7286118 0.1294732 1.0445664 1.7541113
000120 9d 00 e3 be ee 88 a9 be 67 e5 8b 3e
       -0.44336405 -0.33112282 0.27323458

fc1.bias f4 [25]
000000 1c 37 a5 3f 7c 40 b0 bf 09 24 98 bc 9c 4a 77 3d
       1.2907443 -1.3769679 -0.01857187 0.060373887
000010 37 29 90 3f 36 58 78 3c b9 32 5c bf 91 45 33 3f
       1.1262578 0.01515775 -0.86014897 0.70028025
000020 d7 f0 32 bf d5 f8 a8 bf 44 27 8e 3e ea 14 c3 3e
       -0.6989874 -1.3200938 0.27764332 0.38101894
000030 f5 f6 a5 3f f8 30 ad 3f 1b dd b1 3f 58 5e b1 3f
       1.296599 1.3530569 1.3895601 1.3856916
000040 d3 79 e7 3e da 82 bf 3e d3 2d 0d bf f2 30 9f 3f
       0.45210132 0.3740452 -0.5514805 1.2436812
000050 b4 2a 84 bc dc a2 ab be d9 e3 a2 bf 94 7c ac bf
       -0.016133644 -0.3352269 -1.2725784 -1.3475518
000060 86 2c 3a 3f
       0.7272419

fc2.weight f4 [25, 25]
000000 89 e8 25 bd dc 0d b0 3d b3 48 b7 3d 72 f1 af be
       -0.040504966 0.085963935 0.08949413 -0.34363896
000010 f1 d3 a5 ba 28 87 19 bf 2a e5 d9 3c e1 ec c6 3c
       -0.0012651664 -0.5997186 0.026598532 0.024282875
000020 a2 07 c2 3d b7 17 7f bd a8 5b 91 3d 50 dc 7f bc
       0.09474112 -0.062278476 0.0709756 -0.015616491
000030 dc 51 05 bd 7e 4c 42 bc 27 dd 5f bd 78 ac fd bb
       -0.03254877 -0.0118590575 -0.054654267 -0.007741507
000040 a7 af 40 3d fb 47 e7 3d 14 85 70 bd d1 5e c0 3c
       0.047042515 0.11293026 -0.058720663 0.023482712
000050 0b 55 3f bd 8b 25 e9 bc 8a 68 0e 3e 2a f9 7e bd
       -0.046711963 -0.028460285 0.13907066 -0.06224934
000060 7f f6 11 3d fd 12 96 bc b6 13 70 3d 5b 16 e9 bd
       0.035635468 -0.018319601 0.058612548 -0.11381217
000070 20 94 70 3e 05 71 16 bd 72 ce ae 3d 7b ac ef 3c
       0.23494005 -0.036728878 0.0853547 0.02925705
000080 b2 48 36 3e 53 a3 ca 3d d7 b0 93 bd 47 2c d8 3d
       0.17801169 0.09894433 -0.07211464 0.1055532
000090 51 ec ed 3d c6 8f b6 3c 30 72 22 bd 7c c5 ea 3d
       0.116173394 0.022285353 -0.03965968 0.114634484
0000a0 c1 48 8d 3d 83 8f 13 be bd fd da bd ff 56 8e bd
       0.06898642 -0.14410214 -0.10692928 -0.06950187
0000b0 c1 c4 20 3d da b8 ad bd a0 9c 02 bd 98 1f 28 bd
       0.03925014 -0.08482523 -0.03188765 -0.041045755
0000c0 1e 4c f7 bd 51 61 bd 3d 7c aa 90 3c 19 81 76 3d
       -0.12075065 0.09247077 0.017659418 0.06018171
0000d0 cc c0 e3 3c 40 59 21 3e 93 18 fe 3d 9c d7 d5 3e
       0.027801894 0.15756702 0.12407031 0.4176606
0000e0 8d 3a df bd fd 0a f0 bd e6 20 2e 3c 96 34 89 bd
       -0.108998396 -0.11720846 0.010627961 -0.06699483
0000f0 e2 54 7c 3d 52 f3 a5 3d fb f2 fa 3d ca 45 33 3d
       0.061604388 0.0810305 0.12253376 0.043767728
000100 a6 e7 1a 3d e8 de 22 3d 3a 28 0b be 63 f0 e0 bd
       0.037818573 0.03976336 -0.13589564 -0.1098335
000110 71 68 17 be ee b7 10 bd 85 d1 88 bd c5 21 09 bd
       -0.14785935 -0.03533166 -0.06680588 -0.03347947
000120 26 da 0f 3d 14 13 85 3d b6 01 77 3d 88 58 05 3d
       0.035120152 0.064977795 0.060304366 0.032555133
000130 f2 a8 3f bd 90 5a a5 bd b7 8b 77 be 0b bf ca bd
       -0.04679198 -0.08073914 -0.2417439 -0.0989972
000140 72 09 41 bf 27 f7 fd 3d 7a 35 62 bd e8 18 fc 3d
       -0.7540504 0.12400656 -0.05522678 0.12309438
000150 22 4b ba 3b a3 96 af 3d e7 3f 14 3e f2 a4 0f 3b
       0.005685226 0.085736535 0.14477502 0.0021918383
000160 8f 85 09 3c 0f ec 87 bd bb 82 dc bd 2c 60 c5 3d
       0.008393659 -0.066368215 -0.10767122 0.09637484
000170 b9 44 0b 3d ce fe 0d 3d 29 81 79 3c 87 6a 9c 3c
       0.034001086 0.03466683 0.015228548 0.019093765
000180 e2 e4 0b be b0 ac f6 3d fa e2 4a 3d 0d c6 ce bc
       -0.1366153 0.12044656 0.049532868 -0.025240922
000190 bb 74 17 3e ca 06 1f be 81 10 00 bc b8 33 05 3e
       0.14790623 -0.15529934 -0.007816435 0.1300801
0001a0 2f f2 be 3c bf e1 cd 3e 51 fe 94 3d 03 b2 c4 bc
       0.023308842 0.40211293 0.072750695 -0.024010664
0001b0 2f 3e 76 3c 9d e4 77 bb b9 24 cc bd a1 a9 bd bd
       0.015029474 -0.0037825473 -0.09967942 -0.0926087
0001c0 a0 4a 6c 3d 54 3e ef 3d 27 fc 6b bd f7 35 86 3c
       0.057688355 0.1168181 -0.057613518 0.016383154
0001d0 ef cb 9d 3c f0 91 a2 bc fd d4 12 bc 5e bb 48 bd
       0.019262282 -0.019844979 -0.008961913 -0.049006812
0001e0 13 6c 17 bd 71 6b 3c 3d cc 88 0f be f0 c6 48 bd
       -0.036968302 0.0460009 -0.14017028 -0.049017847
0001f0 7f dc eb 3c 33 de 32 bd 66 4e 54 3d bf b1 97 3c
       0.028791664 -0.043668937 0.05183258 0.018517373
000200 b1 22 86 be 5a 0e 87 bd 03 34 4b bf 0f d4 ac 3c
       -0.26198342 -0.06594534 -0.7937624 0.021097211
000210 ae c3 f7 bc a2 10 e0 3d dc fc b0 3d 22 b5 cb 3c
       -0.030244675 0.109406725 0.08641979 0.024866644
000220 4b 56 a8 3d df 8e a9 3b 62 4f 0f bd 94 c4 20 bd
       0.08219584 0.0051745023 -0.034987815 -0.03924997
000230 16 f5 f0 bb 13 09 c8 3c ac 0d 24 3e 59 6b 4c bc
       -0.0073534353 0.02441839 0.1602084 -0.012476766
000240 ff 6a 1c bc a1 d3 a2 bc da 0e 41 3c b5 7d 77 bc
       -0.009546994 -0.019876303 0.011783326 -0.0151056545
000250 27 6b b9 bc 32 7d a3 3c 90 75 76 3d 30 e8 05 be
       -0.022634102 0.019957159 0.06017071 -0.13076854
000260 76 60 cf 3c 3c 94 be 3e 50 d6 8f 3d 2c f9 fa 3e
       0.02531455 0.3722247 0.07023299 0.49018228
000270 25 58 91 bd a1 ef 5b bd e7 28 5c 3c 9c 60 a8 3c
       -0.0709689 -0.053695325 0.013437486 0.02055388
000280 4c 2a 0e 3d 96 44 92 bd 4d 77 18 bd 41 1b e7 3d
       0.034708306 -0.07141988 -0.03722315 0.11284495
000290 f2 6e bb 3a 83 4e b7 bc 90 13 ac bc cf 4e 8c 3c
       0.0014300032 -0.022376304 -0.021005422 0.017127423
0002a0 1e c1 4d bd 8e 06 9a 3d 6e e8 07 bd 54 e1 95 3d
       -0.050233 0.075207815 -0.033180647 0.073183686
0002b0 d9 c7 11 3d 58 9b a8 bd 64 6a 49 3c 0c 04 97 3d
       0.03559098 -0.082327545 0.012293432 0.07373819
0002c0 d8 c8 0c be f2 bd 2e bc e9 aa b0 3e 20 e0 ae 3c
       -0.13748491 -0.010665404 0.34505394 0.021347106
0002d0 f6 a6 62 3f cb b7 a1 bd d6 5f 88 3d ea 21 0a bd
       0.8853601 -0.07896384 0.06658904 -0.03372375
0002e0 8b 30 63 3d d0 49 8d bd e4 89 b6 bd 72 3a f3 3a
       0.055466216 -0.06898844 -0.08913019 0.0018556847
0002f0 eb 25 33 3d 00 26 cd 3c e8 36 a8 3c b3 c9 ca bc
       0.043737333 0.025042534 0.020533994 -0.02475438
000300 fc 61 a4 bb b2 4c b1 bd 01 3d f4 3b 3e f2 61 3d
       -0.0050165635 -0.086572066 0.0074535613 0.05516266
000310 88 5b 9c 3c 16 c4 b4 bc 8c cd 20 bd 76 5a 22 be
       0.019086614 -0.022066157 -0.039258525 -0.1585482
000320 ec 4e 11 3c 93 2d ab bd 8f 41 c1 3c 07 06 b1 3e
       0.008868914 -0.08358302 0.023590831 0.3457491
000330 a0 e3 07 b8 45 a1 91 3f 10 b8 3d bd f4 a1 1b bd
       -3.23985e-05 1.137734 -0.046318114 -0.037996247
000340 43 9b 08 bc cc e2 c5 bc a6 38 be bd 30 6f 97 bd
       -0.0083377985 -0.024155997 -0.092881486 -0.07394254
000350 35 04 e1 3c 78 15 12 3d 51 a7 01 3d e9 bc 85 3c
       0.027467826 0.035665005 0.031653706 0.016325431
000360 ae 1f ad bc 6e d1 2e be 3b 8d a0 3c 7c b0 ec 3c
       -0.02113327 -0.17072079 0.019598594 0.028892748
000370 e4 a1 0b 3d 71 39 0f bd 63 33 0d be e1 43 d6 bd
       0.034089938 -0.03496689 -0.13789134 -0.104621656
000380 cc 4a 0a be f4 7f 2f bd 5a c3 f3 3c bc b8 99 3d
       -0.13505095 -0.042846635 0.029756237 0.075059384
000390 0a 38 24 be 80 b6 03 bd 99 4b 1d bf 80 e5 2d 3d
       -0.16037002 -0.032156467 -0.6144348 0.042455196
0003a0 29 b3 1e bc 0e 1a 48 bd 8c f2 08 3e db 7e c1 3d
       -0.00968627 -0.048852973 0.13373774 0.09448024
0003b0 90 59 33 3e de b8 9f bd f4 db 4f 3b a2 51 c0 bd
       0.17514634 -0.077989325 0.0031716796 -0.0939057
0003c0 fd e5 ac bd cd 35 ef 3d 0d 54 5c bd de 89 ff bb
       -0.08442304 0.116801836 -0.053791095 -0.0077984175
0003d0 84 cc 8d b9 23 c2 e1 bc ec e8 4e be fe 31 fe bc
       -0.00027045992 -0.027558392 -0.2020604 -0.031029698
0003e0 c9 e9 c8 3d b4 66 0a bd 68 86 13 bd 80 f1 21 3d
       0.09810216 -0.03378935 -0.03601685 0.039536953
0003f0 98 5f 24 3d 56 53 82 bd 27 1c b9 bd 17 0f d0 3d
       0.040130228 -0.06363551 -0.09038573 0.10159128

fc2.bias f4 [25]
000000 4b 3d 61 3e 92 bb 26 be a1 17 42 be 8d 17 8d 3e
       0.21996038 -0.1628249 -0.18954326 0.2755703
000010 03 f6 b3 bd 77 6c 94 3e de d4 ba be 0c 35 aa be
       -0.087871574 0.28989002 -0.3649053 -0.33243597
000020 ec dc 9b be ce be 96 3e 4b a1 87 3d 45 8d 07 3e
       -0.30441988 0.29442447 0.06622561 0.13237484
000030 dc ad 6b bc 57 82 a1 be 82 12 7e 3d e8 33 0f 3d
       -0.014384713 -0.31544754 0.06202937 0.03496161
000040 60 6a eb bc 47 da 8f 3d 6e 83 b6 3d 8e 1a 01 3c
       -0.028737247 0.07024055 0.08911787 0.007879866
000050 6e 57 9d bd aa 76 b8 3e 80 3a 97 3d a3 21 d7 bd
       -0.076826915 0.36028033 0.07384205 -0.105044626
000060 40 95 5d be
       -0.21638966

fc3.weight f4 [25, 25]
000000 58 c9 64 3e 30 31 aa bd d4 d0 c8 bd 27 87 d1 3d
       0.22342432 -0.08310163 -0.09805456 0.102308564
000010 0c 8c 8a bd e8 83 77 3d e5 9a 3c be 2d 1c 2e bd
       -0.06764993 0.06042853 -0.18418463 -0.04250734
000020 f9 da a7 be 14 7d cf bc b5 d9 11 3e ff 80 15 3e
       -0.3278425 -0.025328197 0.14243205 0.1459999
000030 06 18 35 bb d8 20 d6 3c a8 e1 26 be 48 d5 27 3e
       -0.0027632727 0.026138708 -0.16297019 0.16389954
000040 44 68 ae bc a7 d3 b3 3c a9 fa 44 3e db f8 b4 bd
       -0.021289952 0.02195151 0.19236244 -0.08836528
000050 16 37 9d 3d 32 ea 39 3e 25 f4 41 3e cb 6c 36 be
       0.076765224 0.18155745 0.1894079 -0.17814939
000060 cf a8 66 bd 91 f4 0d 3e 25 a2 3b be fe 04 ca bd
       -0.056313332 0.13862826 -0.18323572 -0.098642334
000070 03 d6 2a 3e 2b 28 37 be b8 45 0c 3e 68 28 1d 3e
       0.16683201 -0.17886417 0.1369847 0.15347445
000080 b4 c2 c5 3d a3 bf 4c be 2a f9 b6 bd e0 6a fe 3d
       0.09656277 -0.19994979 -0.08934243 0.124227285
000090 bc 53 96 bd 06 a6 db bd bc 40 d5 3d 2e 54 e1 bc
       -0.0734019 -0.10725026 0.10412738 -0.02750596
0000a0 64 01 5e 3d 16 18 47 3e e8 a7 e1 3d 70 6d 4e 3e
       0.054200545 0.19442782 0.11018354 0.20158935
0000b0 8f b2 19 be cc 36 08 be 00 21 1d 3e 30 27 ca 3d
       -0.15009521 -0.13302153 0.1534462 0.09870756
0000c0 6a 26 ea bd c9 ad 2e be 4b 7d 83 3d 78 57 50 3d
       -0.11433108 -0.17058481 0.06420382 0.050864667
0000d0 b5 81 3c be f7 f6 a2 bd c2 89 4b be f2 4f ed 3c
       -0.18408854 -0.07957261 -0.19876769 0.028968785
0000e0 e0 e2 2a 3e e2 2a 04 3e 09 22 3c 3e 41 56 a6 bd
       0.16688108 0.12906983 0.18372358 -0.081219204
0000f0 af 48 90 3d fc 0e cf 3c d9 01 b1 3d 2d 29 18 3e
       0.07045113 0.0252757 0.086429305 0.14859457
000100 e4 0e 38 be 62 44 73 bd b8 27 0f be 5f ba 0c bc
       -0.1797443 -0.059391387 -0.13979995 -0.008589356
000110 c5 9a 61 3d b3 db 2e be e4 7d 3e bd 6b be 87 bc
       0.05507924 -0.17075996 -0.046506777 -0.01657029
000120 29 d0 3c 3e 1e 7c bb bd 99 be 61 bd ba 1f 59 3e
       0.18438782 -0.09154533 -0.05511341 0.21203509
000130 0e 6b 09 be aa b5 0c be f2 52 d6 3d 0f ee 0c be
       -0.13419744 -0.13741174 0.10465039 -0.13762687
000140 7b 74 6a 3e 04 74 a8 bd e0 0b 7f bd 46 9d 9c bd
       0.22895996 -0.08225253 -0.062267184 -0.07647185
000150 f5 b7 0a 3e c1 2c 36 3d 4d 27 61 bc ce 58 a8 3d
       0.13546737 0.044476274 -0.01374228 0.08220063
000160 42 3b 2c be 3c 66 03 be 85 b8 1c 3e db 12 95 3d
       -0.1681948 -0.12831968 0.15304764 0.07278987
000170 5f f6 00 3e 3f 00 e8 bd 2e 87 3d be 0b 78 16 be
       0.12593983 -0.11328172 -0.18508598 -0.1469423
000180 0b 50 30 bc 2b 8e 82 bd e4 f4 e5 3c cf 3e 93 3d
       -0.010761271 -0.06374773 0.028070875 0.07189714
000190 35 0b 40 be 2d 30 18 3e 07 c0 9f 3d 9b b2 23 bd
       -0.18754275 0.14862128 0.07800298 -0.039965253
0001a0 c7 d3 ae bc ab 94 12 3d dc 5a af 3d 4b 9e 49 3d
       -0.021341218 0.035786312 0.08562252 0.049223226
0001b0 10 21 88 bd 55 8b 8d bc 4c 47 63 bd 37 09 8b be
       -0.06646931 -0.017278353 -0.055487916 -0.27155468
0001c0 3b 1f 32 3e 90 77 33 bd 3b c0 18 be ec 9c aa bd
       0.17394726 -0.043815196 -0.1491708 -0.08330712
0001d0 b9 b2 80 bc 32 f2 cd bb 64 f6 55 be 96 ff 38 3e
       -0.015710222 -0.0062849754 -0.20894772 0.18066248
0001e0 f0 54 ae 3d 41 70 9f ba c9 48 23 be 2a 36 40 3e
       0.08512294 -0.0012164192 -0.15945734 0.18770662
0001f0 db ef 2c 3e 34 87 ba bd 0f ff 08 be e7 d5 b1 bd
       0.16888373 -0.09107819 -0.13378547 -0.08683377
000200 b3 56 dd 3d 36 10 ca bd 40 8e 1c 3e dc b2 19 bd
       0.10807552 -0.09866373 0.15288639 -0.03752409
000210 39 6f 93 3d 80 14 3a be 2a d1 63 3c 9f a7 34 be
       0.071989484 -0.18171883 0.013904849 -0.17642067
000220 8d f0 1d bd 11 40 aa 3d 7e 24 49 3e f2 82 0e be
       -0.038559485 0.08313001 0.19642827 -0.13917139
000230 9c 68 11 be 62 e9 10 3e 54 39 1a be de 12 04 3e
       -0.14200062 0.14151528 -0.15060931 0.12897822
000240 18 e1 c3 3d 01 0c d8 bd 9a 44 f1 bd eb 65 a8 bc
       0.095644176 -0.105491646 -0.11780663 -0.02055641
000250 ed 8a 3b 3e 2e 5f 11 3e 58 fb 08 3e c3 7e 1e be
       0.18314715 0.14196464 0.1337713 -0.15478043
000260 95 77 cc bd c4 22 2b be 75 32 3e 3e e9 ca 46 bd
       -0.09983746 -0.16712481 0.18573935 -0.048533354
000270 59 1f 27 be 37 fe cd 3d 8a 74 c7 3d 73 f6 b3 bd
       -0.16320552 0.10058253 0.09739025 -0.08787241
000280 78 81 3e 3e f6 c1 b8 3d 87 9e 45 be 93 04 15 be
       0.18604076 0.0902137 -0.19298755 -0.14552526
000290 4f 65 1e be 50 3f d8 3d a2 04 2e be c4 45 46 3e
       -0.15468334 0.10558951 -0.16993955 0.19362551
0002a0 4e fe 98 bd a9 3f 4f 3d 9b a7 f6 bd 83 b6 e2 bd
       -0.0747038 0.05059782 -0.12043687 -0.110699676
0002b0 0d 67 05 3e 1c 14 12 bc ca cb 23 3e a9 60 ab bd
       0.13027592 -0.008915927 0.15995708 -0.08368046
0002c0 dd 6c 84 3d 93 bd 54 be 01 73 27 be 2f 4f b3 bc
       0.064660765 -0.20775442 -0.16352464 -0.021888344
0002d0 9d da e3 3d 8f 2c e4 3d 64 eb c8 3d e6 69 dc bd
       0.111256815 0.111413114 0.09810522 -0.10762386
0002e0 61 69 45 be ed 7b 9a 3d db a4 27 be d0 2e ba 3d
       -0.1927848 0.07543168 -0.16371481 0.0909096
0002f0 36 8c d6 bd 5e 4a 4c be 73 9c 31 be 95 99 ac 3d
       -0.10475962 -0.19950244 -0.17344837 0.08427731
000300 e8 26 78 bc e6 ec 92 3d ca 63 1f 3e 43 44 c7 3d
       -0.015145995 0.07174091 0.1556541 0.09729817
000310 f4 1d 93 bd 3f d6 de bd 7f 0b 0f be a6 ef 42 be
       -0.071834475 -0.10880708 -0.13969229 -0.19036731
000320 1a 1b 89 3d 00 df 34 bd c6 c7 98 bd 58 b2 86 3c
       0.06694622 -0.044157982 -0.07459979 0.016442463
000330 c0 bd d3 bb 54 2b 07 bd 13 85 ef bd 60 03 1a 3d
       -0.006461829 -0.033000305 -0.11695304 0.037600875
000340 6d fb ae bd 74 ce 1e bd 0d 51 d6 bd c3 71 bb bd
       -0.085440494 -0.038771108 -0.10464678 -0.09152558
000350 f4 77 22 3d ea 03 db 3d 00 ab 1c be f2 ae 47 be
       0.039665177 0.10694106 -0.15299606 -0.1950033
000360 54 68 24 bd 78 25 18 3d 5b 62 06 3e 4c 96 72 3d
       -0.040138558 0.037145108 0.13123457 0.059225366
000370 00 8a 78 bc 1e 1d 16 be 4e 9f ef 3d 1d 58 38 be
       -0.0151696205 -0.14659545 0.11700307 -0.18002363
000380 f6 c0 1a be c8 c9 0a be 88 33 3f be 7e d9 ce 3c
       -0.15112671 -0.13553536 -0.18672001 0.025250193
000390 75 d4 3c 3e 9c 3c e4 bd 1b 04 9b 3d be db cd 3d
       0.18440421 -0.11144373 0.075691424 0.10051678
0003a0 3a 9a 08 3e 4e bb ca bd f0 8b 28 3e ee 2a 9f bc
       0.13340083 -0.09899007 0.16459632 -0.01942965
0003b0 43 cd 01 be 9e 57 35 be ec ac e1 3d 89 f1 11 be
       -0.12675957 -0.17709205 0.1101931 -0.14252295
0003c0 15 48 59 be 9b 70 0d 3e 2f 45 b2 3c 66 11 96 3d
       -0.21218903 0.13812487 0.021761505 0.07327537
0003d0 7d ae 43 bd 97 7d 86 3d fc 02 44 be 6d 44 ec bd
       -0.047773827 0.06566923 -0.19141763 -0.11536489
0003e0 ac c1 1b be 55 3f 01 3e 70 1f 8f bd a6 24 8f bd
       -0.15210599 0.12621816 -0.06988418 -0.06989412
0003f0 00 d6 f6 bd b7 49 37 be 60 a6 be bb c6 4c 24 be
       -0.12052536 -0.17899214 -0.0058181733 -0.16044912

fc3.bias f4 [25]
000000 2a fd d6 bc f2 fd 4e bd fa 71 02 be 47 35 0d 3e
       -0.026243765 -0.05053515 -0.12738791 0.13789855
000010 30 72 88 3d 8a ee 0a be 97 e0 30 be 35 56 a9 3d
       0.066624045 -0.13567558 -0.17273174 0.08268396
000020 c3 a6 42 be 31 0f f0 3d 9d 0b b0 bd d9 c4 b9 bd
       -0.19008927 0.117216475 -0.08595965 -0.09070749
000030 61 aa 1c 3e 39 65 5a bd a3 1b 2e be 3f 2d 19 3e
       0.1529937 -0.05331919 -0.1700273 0.14958666
000040 70 5a f6 bd 80 2d 7a bc fa 48 27 be a7 8f 1a be
       -0.12028968 -0.015269637 -0.16336432 -0.15093862
000050 af 00 24 3e 86 48 0a 3e f7 19 90 bd be e3 25 3e
       0.16015886 0.13504228 -0.070362024 0.16200158
000060 dc 27 da bd
       -0.10652134

fcFinal.weight f4 [1, 25]
000000 df 86 ce 3d f2 4a e9 3d c5 17 bd bd e2 2a 0c 3e
       0.10084318 0.11391248 -0.09233049 0.13688233
000010 c1 0f 1d be f6 39 2d be d1 a4 9a 3d 69 6f 02 be
       -0.15338041 -0.16916642 0.075509675 -0.12737812
000020 00 4f 36 3c 06 27 94 bd fb 46 23 3e 77 c5 18 3e
       0.0111272335 -0.07234006 0.15945046 0.14919077
000030 6a a7 0c be c3 db 1b 3e cd e9 e9 3d bf d4 18 3e
       -0.13735738 0.15220551 0.11421547 0.14924906
000040 79 02 28 be f8 32 18 bd e1 8d eb 3d f7 94 17 3e
       -0.16407193 -0.037157983 0.11501671 0.1480292
000050 a8 f5 28 be 10 1f e1 bd 2f 74 16 3e 3f b3 f6 3d
       -0.1649996 -0.10992253 0.14692758 0.12045907
000060 c2 16 bd 3d
       0.09232856

normalize2D.weight f4 [2]
000000 00 00 80 3f 00 00 80 3f
       1.0 1.0

normalize2D.bias f4 [2]
000000 00 00 00 00 00 00 00 00
       0.0 0.0

normalize2D.running_mean f4 [2]
000000 00 00 00 00 00 00 00 00
       0.0 0.0

normalize2D.running_var f4 [2]
000000 00 00 80 3f 00 00 80 3f
       1.0 1.0
