stock market/trained_weights/NVDA/Open_Close_Comparasion/OC.pth (torch, 11424 bytes, 11 tensors)

fc1.weight f4 [25, 3]
000000 f6 b1 11 3c 71 ec 73 be 36 53 d7 3d ea 6a b5 be
       0.008892527 -0.23820664 0.10513918 -0.3543313
000010 7f 50 0a be 0d 45 02 bf a6 f8 c7 3e 72 6b e3 3e
       -0.1350727 -0.50886613 0.3905689 0.44417912
000020 e6 7e 19 bf 35 53 a4 be c9 5e a3 be ff 2a ab be
       -0.59959257 -0.32094732 -0.31908253 -0.3343124
000030 c3 cd 3e 3c 64 bf 0d 3f 85 8a ed 3e ef 9f 03 bf
       0.011645737 0.55370164 0.46394745 -0.51415914
000040 a8 b9 11 bf d7 a0 f0 be 57 ef 92 3e 8d f2 d6 3e
       -0.56923914 -0.4699771 0.28698227 0.41981927
000050 1e a1 a6 3e 1f f2 64 3d 92 06 19 bf 90 21 ec 3e
       0.32544798 0.055894967 -0.5977565 0.46119356
000060 6d d8 7a be 10 71 ac be 4e 2b 4d be 94 9e d5 be
       -0.24496622 -0.3368001 -0.2003605 -0.41722548
000070 07 43 23 bd 50 44 27 bf 52 d7 18 bf 5c 91 29 be
       -0.039858844 -0.6533861 -0.5970355 -0.16559356
000080 0d c5 2a bf f4 ae e5 3e 1d 17 f3 3e c5 7f f2 3e
       -0.66706926 0.4486004 0.47478572 0.47363105
000090 c2 3f df 3e 0c be 80 be 9d df 3d be 02 c2 0b be
       0.4360333 -0.25144994 -0.18542333 -0.13648227
0000a0 b3 75 26 be 45 20 18 bf 6a b3 16 bf 23 78 53 3d
       -0.16255836 -0.5942424 -0.58867514 0.051628243
0000b0 8e 85 08 be cc ef 8b be ce 88 62 be 57 a5 f9 3e
       -0.13332197 -0.27331388 -0.221225 0.48758957
0000c0 e8 ff 25 3e 53 43 19 3e 0c 66 34 3e ad 73 8d 3e
       0.16210902 0.14967088 0.17617053 0.27627316
0000d0 84 10 3f 3f 87 41 c8 3e eb 1d c5 3c 4f d1 c4 be
       0.74634576 0.39112493 0.024062118 -0.3844094
0000e0 bb e7 db be 50 6d 92 3e 60 69 d2 3e 36 65 b1 3e
       -0.42950234 0.28599024 0.4109602 0.3464753
0000f0 90 df 3b be 1b 52 69 3e 79 11 79 bd 5f 66 d4 be
       -0.18347001 0.22785227 -0.06080768 -0.41484353
000100 b1 a7 10 bf 62 10 80 be 89 b9 09 3f e1 a6 29 3e
       -0.56505877 -0.250125 0.5379873 0.16567566
000110 bf f5 73 be 0d 6b dd bd b6 94 80 3e 1c 3f 1b 3f
       -0.23824213 -0.10811434 0.25113457 0.6064317
000120 6c 96 cb be 1b 36 cb be 00 2e de be
       -0.397632 -0.39689717 -0.4339447

fc1.bias f4 [25]
000000 be 17 02 3f ed 0b 89 3e 5e 27 14 3e f5 ba 8c 3d
       0.5081748 0.2676691 0.14468142 0.06871597
000010 5c 93 93 be ad 69 09 be 4b e7 0f bf 10 30 1a 3d
       -0.28823364 -0.13419218 -0.562123 0.037643492
000020 b9 c2 4a 3a 79 3c 70 3e ab 23 0f 3f 3e 8d 0a bf
       0.00077347044 0.23460568 0.559138 -0.5412177
000030 56 af 1a 3d 16 d0 98 3e 4b 2b b5 3e 62 c0 5b be
       0.03776487 0.29846257 0.35384592 -0.21460107
000040 69 7e fc 3e b4 c9 0f bf 4b 78 db be 10 fa 1c 3d
       0.49315193 -0.5616715 -0.42865214 0.038324416
000050 7d a7 cf 3e 83 5b df 3e 70 29 ca be 38 7a 65 be
       0.4055747 0.43624505 -0.3948474 -0.22409904
000060 84 cb c8 3e
       0.3921777

fc2.weight f4 [25, 25]
000000 c7 d8 ee bb bd b8 02 3e d2 d6 9b 3d d9 24 44 be
       -0.0072890255 0.12765785 0.07609333 -0.19154681
000010 b9 5b d3 bd c7 f6 07 bd f3 c8 f9 bc ea 61 f0 bd
       -0.10320229 -0.03319433 -0.030491328 -0.117374256
000020 c7 f8 3d be 69 66 ca bd 40 77 c4 3d b8 0a 3c 3e
       -0.18551932 -0.098828144 0.09593058 0.18363464
000030 6f f6 83 bd 84 44 c7 3c 0f 18 2f 3e 81 e5 74 3d
       -0.06443488 0.024324663 0.17099021 0.059789184
000040 17 f8 0d be 17 f5 17 bd 07 b2 42 bd 0d d6 05 3c
       -0.1386417 -0.03709897 -0.04753306 0.008168709
000050 ee 98 94 bd 63 fb c3 bd fc b2 1b 3e 48 13 5a 3e
       -0.072557315 -0.095694326 0.15204996 0.21296418
000060 ed 25 63 bd d4 55 d3 3c 74 ee c5 bd df b0 45 3d
       -0.05545609 0.025797762 -0.09664622 0.04826438
000070 a9 38 36 3d 2e cc 2c 3d 67 89 55 be 83 b6 d6 3d
       0.04448763 0.04218691 -0.20853196 0.1048403
000080 20 5f a9 bc 6c 5c 1e bc 37 8a 99 3d e4 28 99 bd
       -0.020675242 -0.00966559 0.074970655 -0.074785024
000090 64 63 9d bd 28 e7 08 3e 66 8c 5d be 15 44 fe bc
       -0.07684973 0.13369429 -0.21635589 -0.031038323
0000a0 7e d4 ab be 18 91 0e 3e 0d 57 db 3c 13 ef dd bd
       -0.33560556 0.13922536 0.026774907 -0.108366154
0000b0 79 d6 08 3e 74 4c 04 3c 80 69 9a be 7f d9 bc bc
       0.13363065 0.0080748685 -0.30158615 -0.023052929
0000c0 89 cb 07 3e 79 59 86 3c c4 d1 0f 3e 29 8f 52 be
       0.13261236 0.016400086 0.14044863 -0.20562424
0000d0 63 9e c1 bd 35 90 7d be 71 62 c0 3d 23 2e 9e 3d
       -0.09454038 -0.24762042 0.09393776 0.07723644
0000e0 31 56 09 3e 13 a3 0a 3e 3c d0 ff bc 8c 54 0b 3e
       0.13411786 0.1353877 -0.031227224 0.13606471
0000f0 5e 17 17 be 42 87 a0 bb f7 2d 06 bd 82 76 0d 3e
       -0.14755008 -0.0048989365 -0.03275868 0.13814738
000100 40 f9 39 bc 82 5d 79 be 14 86 db bc 9e c0 09 3e
       -0.01135093 -0.24352077 -0.026797332 0.13452384
000110 c3 40 df 3d 27 7d 11 3d d6 4b 28 be ee 7e 88 3d
       0.10901024 0.035519745 -0.16435179 0.06664835
000120 2b 34 94 bd d2 53 8c 3d 14 10 b4 bd 95 1b 29 be
       -0.07236513 0.06851925 -0.08792129 -0.16514428
000130 48 bb 45 3d 0b b4 00 3e 4f e5 65 3c b5 f7 f9 bd
       0.04827431 0.12568681 0.014031722 -0.122054495
000140 d9 05 d1 3d 51 20 04 3e 73 45 af 3c d0 1f cf 3d
       0.102061935 0.12902953 0.02139542 0.1011349
000150 38 5c 2d 3e 4b 9e dd bc 56 b4 e6 bd 93 71 47 be
       0.1692971 -0.027053019 -0.11264865 -0.19476919
000160 c9 04 61 3e 5d 98 16 ba 16 0c 11 bd 05 d0 ee 3d
       0.21974482 -0.000574475 -0.035411917 0.1166077
000170 a5 15 ff bd a6 24 36 bc a1 8f d4 bd 07 4d 31 3e
       -0.124553 -0.011117136 -0.103789575 0.1731454
000180 c6 2b 2a bd 98 a1 05 3e 02 95 cc bd 88 10 ec 3c
       -0.04154565 0.13049924 -0.099893585 0.028816476
000190 78 ae e8 bc 0f b3 0b 3e 15 4d 3c 3d 2d 68 08 3d
       -0.028403506 0.13642524 0.04597195 0.033302475
0001a0 c5 ee 25 3e b4 f5 c8 3a 90 c9 f2 bd a6 9b 40 be
       0.16204365 0.0015332014 -0.11854851 -0.18809375
0001b0 e4 3b 64 bd 47 a7 40 bd 02 89 51 be bc 11 df 3c
       -0.05572118 -0.047034528 -0.2046242 0.027230136
0001c0 de 8b c6 3d 34 ed 03 be 46 e5 ae 3d 24 c6 6a bd
       0.09694646 -0.12883455 0.08539824 -0.057317868
0001d0 ee 31 0d 3e d8 61 46 be ea 9c 81 3d 30 19 c1 bb
       0.13788578 -0.19373262 0.06328757 -0.005892895
0001e0 4d 0f 82 bd 9e 13 33 3d d5 13 30 3e 42 7d 16 be
       -0.06350575 0.04371988 0.17195065 -0.1469622
0001f0 ed 52 86 3c 3c 85 25 be ca eb 2f 3e 0f 77 72 bd
       0.016396964 -0.16164106 0.1717979 -0.059195574
000200 6a 8a 11 bd 3e 5a e5 bc 91 20 f8 bc 48 83 11 bd
       -0.035532393 -0.027997132 -0.030288966 -0.03552559
000210 4d 8b 2a 3e b4 28 b9 bd f9 81 54 3e ce 66 a3 3d
       0.16654702 -0.09040967 0.20752706 0.07978593
000220 4a 02 66 3d b1 2f 51 be 70 3d 3b 3e 80 5c 09 3d
       0.056154527 -0.20428349 0.18285155 0.03353548
000230 dd 98 72 3e ee 43 5c 3d 16 2e 38 bd 70 67 99 bd
       0.23691125 0.05377572 -0.044965826 -0.07490432
000240 a6 c3 3e be 07 45 bc bd 63 d2 99 bc e5 ac 37 bd
       -0.18629321 -0.091928534 -0.018777078 -0.04484262
000250 ff f3 17 3e 27 27 0a 3e 6c 02 c6 bd 2e d7 a7 bd
       0.14839171 0.13491498 -0.09668431 -0.08195339
000260 be 14 c1 3b a1 66 ee 3c e0 fe c5 3d d8 12 ba 3d
       0.0058923652 0.029101672 0.09667754 0.090856254
000270 1a 80 ca 39 5a 4f 18 be a2 1c b3 bd ad 88 e7 3d
       0.00038623885 -0.1487402 -0.08745696 0.11305366
000280 3c 95 eb 3d 91 62 f9 bd 14 08 17 bc 87 4e 24 be
       0.115030736 -0.12177003 -0.009218235 -0.16045581
000290 1b 2a a5 3d d4 9e 23 3c ac 2e 73 bd 0f af 08 bd
       0.080646716 0.009986598 -0.05937068 -0.033370074
0002a0 ec ef 15 3d ef a4 ab bd 9f e6 d7 bc 57 e3 37 3e
       0.03660576 -0.08381068 -0.026355086 0.17957817
0002b0 cf b8 4e 3e a9 cc 4e 3e 4a 03 17 bd 35 ef f9 bc
       0.20187686 0.20195259 -0.03686837 -0.03050957
0002c0 35 34 c4 3d 8a e0 6b bd 2d 23 53 bc 10 73 1c 3e
       0.0958027 -0.057587184 -0.0128868045 0.15278268
0002d0 6f 0d 0f bd 39 b1 cb 3d e9 6f 1a 3e 2e 9b cb bd
       -0.03492492 0.09945912 0.15081753 -0.099417076
0002e0 c0 7c 00 be b7 f5 40 be cf e0 35 3e f6 04 1e 3e
       -0.12547588 -0.18843733 0.17761539 0.1543158
0002f0 fb 54 41 3d 07 9b 89 be 6a f1 d1 bd 1c 85 44 3d
       0.047200184 -0.2687609 -0.10251124 0.047978505
000300 f4 e8 82 3d 95 24 30 be ba 2d 80 3d 90 ef 0c be
       0.063920885 -0.17201455 0.06258722 -0.13763261
000310 39 08 46 be 6e 71 2f 3e 28 9a a4 bc 11 40 55 be
       -0.19339074 0.17133114 -0.020093039 -0.2082522
000320 2e 93 98 bd 21 c2 06 bc 3f e8 03 be 8c e6 6a bd
       -0.07449947 -0.008224995 -0.12881564 -0.057348773
000330 19 9d dd bd ab 1d 13 be 41 fb 15 3e 67 87 4b 3d
       -0.108209796 -0.14366786 0.14646627 0.049689677
000340 66 4b 25 be 69 da 91 bd a5 c3 e6 bd 8b be 61 3e
       -0.16142043 -0.071217366 -0.11267785 0.22045343
000350 4d 38 a3 3e 93 03 bf bd 77 6f 20 be 61 1a d6 bd
       0.31878892 -0.093268536 -0.1566752 -0.1045425
000360 cb 24 94 bd 3d 98 a8 3d 6f b2 43 3d bd 99 82 bd
       -0.0723358 0.08232162 0.04777759 -0.063769795
000370 42 4a 06 3e 37 ac 0e bd 1d 3a 15 bd 00 09 76 3e
       0.13114265 -0.034832206 -0.036432374 0.2402687
000380 50 c5 2c 3d ee 73 01 3e ed 5e 95 3c 2a 2b 0f 3e
       0.04218036 0.1264188 0.01823374 0.1398131
000390 d9 7a bd bc 13 f8 98 bd 3d 8a e9 3d fe ab 08 be
       -0.023129867 -0.074691914 0.1140332 -0.1334686
0003a0 13 f2 d3 3c 11 d9 58 be f4 4f e3 3d be 88 0f bd
       0.025872266 -0.21176554 0.11099234 -0.035042517
0003b0 ca c8 e6 bd 38 93 8d 3d 69 34 47 bd 87 64 39 3d
       -0.11268766 0.069128454 -0.048633967 0.045261886
0003c0 28 54 2d be 5a df 51 3d d4 25 c6 3a 19 04 25 bd
       -0.16926634 0.051238395 0.0015117475 -0.04028711
0003d0 9d c5 d8 bc 0f 6d 56 bd 5f 61 47 be a5 0d 25 bd
       -0.026461417 -0.0523501 -0.19470738 -0.040296216
0003e0 35 9b 17 bd a7 cf 49 bd c1 da 0a be 74 da 9c bd
       -0.03701325 -0.0492703 -0.1356001 -0.07658854
0003f0 e8 5f 29 3d 58 53 3c 3d ad bb 2f 3e 56 ff 7a 3c
       0.04135123 0.04597792 0.17161436 0.015319666

fc2.bias f4 [25]
000000 c4 18 53 3b f0 b9 76 3d fa 07 05 3d 15 ae cc bd
       0.0032210806 0.060235918 0.03247831 -0.09994141
000010 e1 71 12 3c 80 4a 5c bd 34 ae fe bd 41 77 dc 3d
       0.008938284 -0.053781986 -0.1243557 0.107649334
000020 32 09 fe 3c 6a ab 05 3e 78 e0 52 bc de 8a 23 3e
       0.031010244 0.1305367 -0.0128709 0.15970942
000030 df bc 89 3d 46 1a 46 be 33 20 df bc 2a 64 28 bd
       0.067254774 -0.1934596 -0.027237033 -0.04111115
000040 e8 21 8f bd 22 fc ba 3d de 5b 10 be 84 f9 8d bc
       -0.06988889 0.09130122 -0.14097545 -0.017330892
000050 6f 2c d0 bd 40 0c 08 3e 4e 98 49 3e ed ff 04 be
       -0.10164725 0.13285923 0.19687006 -0.12988253
000060 23 90 3a be
       -0.18219046

fc3.weight f4 [25, 25]
000000 1a ab 14 3d 77 17 08 be 98 ec bd bc 79 bd 19 3d
       0.036295988 -0.13290201 -0.023184106 0.03753421
000010 9a 03 1e be f3 46 67 bd 90 dd c0 bc 9f 83 1c bd
       -0.15431061 -0.056464147 -0.02354315 -0.03821146
000020 91 f2 6d 3d 31 a9 d2 bc 3b 3f 97 bd 88 23 07 be
       0.058092657 -0.025715442 -0.07385107 -0.13197148
000030 bb f2 ed 3d ce 1c 1b bd 14 e1 1f be 6b 4d 16 be
       0.11618563 -0.037869267 -0.15613204 -0.1467797
000040 f1 02 18 be 13 0e 22 3e 2e 53 25 3e 6b ab 25 3e
       -0.14844872 0.15825681 0.16145012 0.16178672
000050 8b 15 1d be af 2c 4d 3c 2e e2 af bd 64 d5 1d 3e
       -0.15340249 0.01252286 -0.08588062 0.15413433
000060 60 75 e4 3c 83 9b 1f 3e 97 86 fc 3d 6f 6b 9f bd
       0.027888 0.15586667 0.123303585 -0.07784163
000070 49 d7 b2 3d ef e1 34 be 40 4a 13 3e 44 2b 52 bd
       0.08732469 -0.17664312 0.14383793 -0.051310793
000080 87 de 35 be c2 28 b7 3d a7 e4 04 3e 3d 71 79 b7
       -0.17760669 0.08943321 0.12977849 -1.4867922e-05
000090 17 e2 48 bd b1 bc b4 3d 18 e8 29 3e 9c 4d 29 bd
       -0.04904374 0.088250525 0.16592443 -0.04133378
0000a0 2d df ae bd b5 47 0d 3e 32 05 10 bc 42 bb ec 3a
       -0.08538661 0.13796885 -0.008790301 0.0018061178
0000b0 a4 74 61 3d 00 96 ff 3d 38 26 fa bd 63 51 8c 3c
       0.055042878 0.12479782 -0.12214321 0.017128652
0000c0 0d 52 75 bd c4 b5 48 be 27 fe ff 3d 55 67 08 3e
       -0.059892703 -0.19600588 0.124996476 0.13320668
0000d0 fa d5 4e 3d 58 d7 92 3d 3f ea 1e bc d3 d4 62 be
       0.050497033 0.0716998 -0.009699403 -0.22151498
0000e0 32 c9 0c bc 09 b0 e1 3d af 13 00 3e c5 74 f9 3b
       -0.008592891 0.11019904 0.12507509 0.007612797
0000f0 50 fd c6 3d b0 2f fa bc 3b b8 14 3e 5d 17 85 3d
       0.09716284 -0.030540317 0.14523403 0.06498597
000100 b8 f9 da bd 9a 88 d5 bd 3a b1 df 3d 9d 18 b5 3d
       -0.10692161 -0.10426445 0.10922475 0.08842585
000110 de a6 57 bd 9f 49 97 bd a7 ad 4a bd 7b f4 2d bd
       -0.05264937 -0.07387089 -0.049482014 -0.042469483
000120 db 5f 08 3e 01 05 a2 3d d4 90 37 be 2e c3 f6 3d
       0.13317816 0.07911111 -0.17926341 0.12048946
000130 d2 db d6 3d db a2 b5 bd a2 3f 14 3e 32 07 c7 3d
       0.10491146 -0.08868953 0.14477399 0.09718169
000140 dc a2 30 bd 32 6d d8 3d eb 21 e3 bd 1c 91 d3 3d
       -0.043124065 0.10567702 -0.11090454 0.10330412
000150 a4 a4 92 bd 40 03 03 b9 17 d3 37 bc 1c 4a 52 bc
       -0.07160309 -0.00012494344 -0.011219761 -0.012835052
000160 24 1e 65 3c f5 c2 4b bd 8c 27 18 be 22 1d 37 be
       0.013984237 -0.049746472 -0.14858836 -0.17882207
000170 4c e5 2f bc a7 a2 f7 3d 89 44 29 be 1a 14 af 3d
       -0.010735821 0.1209157 -0.1653005 0.08548756
000180 97 04 db bd be 4f 76 3d a6 0d 6c bd ee 0c 78 bd
       -0.10694235 0.06013464 -0.057630204 -0.060559206
000190 37 59 21 3e 4a 4c 10 be c8 e8 14 3d 09 13 08 3e
       0.15756689 -0.14091602 0.03635481 0.13288511
0001a0 78 dd 49 be 87 5b b8 bd 80 09 5c bc f0 ad 09 be
       -0.1971339 -0.090018325 -0.013429999 -0.13445258
0001b0 68 90 3c bd 90 8f e1 bc 53 98 2a 3e 12 26 c2 3d
       -0.046036154 -0.027534276 0.1665967 0.094799176
0001c0 40 e7 99 bd 9b a0 42 be da dc b1 3d af 07 35 be
       -0.075148106 -0.19006579 0.08684702 -0.17678712
0001d0 e8 a5 22 bd 7a 28 b0 bd 73 9f 38 be c2 9b c5 3d
       -0.039709 -0.0860147 -0.18029575 0.09648849
0001e0 d0 44 23 3c 28 c4 99 3c ed 2e e6 bd 15 25 1f be
       0.009965137 0.018770292 -0.11239419 -0.1554149
0001f0 c5 8f 0d be 00 4d 19 be 59 0c 3e 3e 30 46 06 3a
       -0.13824375 -0.1497078 0.18559398 0.0005122153
000200 b8 18 f5 bd 43 d6 e5 3d 3a d0 10 3e 06 fa 8e bb
       -0.11967605 0.11222508 0.14141932 -0.004363301
000210 88 57 80 bd db 9c 0a 3d 30 ab f4 bd dd 5c 79 3c
       -0.06266695 0.033840995 -0.11946714 0.015219894
000220 ba 0b 24 be d6 21 21 3e f9 dc 85 3d a4 42 17 be
       -0.16020098 0.15735564 0.06536288 -0.14771515
000230 c3 57 10 3d 89 a7 c2 3a f9 5d 81 3d 24 05 53 3d
       0.035239946 0.0014850955 0.06316752 0.051518574
000240 38 22 88 3c 48 bd 91 bd 82 49 bf 3d 71 ca 1d 3e
       0.01661788 -0.07116181 0.093401924 0.15409257
000250 9e ac d5 bd 49 a7 4d 3d 07 8e 71 3b 9a 15 05 3e
       -0.10433315 0.050208364 0.0036858337 0.12996522
000260 db f6 38 be 4b 0b 01 3d a5 7c 1f 3e da fc 46 be
       -0.18062918 0.03150491 0.15574892 -0.19432393
000270 2d 0a aa 3d c8 2f de 3d ab 09 69 be ce 3d 17 3e
       0.08302722 0.10848957 -0.22757594 0.1476967
000280 cd 32 59 3b 1e cd 1f 3e f5 3f 03 3e b6 f3 12 bd
       0.0033141852 0.1560559 0.12817366 -0.035876952
000290 20 7e 88 3d c4 b2 5b be bc 1d 1c 3d e6 38 17 3e
       0.066646814 -0.21454912 0.038114294 0.14767799
0002a0 90 cf 07 be 72 da b6 bd 85 f7 1c be d0 da ed 3d
       -0.13262773 -0.08928384 -0.15328796 0.11614001
0002b0 4d 07 ad bd 9f 07 7f 3c be 35 1a 3e 68 76 47 be
       -0.08448658 0.015565782 0.15059564 -0.19478762
0002c0 34 70 3d be 31 44 7c 3d cc b4 ab bd 9a de 4c be
       -0.18499833 0.06158847 -0.08384094 -0.20006791
0002d0 f5 e8 59 3d 9a bb 2b 3e 2e 46 31 be 6d 9b 34 3e
       0.05320068 0.16770783 -0.17311928 0.17637415
0002e0 2e cb 77 3d fd d2 85 3d ab 8b 89 bd c4 ce b5 bb
       0.0604965 0.065343834 -0.06716093 -0.00554833
0002f0 82 c7 78 bd 99 68 c5 3c fd 05 3d be 40 99 0b be
       -0.06073714 0.024097728 -0.18459316 -0.13632679
000300 11 5d 98 bd 14 ad f0 3d c6 0d d4 3d b9 a4 2b 3e
       -0.07439626 0.11751762 0.103541896 0.16762055
000310 8f 14 a1 3c 41 67 c6 bd 0c d9 b0 bd f1 bb 7b bd
       0.019663123 -0.09687663 -0.086351484 -0.06145853
000320 f1 fe 2b 3e f3 2e 3c be 78 50 38 3d 40 db f9 bc
       0.16796471 -0.18377285 0.044998616 -0.030500054
000330 0d 97 ce bd 90 dc b9 bd 14 ad 78 3d 48 43 7a bd
       -0.100874044 -0.09075272 0.060711935 -0.06109932
000340 60 14 2f 3d 76 e3 20 be a8 e4 cb bc 70 a8 49 be
       0.04274404 -0.1571177 -0.024889305 -0.1969316
000350 83 0b 01 3e 15 13 3d be a0 9e 17 3d 03 c9 fb bd
       0.12602048 -0.1846431 0.03701651 -0.12294199
000360 f0 f1 b6 bc 45 02 26 3e 54 74 23 bd b0 b3 16 3c
       -0.022332162 0.16211803 -0.03990586 0.009198114
000370 60 f8 7e 3c 7f a5 16 3e 42 a5 88 3d 98 bf 08 bd
       0.015562147 0.14711569 0.066721454 -0.033385843
000380 cc 65 26 3d 9b 5d 30 bd 09 2d 50 3e 41 02 64 bd
       0.040624425 -0.04305802 0.2032968 -0.055666212
000390 5a 6b 14 3e 00 93 a4 3d 2b 2c 9c 3d 1c 17 14 3d
       0.14494076 0.080358505 0.07625612 0.03615485
0003a0 e8 80 61 3e ad 56 ac 3c b7 ad 36 bd a0 3e 92 bd
       0.2202183 0.021037424 -0.04459926 -0.07140851
0003b0 01 f0 e7 bc 93 39 d2 bd 95 4a f9 3d 26 e4 67 3d
       -0.028312685 -0.10264888 0.121724285 0.056614064
0003c0 49 5d f5 bd 4d b9 e2 3d b1 0c 61 3e 13 0e 21 be
       -0.11980683 0.110704996 0.21977498 -0.15728025
0003d0 b6 7d 1c be 44 6f 22 3e 5e ed 32 be 57 b0 30 be
       -0.1528233 0.15862757 -0.17473361 -0.17254768
0003e0 0f 28 0f bb f8 00 1d bc cf dd 8f 3d b9 ba db 3d
       -0.0021843945 -0.0095827505 0.070247285 0.10728974
0003f0 3c c4 1e 3e a1 7b 2b 3e ab 08 32 be 6a ab b6 bd
       0.15504545 0.1674638 -0.17386119 -0.089194134

fc3.bias f4 [25]
000000 b6 4a a3 3d 5c 2b 5d be 2e 78 63 be 4c 8a 05 3c
       0.07973234 -0.21598572 -0.22213814 0.008150648
000010 aa ce f6 3d d9 af 14 be ba f9 5d be 59 85 23 3d
       0.12051137 -0.14520206 -0.21677294 0.039922092
000020 c0 73 65 bd 64 f7 3e be 77 e8 3f 3e 3a f1 fd 3d
       -0.05601859 -0.1864906 0.18741022 0.12399526
000030 fd b3 63 3d 8f af 0c 3c 83 f4 ea 3b b6 df 4f be
       0.055591572 0.008586778 0.0071702613 -0.20300183
000040 6d 72 e8 bd 18 5a 10 3d bf 41 4f be 98 f8 b9 3c
       -0.1134995 0.03524217 -0.20239924 0.022701547
000050 ad 84 02 3e d2 0c 0d be 2d 3a 16 3e 67 e0 2d bd
       0.12745924 -0.13774422 0.1467063 -0.042450335
000060 1d 5f c5 3d
       0.09637282

fcFinal.weight f4 [1, 25]
000000 77 92 7f bc 37 a4 18 be 51 ad 3c 3d 94 d4 93 bc
       -0.015598885 -0.14906393 0.046063725 -0.018045701
000010 e3 85 2d 3e 35 38 cd 3c 56 77 ac bd c6 fc 8b 3d
       0.16945605 0.025051216 -0.08421199 0.06835322
000020 5d ec 4b 3e 73 15 47 3d 8b 86 25 3b 13 7f 1c 3e
       0.19914384 0.04860444 0.0025257196 0.1528285
000030 dd 16 90 3d 2e 14 4d 3d 3b 04 90 3d f1 3b 10 3e
       0.07035611 0.050068073 0.07032057 0.14085366
000040 fa 99 28 be c0 ca 10 3b ef 5b f3 bd 82 f9 16 be
       -0.16464987 0.0022093505 -0.11882769 -0.14743617
000050 e9 70 92 3c ea d6 48 be 27 d8 bd bd 7c 6d be bc
       0.017876105 -0.19613233 -0.092697434 -0.023245566
000060 99 66 39 bd
       -0.04526386

normalize2D.weight f4 [2]
000000 00 00 80 3f 00 00 80 3f
       1.0 1.0

normalize2D.bias f4 [2]
000000 00 00 00 00 00 00 00 00
       0.0 0.0

normalize2D.running_mean f4 [2]
000000 00 00 00 00 00 00 00 00
       0.0 0.0

normalize2D.running_var f4 [2]
000000 00 00 80 3f 00 00 80 3f
       1.0 1.0
