stock market/trained_weights/Moving_average_Gaussian_Close/100_days.pth (torch, 11446 bytes, 11 tensors)

fc1.weight f4 [25, 3]
00000000: 6843 fcbe e0d9 30bf eee9 7dbf b414 b43e
00000010: 457a 923f 071f b03f a537 38bf 725b 80bf
00000020: 8dd7 8fbf 657e c03e 6526 44be 8d6f 50be
00000030: 0499 84bf 3660 d0be 9bd7 60bf 7953 2b3f
00000040: 5046 c2bd 7574 95be deae 753f 3151 583f
00000050: d1c3 bd3e 4e9e bf3e cc65 a43f bfe7 8c3f
00000060: 6fe9 edbd 54ca 843e 8270 8a3c 12ad 0e3f
00000070: 340d ae3f f69c a93f f5b1 c8be 24c7 cbbd
00000080: 52ba 07be dd91 82be 1c8e 7dbf 4f40 5abf
00000090: 7074 6fbf 6ca4 04bf 0b26 9bbf 2de5 1d3f
000000a0: 8df1 73be 6304 d1be b0c6 a5be 02b4 b93e
000000b0: 1b1f 8abc b46a 6abf 6106 82bf 4688 a3bf
000000c0: 8489 8abf 79aa 40bf b371 a5bf 1e79 813f
000000d0: 7fc0 953e f8d8 a83f ebae eabe c7fd 7ebf
000000e0: 6cad 92bf 167d 4fbf b1e1 b5bf 5dd9 9cbf
000000f0: 17ff da3e f564 953e ab74 17bf fa64 dbbc
00000100: 7a8f e13e 4340 71be fd0b 4e3f 38b2 003f
00000110: d06f 83bd b2be 8abf b349 77bf 12dc 8ebf
00000120: fcd3 4cbe cd88 91bf 184a 7bbf
-0.49270177 -0.6908245 -0.99185073 0.35172045 1.1443564 1.3759469 -0.71959907 -1.0027907
-1.1237656 0.3759643 -0.19155271 -0.20355053 -1.0359197 -0.40698403 -0.8782899 0.66924244
-0.09486067 -0.29190412 0.9596995 0.8449889 0.3706346 0.37425464 1.2843566 1.1008223
-0.116167895 0.25935614 0.016899351 0.55732834 1.3597779 1.3251026 -0.3919827 -0.099500924
-0.1325467 -0.2550191 -0.99044967 -0.8525438 -0.93537045 -0.5181339 -1.2120985 0.6167782
-0.23822613 -0.4082366 -0.3237815 0.36270148 -0.016860535 -0.91569066 -1.0158197 -1.2775962
-1.0823216 -0.7526012 -1.2925323 1.0115087 0.29248425 1.3191214 -0.45836577 -0.99605983
-1.1459174 -0.8105024 -1.42095 -1.2253834 0.42772743 0.29178587 -0.59162396 -0.026781548
0.44054776 -0.2355967 0.8048704 0.5027194 -0.06417811 -1.0839446 -0.9659683 -1.116091
-0.2000274 -1.1369873 -0.98159933

fc1.bias f4 [25]
00000000: 9ea5 d43e a110 80bf d0cc 573f 1b8f 893e
00000010: c660 093f 583b 283d 87f8 1bbf 8808 6fbf
00000020: 9ec1 17bf b8dd 9abf 8f9c 833f a586 893e
00000030: dc11 3f3f ba66 a63e e462 14be 686b 893f
00000040: 7ded 893f 4587 4bbf 24a7 373f 569a a23f
00000050: 26d8 02be 171f 383d b601 623e 8976 8b3f
00000060: 6633 cc3e
0.41532606 -1.0005075 0.84296894 0.26866993 0.5366329 0.04107222 -0.609261 -0.9337239
-0.5927981 -1.2098913 1.0282153 0.26860538 0.74636626 0.3250025 -0.14490849 1.0735903
1.0775601 -0.7950328 0.7173941 1.270335 -0.12777767 0.044951525 0.22070965 1.0895549
0.39882964

fc2.weight f4 [25, 25]
00000000: 8af9 543e 884f 2bbe 2d0b 1f3e 5cb2 503e
00000010: e015 723e 5c68 d6bd 8225 57be 1098 40be
00000020: 5636 3abe 4002 38be 9663 0e3d 303a ad3d
00000030: 403a f63d 30ba 2c3e 5429 dfbc 64e4 c43d
00000040: 6079 383e f90c 93bd 2449 803e 701b 823e
00000050: 91b3 4e3c ee3f 4abe 9ee3 ad3c e020 5e3d
00000060: 2519 9e3d 271b c33d b3d9 323e a466 143d
00000070: 6528 41be 1f45 ba3d bf95 223d 2851 f63d
00000080: 540d 95bd ec43 183e 4fb3 03be 109e 30bd
00000090: cf37 ddbd 87cc f03d f25d cabd ecad c33d
000000a0: b303 91bd 4a9a 8fbd f095 07be db32 91bd
000000b0: 0e68 17be 77bc dd3d 97e8 debd 5baa dabd
000000c0: ec63 b73c 333c 1bbd 0157 883d 9e81 64bd
000000d0: 92e2 b83b f38d 973e eb89 c2bd f2c3 163d
000000e0: 5375 31be 6581 a4be 966f b63d 7052 dfbd
000000f0: 7d41 78be 0236 2d3e 954a d3bc 8bba 933e
00000100: ba34 803c 5366 70bd ea06 3f3e 6869 8abe
00000110: ce08 e93d 2855 163e 1e5b 903d 5d2e 0dbe
00000120: 7787 10bd 7965 353e d11a 053e 9ddb 0dbe
00000130: 5cff 133d 54cf 033d 04da 83be fb31 b83d
00000140: 2857 babc 8f4c 033e 809b 0bbc 9be5 61bd
00000150: 8815 ee3d a19e 233e 08fb b13d 3fff 28be
00000160: 7aeb dfbc 0ffb 873e 618c 7bbe ce7f 34be
00000170: 08a9 d23d 4ac8 d8bd c668 5b3d c4d4 9aba
00000180: 04e3 2a3e 9539 89bd f8fa 4abe 1181 203d
00000190: f26e 973d 824b e5bd a422 d93d 88d5 1e3e
000001a0: 2a95 8b3d 05f7 e23d d19b 833d a772 31be
000001b0: 8529 a93d ec42 a9bd 7acb 87be 7883 013e
000001c0: 04ee a9bd e652 223e 6485 a5bc 6876 453d
000001d0: 622e 2bbc 56c9 cf3d 35b9 843d 49fa c13d
000001e0: 5e7b f33d 90ce 32bd 9edd d0bc f6b1 213e
000001f0: a011 bfbd db4f 9cbd c18e 583e de3d 903d
00000200: d466 33be 52ec 0dbe d6ea cbbd 44e8 083e
00000210: 9222 033e a128 28bd 6b46 1e3e 356c 4d3e
00000220: aa6c 483d ffc7 24bd abd7 a8bc c738 4f3e
00000230: 745c 8bbe 8dc6 d0bd 6b3a 8b3e b656 eebd
00000240: 25a6 8bbe f1a2 48be df22 d3bd 9cb2 adbd
00000250: 7f8e 1fbe 8196 0bbe ad0d b4bd 4ba1 8bbc
00000260: 03ad 07bd f457 ae3e 5b9d 063e c418 6f3c
00000270: 73d4 bbbd 6289 bdbd 0390 733e 4b35 12be
00000280: 3cda 44be 9471 203d 1e4f d93d cd16 7a3e
00000290: 11a6 bcbe 55f4 3cbd facf 133e 83f2 84be
000002a0: d818 9d3a 6f0d 613d 030a 4d3e bc70 963d
000002b0: f3c9 263d 3a2f 123e 1d4c 873c 3079 4fbe
000002c0: 6828 203e 9b43 c4bd 8120 afbd 73a2 5a3d
000002d0: f8dd 3ebe 8539 383d fd38 083d c8e1 0f3d
000002e0: 0de3 183e cc64 6d3d 105f a73d d130 03be
000002f0: 6731 d23d 5b0e a1bd c87a 8fbd 4bd5 2bbe
00000300: 88a6 393b 1d0c 053e ac1c 78be 0d6f 3bbe
00000310: 3d85 b73b 1272 533e c61f 3dbd 507e b8bc
00000320: 71d4 9e3d 317f fe3d 4847 35be a0ac 58bc
00000330: fde0 b1bc c90a 293d 7d03 103e 9476 b3bb
00000340: dbdf 57be 250c 2e3e 18dd e43c 4fe0 da3d
00000350: 30fe b0bd 0b6c 3cbe de96 243e 9688 51be
00000360: 0739 62bd b33c 223e 69e9 df3c 7208 55be
00000370: c2d4 a3bd 694e 583d eb17 0d3e 9aa0 65bd
00000380: c6ee eebc 783b 073d 05d2 0c3d 21b4 0ebd
00000390: 85c3 3dbe cef1 a1bd e70b 67bd 8a4c 213d
000003a0: 4718 423e 7fe3 65be a9d0 a7bd 9a0e 88bd
000003b0: e0ec 913c 7648 983d 467a d3bc 4822 613e
000003c0: f5bf a2bd d9e8 67be 15ee b03d 2e99 e33d
000003d0: c5bc 053d 9b5f 0ebc f47d 54bd 0ad7 913d
000003e0: 5a19 04bd 4c76 51be 2f7f cfbd e3ee 1d3d
000003f0: e42e 593d 044f 033a b4c3 2e3d 47af 64be
0.20798317 -0.16729558 0.15531607 0.20380539 0.23641157 -0.10469124 -0.21010402 -0.18808007
-0.1818479 -0.17969608 0.03476294 0.08458364 0.12022829 0.168679 -0.027241386 0.096138746
0.18015051 -0.07180209 0.25055802 0.25411558 0.012616054 -0.1975095 0.0212267 0.05423057
0.0771964 0.09526663 0.17465858 0.0362307 -0.18863066 0.09095215 0.03969359 0.12027198
-0.07277933 0.1486966 -0.1286137 -0.04311949 -0.1080166 0.117577605 -0.098812 0.09554657
-0.07080784 -0.0701185 -0.1324079 -0.07089778 -0.14785787 0.108269624 -0.10884207 -0.10677024
0.022386514 -0.037899207 0.0665722 -0.055787675 0.0056422437 0.29600486 -0.09498962 0.03680796
-0.17329912 -0.3212997 0.08908002 -0.109043956 -0.24243732 0.16915134 -0.0257924 0.28853258
0.015650142 -0.058691334 0.18654981 -0.27033544 0.113786325 0.14680922 0.07048629 -0.13787217
-0.03528544 0.1771449 0.12998511 -0.13853307 0.0361322 0.032180145 -0.2575227 0.08993908
-0.022746637 0.12822174 -0.008520961 -0.05515061 0.116252005 0.15978481 0.086904585 -0.16503619
-0.027333964 0.2655873 -0.24565269 -0.17626879 0.102861464 -0.10585077 0.053566717 -0.0011812677
0.16688162 -0.06700436 -0.198223 0.039185587 0.07394208 -0.111960426 0.1060231 0.15511143
0.0681556 0.110822715 0.06426204 -0.17328893 0.08259872 -0.082647175 -0.26522428 0.12647808
-0.08297351 0.15851936 -0.020205207 0.048208624 -0.01044807 0.10145824 0.06480638 0.09471566
0.11888765 -0.043654025 -0.0254963 0.15790543 -0.093295336 -0.07632419 0.21148206 0.0704305
-0.17519695 -0.1385968 -0.09956901 0.13369852 0.12806156 -0.04105437 0.1545655 0.20060809
0.048931755 -0.040229794 -0.020610651 0.20236503 -0.27218974 -0.101941206 0.27193007 -0.116376325
-0.27275196 -0.19593407 -0.103093855 -0.08481333 -0.15581702 -0.13631631 -0.08791671 -0.017044684
-0.03312398 0.34051478 0.13145964 0.014593307 -0.09171381 -0.09254719 0.23785405 -0.14278142
-0.19223875 0.039170817 0.106107935 0.2442276 -0.3684545 -0.04613145 0.14434806 -0.25966272
0.0011985553 0.054944452 0.2002335 0.07345721 0.040719938 0.14275828 0.016515786 -0.20261073
0.15640414 -0.09583207 -0.085511215 0.05337758 -0.18639362 0.04497673 0.033257473 0.03512743
0.14930363 0.057957456 0.081724286 -0.1281159 0.10263329 -0.07864066 -0.070058405 -0.16780584
0.002832802 0.12992902 -0.24229687 -0.18304081 0.0056006 0.20648983 -0.04617288 -0.022521168
0.07755364 0.124266036 -0.17702973 -0.013224751 -0.021713728 0.04127005 0.1406383 -0.005476782
-0.21081488 0.1699682 0.027937457 0.10687315 -0.086422324 -0.1840059 0.16073176 -0.2046226
-0.055230167 0.15843467 0.027332978 -0.20804003 -0.07999565 0.052809153 0.13778655 -0.056061365
-0.02916659 0.0330157 0.034379978 -0.034839753 -0.18531616 -0.07907449 -0.056407835 0.039379634
0.18954574 -0.22450064 -0.08194096 -0.0664341 0.017813146 0.07435696 -0.02581514 0.21985734
-0.07946769 -0.22647418 0.086391605 0.11113201 0.032650728 -0.008689786 -0.05187793 0.071210936
-0.03225074 -0.20455283 -0.1013168 0.0385579 0.053023234 0.00050090277 0.042667106 -0.22332488

fc2.bias f4 [25]
00000000: ebb4 83be 28b0 153e dd2e c93d fb59 36bd
00000010: da81 4bbe 9417 0b3e e0bf c9bd ad07 fb3d
00000020: c5a3 d2bd 5272 f43d d474 38be 0701 603e
00000030: 4a2f d13c cdf2 f43d 4390 62bd 32b3 c63d
00000040: 2f37 4a3e 3c9a 83bc c8fe 36be 3032 abbd
00000050: f378 933d cfc5 6f3e fd93 5c3c c34f c4bc
00000060: cfa3 293e
-0.25723967 0.1461798 0.098233916 -0.044519406 -0.19873753 0.13583213 -0.098510504 0.122573234
-0.10285143 0.11935867 -0.18013316 0.21875392 0.025535244 0.11960373 -0.05531336 0.097021475
0.19747613 -0.016064756 -0.17870629 -0.08359182 0.072008036 0.23415302 0.0134630175 -0.023963815
0.16566394

fc3.weight f4 [25, 25]
00000000: cd3c 65bd 0f0f 063e 6f53 a8bd 89c3 0b3e
00000010: 7109 50be db38 6dbd f674 89bd ecbb d93d
00000020: 3dee e03d d27b 293e 6a7f 323e 5b6a 59bc
00000030: f28d 8abc d409 903c 0a90 943d de91 f23c
00000040: 5b8f 313e 7ac5 5bbd 701a cebd f2dd 39be
00000050: e22f a63d 7997 c53d 45cb cdbd b4e3 a53d
00000060: fafc bbbd 35a3 863e 4cb5 c93d 5974 95bd
00000070: baf6 fe3a 2f33 87bd 46b9 66be ffe2 94bd
00000080: 5d26 1e3c c626 30be fc36 4ebd 99e1 173e
00000090: 71d2 acbb c2a8 df3c 827e 773e 9874 9c3d
000000a0: c8ba 49be 6598 30be 08b4 f1bd 9bee 4e3e
000000b0: 6ce9 023d e45a 8cbd d496 21be 6b91 ac3d
000000c0: 157e 7b3d 702e c1bd 3920 25bd 7273 a63b
000000d0: 108b 20bd d5a5 dc3d e766 40be 9ac4 f4bd
000000e0: 459d b3bd a41b 0b3e a269 603b 597d 373e
000000f0: de72 61bd d02d 193d 3556 2ebe 1d25 1cbe
00000100: 40b6 103e 81ee 903a e3a0 e9bc 0d9c a63c
00000110: f173 f13d dbfa f0bd d800 cb3c 33e8 393e
00000120: 6281 40be 65ca 92bd 8366 113e 9bb0 383e
00000130: dce2 67bd 2fc5 393d 91e0 1cbe ff32 c83d
00000140: 73e7 a1bc 2dcd 0abe 7d80 4b3c 0e71 08bc
00000150: 38f9 223e b62a 2abe 1100 dbbc 65af 81bd
00000160: dc81 9b3d 762a 3ebe 5b57 f8bd 7dac 3b3e
00000170: 6a5d fd3d 06cb 2d3d d9f3 03be d8f0 d83d
00000180: e91a f9bd 943a a1bd 7f2d 223d 98dc 73bd
00000190: 60cf 0d3c 9de9 bbbd 00d0 2cbb 0537 38be
000001a0: 60d2 953b d879 4abd 086a 07be ef8a 1b3e
000001b0: 43fb 33be 20e2 31bc e38b 053e a4ba 4f3d
000001c0: b7f1 dbbd 1952 273e e043 bfbd d22f 36be
000001d0: 71b2 093e 00f5 adbd e0ab 67bc ea3f 12be
000001e0: 9380 3bbe fdce dcbd a81b 2cbd 4080 a4bc
000001f0: a473 693d 90cc 22be b030 f3bc 932c adbd
00000200: 3289 9a3d cc1f 59bd 3db2 c9bd 0237 12be
00000210: 7f16 1a3e 4b6c 33be 7ab5 e5bd e097 4a3c
00000220: 0d48 10be 1e95 eb3d 7ab7 933d 0ac0 8ebd
00000230: 26d3 e23d 408e 3abe c3d2 1d3e 6445 6b3d
00000240: d154 2c3e 12f2 fd3d b864 3abe 2b9c 1dbe
00000250: 42a7 22be 30e7 2b3c ab45 c6bd c5ba 273e
00000260: a8d5 e8bd 61f1 133e 098a 913d 10d9 823d
00000270: 1dfc 21be 1adf fa3d 12ab c2bd 2b2b 56bd
00000280: 473b 4bbe 2d4d 24be 2e36 2d3e 68ac 17be
00000290: e98d 473e 1edb 46bc c6aa e93d 5e65 febd
000002a0: 5210 0c3e 80ef 18be f999 2e3e a2e8 35be
000002b0: 2954 833d 15e9 c1bd b705 2d3e 0a3f 91bd
000002c0: 65fc 15be 0b70 25be 0fa1 583c 426d 3abe
000002d0: bcac 8c3d ec7a 6bbe ed49 313e e62e b63d
000002e0: cf9d 373e 6e3f 28be 24d1 3a3e fe81 583e
000002f0: aab5 73bd 8eb6 9b3c da05 8c3e 2362 77bd
00000300: 15f0 0d3e 38b1 a0bd 865b 3dbe 2fb6 ea3d
00000310: 34e7 7abd e5f5 413e 4683 893d 27aa 6e3d
00000320: ec76 aa3d 0fef b73d 5f58 b2bd 4bf6 be3d
00000330: cd04 54be 9b54 99bc ebef 81be 5884 15bd
00000340: ce9f 7a3c c5f6 15bc 51ef 6ebd 2698 2c3e
00000350: 58c8 5a3e 3331 dbbc e02d aabb b3cc 933e
00000360: 9d03 0b3e fc92 2d3d c406 4cbe 7135 ddbc
00000370: 15a1 de3d 2da1 2a3d b227 c13d 6d32 a43d
00000380: 4e1a 81bd b642 953d 123c ba3d 06a3 0abe
00000390: 4075 213e 514b 8cbd ea52 dc3d 8bb8 3c3e
000003a0: 35d6 243e 0162 12be a5f2 41be d20f 773d
000003b0: bdd9 51bd 4c92 fdbd 99a4 9e3c 2f8c f9bd
000003c0: 6548 f23d e66a f9bd 8f77 d73c a5bf 1f3e
000003d0: dd19 2bbd 1fb7 5fbd fc36 d23c 202b 2abe
000003e0: ac04 ca3c e9eb 22be f01f dabd 0d0b 9e3d
000003f0: 1768 28be db7a f4bd 98ca a5bd 0641 da3d
-0.055966187 0.13091682 -0.08219039 0.1364881 -0.20316102 -0.05791555 -0.06711762 0.106315464
0.1098294 0.1655114 0.17431417 -0.013269986 -0.016913388 0.017582811 0.07254036 0.02961057
0.17339842 -0.053655125 -0.10063636 -0.18151072 0.08114602 0.09648032 -0.10048536 0.081000715
-0.09179111 0.26296392 0.09849033 -0.07297582 0.0019452192 -0.06601559 -0.22531614 -0.072698586
0.009652701 -0.17202291 -0.050345406 0.14832152 -0.00527411 0.02730215 0.24169353 0.07639426
-0.19700158 -0.17245634 -0.11801916 0.20208208 0.03196089 -0.068532735 -0.15780193 0.08426174
0.061399538 -0.094326854 -0.040313933 0.00507968 -0.03919512 0.107738174 -0.18789254 -0.11951561
-0.08770231 0.13584763 0.003424265 0.1791891 -0.055041187 0.037397206 -0.17025073 -0.15248533
0.14132023 0.0011057408 -0.0285191 0.020338083 0.11789692 -0.11766597 0.024780676 0.18154983
-0.18799356 -0.0716751 0.14199261 0.1803612 -0.056612834 0.045354065 -0.1532004 0.09775352
-0.019763684 -0.13554831 0.012420771 -0.008327736 0.15915382 -0.16617855 -0.02673343 -0.06332282
0.07593128 -0.18570885 -0.12126037 0.18327518 0.12371333 0.042429946 -0.12885989 0.10592812
-0.12163336 -0.07872501 0.03959417 -0.059536546 0.008655399 -0.091754176 -0.0026369095 -0.17989738
0.004572198 -0.049432606 -0.13224041 0.15189718 -0.17576317 -0.010857135 0.13041644 0.050715104
-0.10739463 0.16339912 -0.09339118 -0.1779168 0.13446976 -0.08493996 -0.014140099 -0.14282194
-0.18310766 -0.107816674 -0.042018563 -0.020080686 0.05699505 -0.15898347 -0.029686302 -0.084557675
0.07545699 -0.05300884 -0.098484494 -0.14278796 0.15047644 -0.17521779 -0.112162545 0.012365311
-0.14089985 0.11503051 0.0721273 -0.06970222 0.110754296 -0.18218327 0.1541243 0.057439223
0.1682923 0.12399687 -0.18202484 -0.15391605 -0.15884116 0.010492131 -0.09681257 0.1637984
-0.11368877 0.14447547 0.07106406 0.06389058 -0.1581883 0.122495845 -0.09505285 -0.052287262
-0.19846831 -0.16045065 0.16915199 -0.14811862 0.19487728 -0.012137203 0.114095256 -0.12421678
0.136781 -0.14935112 0.17050923 -0.17764524 0.06412537 -0.09468285 0.16896711 -0.07092102
-0.14647062 -0.16156022 0.013221993 -0.18205741 0.06868884 -0.2299611 0.17313357 0.08895664
0.17931293 -0.16430447 0.18243843 0.21143338 -0.05949942 0.019007947 0.27348214 -0.060396325
0.13861115 -0.07846302 -0.18491945 0.1146053 -0.06125565 0.18941458 0.067144915 0.05826774
0.08323464 0.08981144 -0.08708262 0.093243204 -0.20704956 -0.0187171 -0.25378355 -0.036503166
0.0152968895 -0.009153073 -0.0583337 0.16854915 0.21365488 -0.026756858 -0.005193457 0.2886711
0.13575597 0.042376503 -0.19924456 -0.027003022 0.10870568 0.041657615 0.094313994 0.080174305
-0.06303845 0.07288115 0.09093489 -0.13538751 0.15767384 -0.06850303 0.10758002 0.18429773
0.16097338 -0.14295198 -0.18940218 0.06031782 -0.051233042 -0.123814195 0.019365596 -0.12184941
0.118302144 -0.121785924 0.026302127 0.1560045 -0.041772712 -0.054617997 0.025660984 -0.16618013
0.02466043 -0.15910305 -0.10650623 0.077169515 -0.16445957 -0.11937495 -0.08095282 0.106569335

fc3.bias f4 [25]
00000000: b05c f1bd 1ece 0a3e 681f 1a3e 4d83 52bd
00000010: e94b 3b3e c26b 3fbe fcaa 543d ddf2 d4bd
00000020: 7ad4 27be 7af9 53bd e74c 933d f011 2ebe
00000030: 807a 4dbb b235 5dbd 7a37 22be b7d4 01be
00000040: 9308 babd 16c0 88bc b51d 2d3e 9aa4 1fbe
00000050: 685e 2dbe 06d4 98bd 0c45 1dbe 3cd3 93bd
00000060: 1134 a43d
-0.11785257 0.1355519 0.15051043 -0.05139475 0.18290676 -0.1869345 0.051920876 -0.10397885
-0.16389647 -0.05175159 0.07192402 -0.1699903 -0.0031353533 -0.054006286 -0.15841475 -0.126788
-0.09083667 -0.016693156 0.16905864 -0.15590134 -0.16930544 -0.07462315 -0.1535837 -0.07218024
0.080177434

fcFinal.weight f4 [1, 25]
00000000: 989d 0d3e 03ec d0bd 40c0 d33d 78c0 8ebd
00000010: ab7e 063e 3daa cdbd a9ac ca3d 26be ac3d
00000020: 8dfe 243e 681f d9bd b4d0 e43d 02fc f63d
00000030: be99 0dbe 5457 bd3d 1673 b33d b552 09bb
00000040: 7d3f a9bc 76ae 0d3e 50d6 fd3d d767 373e
00000050: 7bdf 1c3e 371c 32be e0ef 083e ae79 26be
00000060: d45c 6dbe
0.13829648 -0.10201266 0.10339403 -0.06970304 0.13134257 -0.10042236 0.098962136 0.084347054
0.16112728 -0.106016934 0.111726195 0.120597854 -0.13828179 0.09245172 0.08762185 -0.0020953838
-0.020660156 0.13836083 0.123943925 0.17910706 0.15319626 -0.17393576 0.13372755 -0.16257355
-0.23179942

normalize2D.weight f4 [2]
00000000: 0000 803f 0000 803f
1.0 1.0

normalize2D.bias f4 [2]
00000000: 0000 0000 0000 0000
0.0 0.0

normalize2D.running_mean f4 [2]
00000000: 0000 0000 0000 0000
0.0 0.0

normalize2D.running_var f4 [2]
00000000: 0000 803f 0000 803f
1.0 1.0
