stock market/trained_weights/Moving_average_Gaussian_Close/30_days.pth (torch, 11424 bytes, 11 tensors)

fc1.weight f4 [25, 3]
00000000: 54d3 bcbe d034 39be cffd 0e3f 676b 093f
00000010: 5914 4c3f 6b46 873f 79fc 403f ff71 e33e
00000020: e68f 0b3f 3929 743e c160 b53e f97a f1be
00000030: 465d 36bf 65d4 82bf bdcd 44bf f88a ae3e
00000040: 5706 5c3f 4a0a 093f ec20 f03e af7c ef3a
00000050: 37d0 b8be 5dbb 6ebf 72cc 7ebf 5be7 0dbf
00000060: 8524 10bf 9a04 6abf 48b6 90bf 6b53 5c3f
00000070: d60a b73f d506 423f 5fa0 94be bdb9 68bf
00000080: aaf5 a5bf 704e 1a3e 392b a0bf bb9f 85bf
00000090: c8b2 adbd 1dbe bebd adea 7f3d ade2 433e
000000a0: d34e 733f 2247 b43e 5cba 453e b717 963f
000000b0: 0ba7 873f 1d45 d8bd effc 813f 80ca 8e3f
000000c0: 717b 083f dcc9 4abd 3b43 fbbe 5ceb 803e
000000d0: ce1b 013f b3a4 20bf 3c29 463f 1598 253f
000000e0: a468 243f 2d89 d9be 37e1 053f f94c aebd
000000f0: 8063 d8be 8fd4 82bf 6f18 1abf dcb3 3b3f
00000100: a1c8 653d f0dc 8c3f e267 1c3f 9fb9 67be
00000110: 0522 c8be 567e e03d ea16 7cbf 60bc 92bf
00000120: c594 4b3f 86a9 213f 3762 6f3f
-0.3687998 -0.18086553 0.5585603 0.5367951 0.7971855 1.0568365 0.7538524 0.4442291
0.54516447 0.2384385 0.3542538 -0.47164133 -0.71236074 -1.0221068 -0.7687643 0.340904
0.85947174 0.53531325 0.46900117 0.0018271412 -0.36096355 -0.93254644 -0.9953071 -0.55431145
-0.56305724 -0.9141327 -1.1305628 0.86064786 1.4300182 0.75791675 -0.29028603 -0.90908414
-1.2965596 0.15068984 -1.251319 -1.0439371 -0.084813654 -0.09313605 0.062479664 0.19129439
0.9504215 0.3521052 0.19309372 1.1725987 1.0597852 -0.10560057 1.0155314 1.1155548
0.53313357 -0.049508914 -0.4907473 0.25179565 0.5043305 -0.6275131 0.7740667 0.64685184
0.6422217 -0.4248747 0.52296776 -0.08510775 -0.42263412 -1.0221118 -0.6019353 0.7332132
0.056099538 1.1004925 0.6109601 -0.22629403 -0.39088455 0.10961597 -0.98472464 -1.1463737
0.7952388 0.631493 0.9350924

fc1.bias f4 [25]
00000000: 6ccb 41bd 601f 51bf 6f69 4ebe 18c4 b0be
00000010: a592 6b3f cc10 2ebe 40b0 9bbe d62d 5c3f
00000020: 5df3 6e3f 4d12 a4bf 7801 693f 277d 223f
00000030: d3f6 62be 4569 183d d2b7 6abf 6814 16bf
00000040: 10d9 c53c 4414 f6be 6bdb f8be a511 d8bd
00000050: dddd 943e 6f03 0cbf 1e46 873c 33e5 113f
00000060: af69 4abf
-0.04731314 -0.816885 -0.20157407 -0.34524608 0.92020637 -0.16998595 -0.30407906 0.8600744
0.9334009 -1.2818085 0.91017866 0.6347222 -0.22164468 0.037209768 -0.9168674 -0.5862489
0.024151355 -0.48062336 -0.48604903 -0.105502404 0.29075518 -0.5469274 0.016512927 0.56990355
-0.7906751

fc2.weight f4 [25, 25]
00000000: f106 b03e f1b4 9b3d 1bef 0dbd af59 443d
00000010: ef8f adbd 8f4d 8ebd 7322 f43d 04c4 133c
00000020: d340 8fbd 3e93 283e 2e38 e9bd f4ba d7bd
00000030: 32b2 72bd e623 4ebd ec93 edbd 79d0 b53d
00000040: 6723 27be 29da 2dbe 535c b03d 9be5 8f3d
00000050: 80a8 25bc b342 e3bd 52cb 82be 1db0 cbbd
00000060: 1180 2b3e b815 edbe 1a6f a93c ea8e f63d
00000070: 3cbd 513d 667d 093e c137 eabd 7263 8a3d
00000080: 11d8 e13d cd0c 783d 6c08 67bd bcce b8bd
00000090: 86f7 ab3b eb1f ec3c 651f 583d d601 f3bd
000000a0: a060 d8bc cbbd 7e3e 2573 74bd 6daf 22be
000000b0: 90f0 89bd 0266 373d 1d9e 073d be18 ab3e
000000c0: 201c 133e 3b34 fa3d e718 aa3d 9f37 50bc
000000d0: 5391 323d 27d1 81bd 7f38 46be 1770 20be
000000e0: 680f fe3d e2da e3bc 16cd aa3d 766a 113e
000000f0: 12f3 52be 4ef1 f4bd d6b2 e6bd a65e 5f3e
00000100: 1892 f4bc 733b 203d a538 0fbe eeef bdbc
00000110: 03d5 e9bd 7ccf 003e 8fbe debd 1dab d63d
00000120: 98ae 8dbe 9eeb efbd 7d4d 453e 85b6 6f3d
00000130: 21b1 b53d 2648 9cbd f3c0 f2bb 8d2f f13d
00000140: 2f0c 74bd bc84 c7bd 8477 1cbe 036b a3bd
00000150: d8ac 183e a7f5 26bd d7e9 7fbd 0115 993d
00000160: 3566 0fbe 9705 453d 6d48 2b3e 044f 13be
00000170: d0da b13c 43a8 e4bd 5485 7b3e c70a 07bd
00000180: 704e 053e 0ff0 02bd 7c94 863d 52b3 cd3d
00000190: 594a 01bf d1cd 923d 27f7 2cbe e647 083d
000001a0: 3873 853d 1d19 303c ccca 733d 1237 9ebd
000001b0: 3c30 b1bc 2ee7 aabd 7b1d 343e 34bf ccbb
000001c0: 2f74 023d e88a 963c 3f1c 14bc 3257 28be
000001d0: 7e9e 2d3e 82a5 763e 0365 513d 71ce 84be
000001e0: 6304 6dbd c8ec e3bd 078d 163f c278 f13d
000001f0: 2d9f a3bc bf01 13be b6de 0e3e 84d3 f5bd
00000200: cf01 313d ebbb 1ebe c138 03bb da32 0fbe
00000210: b667 303d 92f7 f63d f9cf 72bd 445f c0bd
00000220: 78e4 4bbd 64bd 86bc 118e 59bc 78bf ed3c
00000230: 178c 8dbd db1a f23d a2b1 30be 8ac4 c4bd
00000240: b4fc abbd b3c4 183e 2eb0 1a3e c79a c33d
00000250: e908 273e 7ad9 763d 2520 413e 0d7f 203e
00000260: ee07 dd3d aef5 de3c e2ec 83be 7eaa 23bd
00000270: 7726 92bd b7bb 3abe c955 423c 5d4e 98bd
00000280: fafd 88be 1e8f e9bd f74f 3cbc ae69 0a3e
00000290: 9285 333e 8af6 913c 409c fa3d d3eb 60be
000002a0: c199 063e 9940 653d bf1d 8cbd ac7c 903d
000002b0: 3dba 1dbe 2d3d a4bd 9f61 66bb ec63 12be
000002c0: 0c73 0e3e baa1 f23c 9477 583e 69f8 273e
000002d0: f061 99bd 2bdd 55bd ffdd 093d b046 413e
000002e0: bfbd eb3d f150 613d 8fd2 353e b91c 0b3e
000002f0: 31a5 08be 6497 f6bd f6bc 76bd b8fe e0bd
00000300: 8559 2c3d e076 2fbe f66b c83d ea23 bd3d
00000310: a19d 1d3e 8790 33be 7a64 1a3d cc4f ebbc
00000320: a47d 333e 48aa 89bb 735e 4abd 32e3 2b3e
00000330: a339 1e3c 8c9a b23c 9202 05be 7392 85be
00000340: 8634 cbbd bb95 ed3b e3c5 cf3b 09c8 833c
00000350: bdb3 babd e793 f93c 2c24 e03d 537e 45bd
00000360: 97aa a43d 344b 003d 69e5 9c3d 29b0 223d
00000370: f509 37be 7f23 153e 47c4 4fbe 4f93 bebd
00000380: 5b36 c7bd b4c5 2bbe bf38 13bc 0d3d b03d
00000390: b525 9bbb e845 d73b caa7 073d b82e 163e
000003a0: 45fb d13d 7b5e 983d 632d 96bd d527 123d
000003b0: 2a97 dc3d 9216 36bc 049e be3d d48e b63d
000003c0: 88c1 d63c ebad 23bb 63dd 3a3e d17d a9bd
000003d0: f391 a0be 530b 883c a14f 33be bb8a 613e
000003e0: be54 8b3d 4da7 eebd 967c 913e 9e6c 0c3e
000003f0: e49f 273e dd37 6ebe 333d 81bd 5ebd 01bd
0.34380296 0.07602871 -0.034651857 0.04793709 -0.08474719 -0.06948387 0.11920633 0.009018902
-0.06994786 0.16462418 -0.113876686 -0.10533705 -0.05925197 -0.050327204 -0.116004795 0.08877654
-0.16322099 -0.16977753 0.086113594 0.07026216 -0.010110974 -0.11096706 -0.25545746 -0.099457
0.16748072 -0.46305633 0.02068286 0.120389774 0.05120586 0.13426742 -0.114364155 0.06757249
0.110275395 0.060559083 -0.056404516 -0.090238065 0.005248013 0.028823813 0.052764315 -0.118655846
-0.026413262 0.24877088 -0.059680123 -0.15887232 -0.06735337 0.044775017 0.033109773 0.33417314
0.14366198 0.122169934 0.08305531 -0.012708574 0.043595623 -0.06338721 -0.19357489 -0.15667759
0.12405282 -0.027814332 0.08339898 0.14200768 -0.20600536 -0.11960088 -0.11264579 0.2181345
-0.02985482 0.039119195 -0.13986452 -0.023185696 -0.11417582 0.12579149 -0.1087619 0.10481856
-0.27672267 -0.11714862 0.1926784 0.058523674 0.08871675 -0.07630949 -0.0074082552 0.11776648
-0.05958193 -0.09742114 -0.15279967 -0.07979395 0.14909685 -0.040761616 -0.062478866 0.07474709
-0.14003833 0.048101034 0.16726847 -0.14385611 0.021710783 -0.11164906 0.2456258 -0.032969262
0.13018203 -0.03196722 0.0657129 0.10043968 -0.5050407 0.071681626 -0.16891156 0.033271693
0.06516117 0.010748175 0.059519574 -0.077253476 -0.021629445 -0.08344875 0.17589371 -0.006248379
0.031849083 0.018376783 -0.0090399375 -0.16439512 0.16954991 0.24086574 0.051121723 -0.25938752
-0.05786551 -0.11129147 0.5880894 0.11790611 -0.019973362 -0.14356135 0.13952145 -0.12003234
0.043214615 -0.15501373 -0.0020022842 -0.13984242 0.043067656 0.12058939 -0.05928037 -0.093931705
-0.04977843 -0.01644773 -0.0132785 0.029021963 -0.06911486 0.118215285 -0.17255262 -0.09607799
-0.08397809 0.14918785 0.1510627 0.09551006 0.16311993 0.060265996 0.18859918 0.15673466
0.10792528 0.027216759 -0.25766665 -0.039957516 -0.07136243 -0.1823567 0.011861273 -0.074368216
-0.2675627 -0.114042506 -0.0114936745 0.13516876 0.17531422 0.017817754 0.122368336 -0.2196496
0.1314459 0.05596981 -0.06841611 0.07055029 -0.15403076 -0.08019481 -0.0035153402 -0.1429593
0.13911074 0.029618133 0.21139365 0.16403355 -0.07489383 -0.052212875 0.033658978 0.18874621
0.115108006 0.055008832 0.17756103 0.13585176 -0.13344266 -0.12040594 -0.0602388 -0.10986084
0.04207756 -0.17135191 0.09786217 0.09235366 0.15392162 -0.17535602 0.03769348 -0.028724574
0.17528397 -0.0042012073 -0.04940648 0.16785887 0.009657296 0.02180221 -0.12989262 -0.26088294
-0.099221274 0.0072505153 0.0063407286 0.016086595 -0.091163136 0.030466033 0.10944399 -0.048216175
0.0804035 0.03132172 0.07660944 0.03971878 -0.17874892 0.14564322 -0.20289718 -0.09305441
-0.09727164 -0.16774637 -0.008985697 0.086053945 -0.0047347196 0.006569613 0.033119 0.1466626
0.10253004 0.07439896 -0.073328756 0.035682518 0.1077102 -0.01111378 0.09307483 0.08913961
0.02621533 -0.002497549 0.18248515 -0.08275951 -0.3136135 0.016606962 -0.17510845 0.22025578
0.06803273 -0.11653004 0.28415364 0.13713309 0.16369587 -0.23263498 -0.06310501 -0.031674735

fc2.bias f4 [25]
00000000: d961 ab3d 4579 02be c18b 823d 672a ccbd
00000010: 8e36 fc3c 2844 903c f07f 26bd 5285 14be
00000020: c2b7 a33c 2570 c7bd 9bf0 1d3e 5073 3e3e
00000030: 4b91 583b a24c 6bbd 738d c1bd 59fc 9cbd
00000040: 8ab3 3f3e 90db fb3d 5157 533e 4f29 f0bc
00000050: 0eac d03d 7d9f 33be 8b5f f63d 192d 02be
00000060: 1733 af3d
0.08368272 -0.12741573 0.06374312 -0.09969025 0.030787732 0.017610624 -0.040649354 -0.14503983
0.019985083 -0.09738187 0.15423815 0.18598676 0.0033045586 -0.05744613 -0.094508074 -0.07665319
0.18720832 0.122977376 0.20638777 -0.029316572 0.10189067 -0.17541309 0.12029942 -0.12712516
0.085546665

fc3.weight f4 [25, 25]
00000000: 89b5 263e 58ca 14be 7b83 3d3e cd90 d6bd
00000010: 6ad3 13be 0081 5dbc 200d a4bd 9776 3cbe
00000020: 14ea 503d 008a b4bd a478 0abe 3383 c2bd
00000030: cc14 20bd 18b8 c93c 2053 26be e373 ebbd
00000040: 549f 6e3d 7243 ba3d ca78 b53d 18b2 a6bc
00000050: 6004 f0bb 347f 7f3d 8424 783d d828 2b3d
00000060: b0a2 7abc d185 18be a755 813c ff77 ed3d
00000070: a140 72bd bcd2 31be 2aea 09be 6957 cabd
00000080: a4da 1fbe 5784 b43d f37c 24be d658 85bc
00000090: d2c9 413e 41ca 923c e0f2 d8bd a36a e2bd
000000a0: 752f 31be cd51 773c 93e8 833c 237a 4d3d
000000b0: 1017 933d ef77 2b3e b62b 343e 756e fd3d
000000c0: 39ef ec3d 10af 0abe c8c2 3f3c b542 6dbc
000000d0: 5cd6 003d 89f6 163e 7560 52be a4a3 4abe
000000e0: 8064 f93d 1655 4cbe 59b4 eb3d 74df e43d
000000f0: 379b 843d 57c4 0f3e 5868 213e 6fc1 123e
00000100: 5fad 243e b017 dc3a 5f71 e83c 526d 03be
00000110: 33ee 99bd d8f3 88bc 49fc 57be bbaf a3bd
00000120: d886 9a3c dc2e c9bd 2797 81bd 3424 adbd
00000130: eb08 25be 228b e1bd 94c1 bcbd 8817 c33c
00000140: 02fa 2d3d 3d65 203e 7d66 993d 247a a0bd
00000150: a0d2 4ebe 95a2 11bd 4b74 263e c345 8fbd
00000160: 2b0b 0b3e c28d a73d ffda f3bd 730b 3cbd
00000170: 426c aa3c 791a 2bbe a310 4fbe 933c fc3d
00000180: a8f3 c83d 13c4 133e 7153 c23c 7223 b43d
00000190: 58f0 f13c a9a1 2c3e 98f3 37bd 62f9 c23d
000001a0: 0b07 2abe 1ca7 87bd f5b5 18be fbd6 3ebe
000001b0: f4b5 7dbd d5c0 38be 7a31 ad3d 7aa1 03be
000001c0: 93c7 113e 5ed9 14be c3f5 18be 2d52 1cbe
000001d0: cb03 043e f0e5 923c 614f 0c3e dfbb 2fbe
000001e0: 396b 433e 6925 393e 2ca5 38bd c4d1 543d
000001f0: 9e05 10be 52a9 933c 524a e43d 50a9 4d3b
00000200: 9dee 16be be45 3d3d d33a 6fbd 0fb6 063e
00000210: 8ba0 1cbe 0732 d33d a7c1 033d 077e 23bd
00000220: a7e2 84bd cad8 a5bd d21c 2b3e 6d40 e8bc
00000230: 9086 f8bd a8a2 853d bac0 1cbe a6a8 c73d
00000240: 8c86 5ebc 49d1 24bd a375 043b b79b e33d
00000250: 0a51 c7bd a7b3 c1bd 4005 a63d 0c5b 123b
00000260: 015b 083e a952 e3bd 3521 873d a3a4 1c3d
00000270: 363f 4dbe 20a3 413e acbb c0bd 49d3 2a3e
00000280: 52ee a53d 3857 e8bc 0f63 f8bd 1a9c f2bd
00000290: 0dac 1a3e 317a 0cbe 256a b8bd 8de7 56bd
000002a0: f4fb 83bd 90e8 8cbd ce8d d4bd d306 803d
000002b0: aa88 9ebd 8821 423e 7b1f 483e 91d5 fc3c
000002c0: 2496 aa3a e3e4 0ebe 5600 f0bd 0f07 e13c
000002d0: 7e25 d33d 2d37 16be e1de 4abe de3a 233e
000002e0: fdf5 22be 8f04 003c d2b0 51be 26bc de3d
000002f0: 064a 39be 2d51 fcbc 42d8 3b3e cc8e f83d
00000300: bfa3 a2bd 2f8f d5bd 36db 18be c75d 6a3d
00000310: 88ce 233e aa33 a33d c041 283b 87d3 47be
00000320: 7d93 26bd f598 8cbd 4e5f 5ebe 6787 7f3d
00000330: c732 113d cc00 c4bc 5c82 bc3d 2c51 0a3e
00000340: d820 d9ba 6862 f93d f707 39bb dc62 0b3e
00000350: cde6 f8bd 5907 24be cc07 053e 58b1 00be
00000360: 524b bc3d 5545 20be 3d2c e3bd b5fd e13d
00000370: bcd1 d7bb 27b6 123e efac 0d3e 1251 47be
00000380: 2f4d 21be ded3 fd3d 1416 203d ad71 e8bd
00000390: 20ca 033c 74a7 78bd 88a2 29be 34da 11bd
000003a0: 26b5 883d 00ae cabd d42b 7fbd 4886 4abe
000003b0: e1a9 353e aadd 1ebe 5a8c 1fbe be12 d53d
000003c0: 6894 0bbd f2d3 18be cc79 50bd b3cb afbd
000003d0: ddde abbd 80f1 b9bc 5950 2d3e 0a4d 10be
000003e0: a77f 023e 70a7 c8bd 58a1 56bd 10cc 80bd
000003f0: 5afa 9e3d c317 fabd c3b7 adbd 12e4 e33d
0.16280188 -0.14530313 0.18507187 -0.10476837 -0.14436117 -0.0135195255 -0.08010316 -0.18404613
0.051004484 -0.08815384 -0.13522583 -0.094976805 -0.039082333 0.024623916 -0.16242647 -0.11496713
0.058257416 0.090948954 0.08860929 -0.020348594 -0.0073247403 0.06237717 0.0605817 0.041787
-0.015297577 -0.14894797 0.015787913 0.11595153 -0.059143666 -0.17365545 -0.13468233 -0.098799534
-0.15610749 0.08814304 -0.1606329 -0.016277712 0.18924645 0.017918708 -0.105932 -0.110554956
-0.1730326 0.015095186 0.016102111 0.050165307 0.07182133 0.1674497 0.175948 0.12374584
0.115690656 -0.13543344 0.011704154 -0.014481236 0.03145443 0.14742483 -0.20544608 -0.19788986
0.12177372 -0.19954333 0.11509008 0.11175433 0.064749174 0.14039741 0.1576246 0.14331602
0.16081761 0.0016791727 0.028374372 -0.12834671 -0.07516136 -0.016717836 -0.21092333 -0.07992502
0.018863127 -0.09823391 -0.06327658 -0.08454171 -0.16116683 -0.110128656 -0.092166096 0.023814932
0.042474754 0.1566362 0.07490251 -0.078357965 -0.20197535 -0.03555544 0.162553 -0.06995728
0.13578479 0.08181335 -0.119070046 -0.045909356 0.020803574 -0.16709317 -0.2022119 0.12316241
0.09812099 0.14430265 0.023721429 0.08795823 0.02953355 0.16858543 -0.044910043 0.09520222
-0.16604249 -0.066236705 -0.14913161 -0.18636696 -0.061941102 -0.1804231 0.084567025 -0.12854567
0.14236288 -0.14536044 -0.149375 -0.15265723 0.12892072 0.017931908 0.13702156 -0.17161511
0.19083871 0.18080677 -0.045079395 0.05195786 -0.14064643 0.018025074 0.11146988 0.0031381436
-0.14739461 0.04620909 -0.05840571 0.13155387 -0.15295617 0.10312276 0.032167103 -0.03991511
-0.06488543 -0.0809799 0.16710213 -0.028351033 -0.12135041 0.06525165 -0.15307894 0.09748964
-0.013581883 -0.040238652 0.0020211719 0.111136846 -0.09732254 -0.09458094 0.0810647 0.00223321
0.13315965 -0.110997505 0.065981306 0.038242947 -0.20043644 0.18909883 -0.094107956 0.16682161
0.081020966 -0.028361902 -0.12128269 -0.1184618 0.15104695 -0.13718487 -0.090046205 -0.052466918
-0.064445406 -0.06880295 -0.103786096 0.062513016 -0.0774091 0.18958104 0.19543259 0.030863555
0.0013014716 -0.13954501 -0.11718814 0.027469186 0.103098854 -0.14669485 -0.19811584 0.15940425
-0.1591415 0.007813587 -0.20477608 0.1087573 -0.18094644 -0.030800426 0.18344215 0.12136611
-0.07941388 -0.10427701 -0.14927372 0.05721834 0.15996754 0.079688385 0.0025673956 -0.19514285
-0.040668 -0.06865112 -0.21716043 0.06238499 0.035448816 -0.023926161 0.092045516 0.13507527
-0.0016565574 0.12176973 -0.0028233507 0.1361193 -0.12153397 -0.16018428 0.12991256 -0.12567651
0.09194054 -0.15651448 -0.11092422 0.11034719 -0.0065862816 0.14327298 0.138355 -0.1946452
-0.157521 0.12393926 0.039083555 -0.11349807 0.008043796 -0.06070657 -0.16565907 -0.035608485
0.06675176 -0.09896469 -0.062297657 -0.19777787 0.17740585 -0.15514246 -0.15580884 0.104039654
-0.034077078 -0.149246 -0.050897405 -0.085837744 -0.08392117 -0.022698164 0.16925181 -0.14091888
0.12744008 -0.09797561 -0.052399963 -0.06288922 0.077625945 -0.122115634 -0.084823154 0.11127485

fc3.bias f4 [25]
00000000: f373 35be 16ed 463e fd37 09be babe 22be
00000010: eab5 c1bd 93f2 f23d 9ed7 f0bc 071b cb3d
00000020: 4d28 5cbc 739b b7bd de91 8c3d cd1a d93d
00000030: 4108 d5bd 5689 11be 9556 c63d ed62 033e
00000040: ed29 153e d311 a2bc 9707 01be d781 cc3d
00000050: 7eae f3bd 8d9b 0f3e 2d84 dfbd 4067 d1bd
00000060: 68bb 50bd
-0.17720012 0.19426379 -0.13400264 -0.15893069 -0.094585255 0.118626736 -0.02939969 0.099172644
-0.013437343 -0.089651965 0.068637595 0.10600815 -0.10401965 -0.14212546 0.09684483 0.12830706
0.14566775 -0.01978389 -0.12600552 0.099857025 -0.11898516 0.14024182 -0.109138824 -0.102247715
-0.050959975

fcFinal.weight f4 [1, 25]
00000000: facf 0bbe f5bd 3a3e cd0f e6bb d94b 3fbe
00000010: f6d3 903d 26e6 233e 42d1 31be 964a 40be
00000020: ddbc 0bbd 6019 9d3b 4e93 b13d 6c17 89bd
00000030: 46db f83b af9b 81bc 3a1e 413e 936d 83bc
00000040: 2816 8bbd 0b4e 353e b069 e63d 3d94 a33e
00000050: e910 223e d00b 8d3b 0ef5 66bc 001a cfbd
00000060: 2a68 2cbe
-0.13653556 0.18236525 -0.0070209266 -0.18681277 0.07071678 0.16005763 -0.17364982 -0.18778452
-0.03411566 0.0047942847 0.08670674 -0.066939205 0.007594499 -0.015821306 0.18859187 -0.01604346
-0.06791335 0.17705552 0.11250627 0.31949034 0.15826763 0.0043043867 -0.0140965115 -0.10112381
-0.1683661

normalize2D.weight f4 [2]
00000000: 0000 803f 0000 803f
1.0 1.0

normalize2D.bias f4 [2]
00000000: 0000 0000 0000 0000
0.0 0.0

normalize2D.running_mean f4 [2]
00000000: 0000 0000 0000 0000
0.0 0.0

normalize2D.running_var f4 [2]
00000000: 0000 803f 0000 803f
1.0 1.0
