stock market/trained_weights/Moving_average_Gaussian_Close/50_days.pth (torch, 11424 bytes, 11 tensors)

fc1.weight f4 [25, 3]
0.85710925 0.19247022 0.776668 0.5507024 0.7793438 0.31722784 0.044789195 0.93377405
0.9554647 -0.97783643 -0.5601762 -0.9925271 0.98739827 0.042677607 0.6243702 -0.6003107
-1.2198863 -0.9307686 0.3457649 1.067362 1.2279118 -0.2562764 -0.8586545 -0.694392
-0.24575244 -1.0507969 -1.1660578 -0.009148767 0.22725216 0.5589551 -0.92880774 -0.065567434
-1.075517 0.60175985 0.8905545 1.1166556 0.17511904 -0.2523827 0.25157627 0.6665587
0.44647107 0.9550576 0.18749137 0.09569446 -0.109831944 -0.2473537 0.3581903 0.2859278
-0.5115752 -0.42923802 -0.4931439 0.4611417 -0.327776 0.044874884 0.69353944 0.5173355
0.67842716 -0.20729446 -0.97312725 -1.3718444 0.56251067 0.921685 0.7121624 0.38631007
-0.16638383 0.060043585 -0.4146517 0.49756435 -0.0591229 -0.17800161 -0.7458897 -0.67162323
0.57557034 0.9747521 1.3311841
00000000: 836b 5b3f ea16 453e b7d3 463f d5fa 0c3f
00000010: 1383 473f b06b a23e e074 373d d10b 6f3f
00000020: 5699 743f 7d53 7abf b567 0fbf 4216 7ebf
00000030: 22c6 7c3f b7ce 2e3d bad6 1f3f f6ad 19bf
00000040: 3c25 9cbf da46 6ebf 1908 b13e 519f 883f
00000050: 372c 9d3f a936 83be c8d0 5bbf adc3 31bf
00000060: 87a6 7bbe 8380 86bf 6241 95bf b6e4 15bc
00000070: cab4 683e ae17 0f3f 58c6 6dbf 3848 86bd
00000080: 8baa 89bf ef0c 1a3f 61fb 633f 92ee 8e3f
00000090: 6852 333e 4e38 81be 9bce 803e 97a3 2a3f
000000a0: db97 e43e a87e 743f bdfd 3f3e 75fb c33d
000000b0: 92ef e0bd 4a4a 7dbe b864 b73e 2165 923e
000000c0: 98f6 02bf 16c5 dbbe 5b7d fcbe c41a ec3e
000000d0: 42d2 a7be bace 373d cd8b 313f 1970 043f
000000e0: 67ad 2d3f 0045 54be de1e 79bf 9998 afbf
000000f0: b300 103f 8cf3 6b3f 4650 363f 6fca c53e
00000100: 8660 2abe 43f0 753d 3a4d d4be c1c0 fe3e
00000110: db2a 72bd 0e46 36be a1f2 3ebf 80ef 2bbf
00000120: 9458 133f 5b89 793f 3e64 aa3f

fc1.bias f4 [25]
-0.3741744 -0.49314302 -0.41951093 0.9112208 -0.2970113 1.0788217 -0.9717722 0.3072378
0.796673 0.3589989 0.5070123 -0.9590512 -0.06939736 -0.48999974 -0.03867702 -0.4168011
0.3396343 -0.088975735 -0.35532564 0.9124333 -0.52383494 0.13675477 -0.23468484 -0.016670723
-1.1287621
00000000: c993 bfbe 3e7d fcbe 23ca d6be c445 693f
00000010: dd11 98be d416 8a3f 10c6 78bf 464e 9d3e
00000020: c3f2 4b3f b4ce b73e 8fcb 013f 6184 75bf
00000030: 3420 8ebd 3fe1 fabe cc6b 1ebd f466 d5be
00000040: 8ce4 ad3e e938 b6bd 3eed b5be 3b95 693f
00000050: 0c1a 06bf 7109 0c3e 3951 70be 0a91 88bc
00000060: 477b 90bf

fc2.weight f4 [25, 25]
-0.12646009 0.17167355 -0.040291287 0.040689323 0.022873025 0.08947636 -0.07916626 0.27846956
0.1957726 -0.11443668 0.25720036 -0.03248898 0.018835234 -0.20921299 0.20683649 -0.109390475
0.021007953 -0.020940335 -0.08159607 0.08395659 -0.12934797 0.05368917 -0.019971905 -0.09151026
0.003834855 0.06832488 0.11506418 0.21144441 -0.07722496 -0.10482602 -0.08797659 0.053858176
-0.07839227 -0.21914189 -0.03161292 0.03685516 0.15508735 0.08129274 -0.08438545 -0.19736594
-0.04270061 -0.07432946 0.08018397 -0.06916298 -0.051473875 0.18514988 -0.006843866 0.26074222
0.093871444 0.020650921 0.06643611 0.15026325 -0.069889024 0.16452467 -0.15404908 0.15651357
-0.00074973947 -0.0426801 0.09763543 -0.14605024 0.14057785 -0.008664382 0.060206823 0.16855681
-0.04558754 0.15480277 0.12988824 -0.1716939 0.013320548 -0.06411813 -0.11558414 0.05084214
-0.102225706 0.0018744342 -0.059276614 -0.048647538 -0.13170832 0.10598995 0.16706869 0.08812339
0.09126948 -0.08454384 0.15803592 -0.12703143 -0.16180803 -0.08208792 -0.14044812 0.13454698
0.12483707 -0.07480659 0.1447009 0.14209984 -0.04362534 -0.19831891 -0.050209373 -0.064340495
0.14512984 -0.026324293 0.0062518464 -0.20028178 -0.11313679 -0.07900465 0.10477247 0.038412493
-0.1379368 -0.028672 0.024699852 0.084745824 -0.10365865 0.0808344 -0.09274225 0.15175255
0.07377396 0.1608821 -0.045470033 0.12990159 -0.07246064 0.17797782 0.08904326 -0.23959407
0.18046546 -0.16000915 -0.0020754742 -0.16392706 -0.07721592 -0.15720841 0.029264165 0.19635236
-0.28415775 0.10749515 -0.15599628 0.026672635 -0.10009116 -0.063995644 0.14858083 0.03500247
0.23717485 0.15298353 -0.054303203 -0.092848726 -0.022785949 -0.048933346 0.049167875 -0.1545963
-0.1449078 -0.12458683 0.09725959 0.05068288 -0.07638313 0.17379254 0.14863916 0.097817644
0.050645847 -0.07906968 -0.15274723 -0.16108936 -0.122509204 0.064295925 0.056144204 0.004977233
0.046995956 0.09757921 0.0007765512 0.05661358 -0.12240079 -0.030567026 -0.17553432 -0.1486997
0.18156575 -0.27836692 -0.14701441 0.14166042 0.15622434 -0.25605106 0.1822952 0.2142474
0.26188987 0.2559162 -0.29202104 0.0837214 -0.36314842 0.2748762 -0.21388105 -0.49629942
-0.13366354 -0.3625891 0.060511112 0.09097633 -0.032845665 0.010812755 -0.050685205 0.036574546
-0.16514282 0.2426605 -0.34328416 0.15565498 -0.116915494 0.25920328 -0.29296386 0.20800479
-0.12943077 0.010312254 -0.124624155 -0.07894944 -0.030962545 -0.1477215 0.06773585 -0.21808368
-0.043064345 -0.005507049 0.047702152 -0.05950086 -0.16986908 0.1512182 0.12246901 0.042241033
-0.1402551 0.048408262 0.16272628 -0.17813973 0.13785575 0.00517663 0.13405517 -0.09315241
0.119127564 0.09233973 0.097051635 -0.069012135 0.1454359 -0.11746672 0.043476492 -0.08466431
0.17052184 0.029159646 -0.111216575 0.1546502 -0.2566968 0.22188829 -0.16242707 0.1579846
0.30961397 0.1636334 -0.09602194 0.07981511 0.2246674 -0.18986356 0.029566653 -0.26132482
0.14133455 -0.09781768 0.010166455 -0.111197785 0.1308234 0.2310173 -0.07196597 0.26446885
00000000: c17e 01be 31cb 2f3e 7a08 25bd d9a9 263d
00000010: 3660 bb3c 623f b73d ec21 a2bd 9093 8e3e
00000020: 9d78 483e c75d eabd c4af 833e 2a13 05bd
00000030: 594c 9a3c ee3b 56be f2cc 533e 1d08 e0bd
00000040: df18 ac3c 118b abbc d71b a7bd 6ff1 ab3d
00000050: cb73 04be 2de9 5b3d 1f9c a3bc bb69 bbbd
00000060: 3152 7b3b eaed 8b3d c5a6 eb3d e284 583e
00000070: 1f28 9ebd 06af d6bd 122d b4bd 649a 5c3d
00000080: 208c a0bd bb66 60be 8d7c 01bd 70f5 163d
00000090: 38cf 1e3e cf7c a63d 47d2 acbd 4c1a 4abe
000000a0: d6e6 2ebd 0b3a 98bd 7e37 a43d 52a5 8dbd
000000b0: 45d6 52bd ee97 3d3e 8242 e0bb 0180 853e
000000c0: ac3f c03d 1f2c a93c a80f 883d 9cde 193e
000000d0: fa21 8fbd 2879 283e 0bbf 1dbe 1845 203e
000000e0: 2a8a 44ba 54d1 2ebd 16f5 c73d 328e 15be
000000f0: a4f3 0f3e 0df5 0dbc 6e9b 763d 289a 2c3e
00000100: 00ba 3abd 9e84 1e3e 6c01 053e 87d0 2fbe
00000110: 6e3e 5a3c 5e50 83bd 61b7 ecbd d93f 503d
00000120: b65b d1bd 93af f53a 09cc 72bd a442 47bd
00000130: 8cde 06be 4211 d93d 0e14 2b3e 097a b43d
00000140: 7eeb ba3d 5225 adbd 2bd4 213e 8714 02be
00000150: 01b1 25be b61d a8bd a2d1 0fbe afc6 093e
00000160: 94aa ff3d 3334 99bd 792c 143e 9f82 113e
00000170: 7cb0 32bd 1d14 4bbe 58a8 4dbd f3c4 83bd
00000180: eb9c 143e 0ba6 d7bc 4adc cc3b ab16 4dbe
00000190: 43b4 e7bd 31cd a1bd f392 d63d 6b56 1d3d
000001a0: 4e3f 0dbe 8be1 eabc 5857 ca3c 388f ad3d
000001b0: fc4a d4bd 828c a53d a6ef bdbd 0565 1b3e
000001c0: cd16 973d 47be 243e c93e 3abd ec04 053e
000001d0: 3e66 94bd d13f 363e 505c b63d 2658 75be
000001e0: f0cb 383e 70d9 23be ae04 08bb 7fdc 27be
000001f0: 6123 9ebd 3efb 20be 67bb ef3c 9810 493e
00000200: 207d 91be 6b26 dc3d 7dbd 1fbe 9280 da3c
00000210: 98fc ccbd 2610 83bd 9325 183e c05e 0f3d
00000220: f7dd 723e b7a7 1c3e 096d 5ebd 7927 bebd
00000230: 99a9 babc 556e 48bd 4164 493d 7e4e 1ebe
00000240: b662 14be 6127 ffbd 0930 c73d da98 4f3d
00000250: c26e 9cbd acf6 313e dd34 183e 9e54 c83d
00000260: 0572 4f3d 49ef a1bd c569 1cbe 9cf4 24be
00000270: 1be6 fabd 95ad 833d 77f7 653d 0e18 a33b
00000280: d57e 403d 9cd7 c73d 7891 4b3a a4e3 673d
00000290: 44ad fabd b367 fabc 45bf 33be bc44 18be
000002a0: 5fec 393e 1c86 8ebe f28a 16be 6e0f 113e
000002b0: 46f9 1f3e 2019 83be 98ab 3a3e ac63 5b3e
000002c0: 6e16 863e 7307 833e c883 95be 2076 ab3d
000002d0: 97ee b9be 93bc 8c3e a203 5bbe f51a febe
000002e0: 18df 08be 47a5 b9be 80da 773d cc51 ba3d
000002f0: 2d89 06bd fb27 313c 4a9b 4fbd 31cf 153d
00000300: 331b 29be fe7b 783e f1c2 afbe 0564 1f3e
00000310: 6471 efbd 4bb6 843e 5cff 95be 35ff 543e
00000320: 8089 04be baf4 283c f33a ffbd 3eb0 a1bd
00000330: 2aa5 fdbc 4e44 17be 18b9 8a3d 5451 5fbe
00000340: 3d64 30bd 7a74 b4bb 5563 433d 2cb7 73bd
00000350: 29f2 2dbe f2d8 1a3e 08d1 fa3d ef04 2d3d
00000360: 089f 0fbe be47 463d b8a1 263e 436a 36be
00000370: 0f2a 0d3e b8a0 a93b c245 093e b1c6 bebd
00000380: 27f9 f33d 9d1c bd3d 02c3 c63d 3c56 8dbd
00000390: 26ed 143e 6492 f0bd 6814 323d 7b64 adbd
000003a0: 479d 2e3e 36e0 ee3c 84c5 e3bd 9f5c 1e3e
000003b0: c36d 83be af36 633e 4853 26be b7c6 213e
000003c0: b985 9e3e 848f 273e 27a7 c4bd 1b76 a33d
000003d0: 360f 663e 986b 42be c435 f23c 5ecc 85be
000003e0: 01ba 103e a354 c8bd 3491 263c aabb e3bd
000003f0: 92f6 053e cd8f 6c3e e562 93bd 7668 873e

fc2.bias f4 [25]
-0.04485535 -0.22386038 -0.034221742 0.15085408 -0.11405003 -0.07656002 0.083059184 0.09877403
0.05037714 -0.042837493 -0.042325307 -0.015827093 -0.0986091 -0.029055202 0.14892992 -0.16433063
0.017965168 -0.07762753 -0.14015447 0.035931874 0.0036322207 -0.12426444 0.19096151 -0.1686385
-0.03462267
00000000: 3eba 37bd a83b 65be 192c 0cbd 7e79 1a3e
00000010: 1093 e9bd 80cb 9cbd ef1a aa3d 0a4a ca3d
00000020: 4358 4e3d 5e76 2fbd 4d5d 2dbd d2a7 81bc
00000030: 91f3 c9bd 2d05 eebc 1681 183e 4a46 28be
00000040: b02b 933c 2ffb 9ebd a784 0fbe 4d2d 133d
00000050: 8d0a 6e3b 5b7e febd 6a8b 433e 92af 2cbe
00000060: 80d0 0dbd

fc3.weight f4 [25, 25]
-0.024805661 -0.13738343 -0.17859979 -0.12794252 0.14444172 0.11192556 -0.18294813 0.11495135
-0.09925206 0.019556094 0.054387137 -0.053706273 -0.0771268 0.07924776 -0.009409012 -0.039945144
0.014620834 0.15147647 0.0221774 0.022621205 0.04580905 0.0120293405 -0.02302695 -0.093388945
0.1259184 -0.13305292 0.1611091 -0.045568943 -0.034342453 -0.18798776 0.0788887 0.14865707
-0.19081092 0.14975522 -0.030901462 -0.1958528 -0.08908446 -0.050373033 -0.110107854 -0.11229616
-0.15762492 -0.04868512 -0.12848851 0.19484548 0.026554227 -0.039342016 -0.026630327 0.16017725
0.105720356 0.16716282 0.09679573 0.055455808 -0.10081304 0.03003675 -0.21403576 -0.010503132
-0.12289377 0.041042946 0.051423367 0.10184983 0.023399742 -0.21776068 -0.19822301 0.116830856
-6.14647e-07 0.11744356 -0.021562887 -0.07654527 0.1173432 0.04476022 0.055838373 -0.12371982
0.11564108 -0.08153231 0.058022816 -0.04084451 0.14584322 0.04067211 0.16479707 -0.1809903
-0.0121251345 -0.11376314 -0.03135632 0.15046835 -0.11593385 -0.059145056 0.043872185 0.04391433
-0.16055429 -0.19984612 -0.04575917 0.13870755 -0.1096434 0.17425245 0.086089015 -0.077700175
0.015740788 0.10686668 -0.032289166 0.16320173 -0.13181025 0.18251026 -0.08654441 -0.11867456
0.18223354 0.20994234 0.18778804 -0.07318839 -0.14690606 -0.046655536 -0.23862746 -0.09012618
0.18886778 -0.12215241 -0.19435866 0.15320267 -0.049734607 0.18248276 0.029410912 -0.015049575
0.12351484 0.118536055 -0.17540845 -0.10328618 -0.1375928 -0.28157812 0.19875655 0.023485664
-0.20760839 -0.06650144 0.20555757 0.14118753 0.14987527 -0.08250614 -0.19935368 -0.034119833
0.08800706 0.18028466 -0.047502115 0.026852742 0.13885523 -0.10877606 0.060470242 0.004819058
-0.043251265 -0.15578407 0.25289392 -0.14350721 -0.0929108 0.046199672 0.13557427 0.15517025
0.029268473 -0.10565567 -0.07042232 -0.12473527 0.15851109 0.12983976 0.10221094 -0.07981467
-0.16804941 0.13580032 -0.07746599 -0.1538655 -0.1101531 -0.108659364 0.2054965 0.062246926
-0.14192605 0.13076583 0.03090867 -0.13676909 -0.07959836 -0.10818424 0.12572736 0.07502575
0.0331219 0.09573339 -0.002993703 -0.16898148 -0.13445836 -0.049258232 -0.1166832 0.117520854
-0.117137626 -0.12074061 0.029265612 -0.070559785 -0.11344278 0.04795596 -0.084240295 0.072211996
-0.19632581 -0.12977913 0.12514167 -0.0022986382 0.12538336 0.14743008 -0.1910682 -0.13712008
0.07448861 -0.1528055 -0.07244553 0.08955057 -0.016276672 0.021608954 0.08581035 0.16003448
-0.029003138 -0.2096859 -0.12729876 -0.16352662 -0.088214606 0.06368561 0.00390688 -0.16025187
0.09931291 -0.1207642 -0.0070506698 0.087228656 0.07855161 -0.17380525 -0.09362835 0.046074145
0.04010498 -0.07277878 -0.06583047 -0.16847527 -0.09786215 -0.11389496 -0.07118741 0.09191333
-0.015703842 0.027983502 -0.18336752 -0.0023081005 -0.068013236 -0.15291755 -0.1697611 0.15792187
-0.13293895 -0.12052324 0.1557361 -0.08032789 0.18200605 -0.04074116 -0.11615451 0.15357332
0.040414855 -0.03927672 -0.06356911 -0.11855941 -0.071931764 0.053055927 -0.045731694 -0.13468498
00000000: 3e35 cbbc 3eae 0cbe dde2 36be 5d03 03be
00000010: 88e8 133e 3a39 e53d c156 3bbe 9d6b eb3d
00000020: aa44 cbbd 1a34 a03c 0cc5 5e3d 1cfb 5bbd
00000030: a8f4 9dbd a64c a23d 4228 1abc 859d 23bd
00000040: 398c 6f3c a61c 1b3e 61ad b53c 1b50 b93c
00000050: 45a2 3b3d b616 453c 04a3 bcbc b442 bfbd
00000060: c1f0 003e 063f 08be c9f9 243e 80a6 3abd
00000070: acaa 0cbd dd7f 40be 6690 a13d 8f39 183e
00000080: f063 43be 6f59 193e 1025 fdbc a38d 48be
00000090: ea71 b6bd f453 4ebd 3a80 e1bd 87fb e5bd
000000a0: 6d68 21be 0c6a 47bd 7e92 03be 9385 473e
000000b0: 4088 d93c 1825 21bd d827 dabc 8105 243e
000000c0: ea83 d83d bb2c 2b3e d73c c63d a125 633d
000000d0: 1177 cebd a10f f63c 312c 5bbe 5415 2cbc
000000e0: bbaf fbbd a61c 283d 4fa1 523d a596 d03d
000000f0: d1b0 bf3c a8fc 5ebe f9fa 4abe 0445 ef3d
00000100: 38fe 24b5 4086 f03d a7a4 b0bc c4c3 9cbd
00000110: a251 f03d 7e56 373d c7b6 643d d160 fdbd
00000120: 3bd5 ec3d 69fa a6bd 55a9 6d3d 934c 27bd
00000130: ed57 153e cc97 263d 90c0 283e 8555 39be
00000140: 80a8 46bc a6fc e8bd 7c6f 00bd 6014 1a3e
00000150: ba6e edbd 1642 72bd 52b3 333d 83df 333d
00000160: 5868 24be 76a4 4cbe f86d 3bbd 5a09 0e3e
00000170: b88c e0bd 3c6f 323e 704f b03d 4521 9fbd
00000180: d3f2 803c ebdc da3d a541 04bd 5b1e 273e
00000190: 44f9 06be f8e3 3a3e 323e b1bd a60b f3bd
000001a0: 6e9b 3a3e 20fb 563e 824b 403e cbe3 95bd
000001b0: 8b6e 16be e019 3fbd c25a 74be 1394 b8bd
000001c0: 8e66 413e 0b2b fabd f505 47be 29e1 1c3e
000001d0: 84b6 4bbd c3dc 3a3e 27ef f03c 7e92 76bc
000001e0: 59f5 fc3d 08c3 f23d 469e 33be b487 d3bd
000001f0: 21e5 0cbe 022b 90be d686 4b3e 0265 c03c
00000200: 4b97 54be e831 88bd af7d 523e 7793 103e
00000210: e778 193e fbf8 a8bd 5f23 4cbe 3dc1 0bbd
00000220: 0c3d b43d 8b9c 383e 9491 42bd 48fa db3c
00000230: 1130 0e3e fcc5 debd a5af 773d 30e9 9d3b
00000240: 3d28 31bd dc85 1fbe 507b 813e 8ef3 12be
00000250: 0448 bebd de3b 3d3d fbd3 0a3e f3e4 1e3e
00000260: 70c4 ef3c 0062 d8bd 9439 90bd 3575 ffbd
00000270: bb50 223e b7f4 043e f853 d13d e075 a3bd
00000280: 2515 2cbe 3d0f 0b3e 7da6 9ebd eb8e 1dbe
00000290: f397 e1bd cd88 debd ad6d 523e a2f6 7e3d
000002a0: 1055 11be 7ae7 053e 2e34 fd3c 320d 0cbe
000002b0: 7704 a3bd b38f ddbd acbe 003e 1aa7 993d
000002c0: d4aa 073d de0f c43d 0032 44bb 7b09 2dbe
000002d0: 74af 09be 00c3 49bd 9af7 eebd c6ae f03d
000002e0: dae5 efbd da46 f7bd 70be ef3c a681 90bd
000002f0: b054 e8bd 786d 443d 2d86 acbd e2e3 933d
00000300: a209 49be d2e4 04be 2325 003e c0a4 16bb
00000310: 7f64 003e e9f7 163e 62a7 43be 3569 0cbe
00000320: 7c8d 983d 0c79 1cbe 525e 94bd 4a66 b73d
00000330: a856 85bc 4305 b13c 56bd af3d 14e0 233e
00000340: fd97 edbc e7b7 56be 9b5a 02be 8673 27be
00000350: dca9 b4bd 9a6d 823d 4905 803b 1119 24be
00000360: 9164 cb3d 3953 f7bd 4e09 e7bb f0a4 b23d
00000370: abdf a03d 01fa 31be 38c0 bfbd 3eb8 3c3d
00000380: 1f45 243d 0a0d 95bd 20d2 86bd c884 2cbe
00000390: f36b c8bd c341 e9bd b4ca 91bd 0e3d bc3d
000003a0: 58a5 80bc a83d e53c b2c4 3bbe 8043 17bb
000003b0: 864a 8bbd 6b96 1cbe dbd5 2dbe 45b6 213e
000003c0: 2621 08be e3d4 f6bd 4979 1f3e f382 a4bd
000003d0: cb5f 3a3e 34e0 26bd 6ae2 edbd 5342 1d3e
000003e0: 0c8a 253d a0e0 20bd 8630 82bd 47cf f2bd
000003f0: f650 93bd 2c51 593d 2851 3bbd dcea 09be

fc3.bias f4 [25]
0.15475921 -0.121981815 0.069418795 0.007294518 0.17132342 0.07445009 0.082737 -0.18408251
0.16518787 0.05397831 -0.1505106 -0.04306697 -0.053613827 -0.08107265 -0.16550708 0.082435474
0.060217228 -0.14178231 0.16524497 0.06381092 -0.042232573 -0.15123026 0.1136914 -0.05399075
0.051594283
00000000: 3379 1e3e 9ad1 f9bd 712b 8e3d da06 ef3b
00000010: 686f 2f3e 4a79 983d 0472 a93d 2080 3cbe
00000020: 0227 293e 5c18 5d3d 731f 1abe fe66 30bd
00000030: 2c9a 5bbd 6b09 a6bd b07a 29be eed3 a83d
00000040: 57a6 763d 622f 11be fa35 293e 4daf 823d
00000050: 10fc 2cbd 1bdc 1abe 09d7 e83d 6825 5dbd
00000060: 8754 533d

fcFinal.weight f4 [1, 25]
0.07841795 -0.18719952 -0.13392678 0.15780622 0.092912614 0.06961019 0.13530795 0.13494171
-0.06754464 -0.18993099 -0.06930748 -0.13321127 0.15435077 -0.086796954 -0.07304117 0.15061867
-0.08863021 0.09363696 0.11490705 -0.13186267 -0.15963143 0.1723471 -0.007753045 0.14391603
0.0602065
00000000: 9799 a03d 3bb1 3fbe 1a24 09be f497 213e
00000010: f848 be3d ca8f 8e3d 2b8e 0a3e 292e 0a3e
00000020: d854 8abd 457d 42be 14f1 8dbd 8968 08be
00000030: 210e 1e3e 9ac2 b1bd 9c96 95bd c83b 1a3e
00000040: c183 b5bd bcc4 bf3d 6354 eb3d 0207 07be
00000050: 6c76 23be c27b 303e 410d febb b95e 133e
00000060: 179b 763d

normalize2D.weight f4 [2]
1.0 1.0
00000000: 0000 803f 0000 803f

normalize2D.bias f4 [2]
0.0 0.0
00000000: 0000 0000 0000 0000

normalize2D.running_mean f4 [2]
0.0 0.0
00000000: 0000 0000 0000 0000

normalize2D.running_var f4 [2]
1.0 1.0
00000000: 0000 803f 0000 803f
