stock market/Stock_Data/NVDA/trained_weights/Moving_average_Gaussian/30_days.pth (torch, 11424 bytes, 11 tensors)

fc1.weight f4 [25, 3]
0	0xbf4c2643	-0.7974588
1	0x3fccec49	1.6009609
2	0x3fc64134	1.5488648
3	0x3f91c713	1.1388878
4	0xbff40fe7	-1.9067353
5	0xc0272b31	-2.6120112
6	0xbe1ee488	-0.15516865
7	0x3fc50a05	1.5393683
8	0x3fb56da6	1.4174087
9	0x3ea0f93c	0.3144015
10	0x3f87234d	1.0557648
11	0x401383d1	2.3049204
12	0xbf28c8b5	-0.65931255
13	0x3fffa657	1.9972638
14	0x401696cf	2.3529546
15	0x3d86ddb3	0.065852545
16	0x3f5abd4f	0.8544511
17	0x40002138	2.0020275
18	0xbe6521b7	-0.22376142
19	0x3fdfae3b	1.7475046
20	0x3fc4f39d	1.5386845
21	0x3ec574a2	0.38565546
22	0xbfbf90c4	-1.4966054
23	0xc0047547	-2.069658
24	0x3e7bac7f	0.24577521
25	0xbfeed1ce	-1.8657777
26	0xc013d05d	-2.3095925
27	0x3f2929b2	0.66079247
28	0xbfaf272b	-1.3683828
29	0xc00e048b	-2.2190273
30	0x3f1e193b	0.6175725
31	0xbfac4c97	-1.3460873
32	0xc01d9eb8	-2.4628124
33	0x3db90216	0.09033601
34	0xbf612dc2	-0.87960446
35	0xc0167ecf	-2.3514898
36	0xbd9d7c24	-0.076896936
37	0x3fc98f93	1.574694
38	0x4000f3c5	2.0148785
39	0xbf476362	-0.7788602
40	0xbe860d8a	-0.26182204
41	0x3f6ea1d9	0.9321571
42	0x3c57dea6	0.013175642
43	0xbfc4a5b0	-1.5363064
44	0xbffe010b	-1.9844068
45	0x3f155c9e	0.5834445
46	0xbff1b03a	-1.8881905
47	0xc00ee23a	-2.2325578
48	0x3ee3bec6	0.44481486
49	0xbfadf764	-1.3591123
50	0xbfed37ae	-1.8532617
51	0xbf5165ca	-0.8179594
52	0x3ef0374f	0.46917197
53	0x3eb89d16	0.36057347
54	0x3ee1e63a	0.4412096
55	0xbfa4d8e2	-1.2878687
56	0xc01189aa	-2.2740273
57	0xbeac440c	-0.33645666
58	0xbf15d3df	-0.58526415
59	0xbfa4d8e2	-1.2878687
60	0x3f055c0e	0.5209359
61	0x3eb8ee90	0.3611951
62	0xbf64c794	-0.8936703
63	0xbf1bf259	-0.6091667
64	0xbdf8b3a8	-0.12143642
65	0xbd558927	-0.05213275
66	0x3f8b972f	1.0905513
67	0xbea0e7f3	-0.31426963
68	0xbf4bd3c2	-0.7961999
69	0xbf66bf51	-0.90135676
70	0xbe402dbd	-0.18767448
71	0x3f7bc99b	0.983545
72	0xbd85840e	-0.06519328
73	0x3fe578c8	1.7927485
74	0x4011db4a	2.2790093

fc1.bias f4 [25]
0	0xbf5ce1ea	-0.8628222
1	0x3fcb8953	1.5901283
2	0xbf8d2ca5	-1.102925
3	0xbfec9b2f	-1.8484858
4	0xbfe42734	-1.7824464
5	0xbf93751e	-1.1520116
6	0xbfa08c1a	-1.2542756
7	0x3fb5a1f6	1.4190052
8	0x40044175	2.0664952
9	0x3fa17dd9	1.2616531
10	0x3fbee422	1.4913371
11	0x3fab66ec	1.3390784
12	0xbfd8a0a4	-1.6924024
13	0x3e8ca942	0.27472883
14	0x3fd9fd70	1.7030468
15	0x3fe65539	1.7994758
16	0x3f9093a3	1.1295055
17	0xbcd929a0	-0.026509106
18	0x3fab8331	1.3399411
19	0x3e99bcc6	0.30026835
20	0x3c69ac74	0.014262307
21	0x3fb4ec09	1.4134532
22	0x3ce31977	0.027722104
23	0x3e6239ab	0.22092311
24	0xc0040033	-2.0625122

fc2.weight f4 [25, 25]
0	0xbd01c01c	-0.03167735
1	0x3cd71c4d	0.026258612
2	0xbb768f8c	-0.0037622182
3	0x3b40fe22	0.002944835
4	0xbd133e6d	-0.035948206
5	0xbcc511e8	-0.02405639
6	0x3bdf3b7c	0.006812511
7	0x3c3065ad	0.010766429
8	0x3b93310c	0.004491931
9	0x3ca373be	0.019952651
10	0x3a962e72	0.0011457934
11	0x3c29d7b2	0.010366367
12	0x3c725bc6	0.014792388
13	0xbdf40c20	-0.11916375
14	0x3d062792	0.03275258
15	0xbbb52738	-0.005528357
16	0x3bd95254	0.0066321287
17	0xbed1b75e	-0.4096021
18	0x3c285017	0.010273001
19	0xbc5226e8	-0.012826659
20	0x3f1e8e29	0.6193567
21	0xbd633fef	-0.055480894
22	0x3eace982	0.33771902
23	0xbdb71ce5	-0.08941058
24	0x3bb41823	0.0054960414
25	0xbd1a2a8f	-0.037638243
26	0x3d5c901a	0.053848363
27	0xbcf7a229	-0.030228691
28	0xbd4eb060	-0.050461173
29	0xbd97633b	-0.073919736
30	0xbce651ed	-0.028115237
31	0xbd1f5c2c	-0.03890626
32	0x3d5edd47	0.054410245
33	0x3d408512	0.047001906
34	0x3d1ffd93	0.039060187
35	0x3d2e5adc	0.04256712
36	0x3d49b7c1	0.049247507
37	0xbd3b18ec	-0.045678064
38	0xbe928f54	-0.28624976
39	0x3d47b40d	0.048755694
40	0x3d687a15	0.05675705
41	0x3ce12b02	0.027486328
42	0xbf6c28f5	-0.92249995
43	0x3d7bf27b	0.061510544
44	0x3c4157d2	0.011800723
45	0x3f8505dc	1.0392413
46	0xbe01b94e	-0.12668344
47	0x3eb14d0c	0.34629095
48	0xbe96306c	-0.29333818
49	0xbd40e882	-0.047096737
50	0x3d8e93f2	0.06961812
51	0xbcb36c5f	-0.021902261
52	0x3d1f9bc9	0.038966928
53	0xbae4d77e	-0.0017459241
54	0x3c929bec	0.017896615
55	0x3cb86858	0.022510692
56	0xbcff0247	-0.031129016
57	0xbc612c68	-0.013743497
58	0xbc09eccf	-0.008418276
59	0xbcbd9083	-0.023140198
60	0x3cd2100f	0.025642423
61	0xbd0e704b	-0.03477506
62	0x3d286504	0.04111196
63	0x3df93739	0.12168736
64	0xbc6492df	-0.013951032
65	0xbcb1b8da	-0.02169459
66	0xbc38f5ef	-0.011289104
67	0x3f3971ae	0.72439086
68	0xbc0f8815	-0.008760472
69	0xbc9dfa01	-0.01928425
70	0xbf5a5088	-0.8527913
71	0x3d178222	0.03698934
72	0xbedebb0b	-0.43502077
73	0x3e55320d	0.20819874
74	0x3d3cea12	0.046121664
75	0x3d7b5fbd	0.0613706
76	0xbc8b6150	-0.017014176
77	0x3d229436	0.039692126
78	0x3c96c645	0.01840509
79	0x3c5a3ad4	0.01331969
80	0x3cfbe748	0.030749932
81	0x3cf8771a	0.03033023
82	0xbbbc4ba8	-0.0057463236
83	0xbb4ed262	-0.0031558503
84	0xbc464df9	-0.012103551
85	0xbc48f0d8	-0.012264453
86	0xbb67ab41	-0.0035349878
87	0x3cab7786	0.020931017
88	0x3e2276dd	0.15865655
89	0x3c75c5f1	0.015000806
90	0x3c2b3109	0.010448703
91	0x3b41f36e	0.0029594558
92	0x3f36a1f0	0.71340847
93	0x3b5dc1ac	0.0033837361
94	0xbc60f8c0	-0.013731182
95	0xbf3c0ab8	-0.73453856
96	0x3c9a1081	0.018806698
97	0xbeaa22c7	-0.33229658
98	0x3e13181d	0.14364667
99	0x3cada615	0.021197358
100	0x3d0c4482	0.03424502
101	0xbd194fc6	-0.037429594
102	0x3c70f767	0.014707423
103	0x3e118f1b	0.14214747
104	0x3d430fde	0.047622554
105	0xbd00a694	-0.03140886
106	0x3de97ed4	0.11401144
107	0xbcdeead2	-0.02721158
108	0xbde1c6a0	-0.11024213
109	0xbd891f7a	-0.06695457
110	0xbda84150	-0.08215582
111	0xbc8c1b3e	-0.017102834
112	0x3d5cd50e	0.053914122
113	0x3e85d989	0.2614253
114	0xbdfbfe06	-0.123043105
115	0xbd4e863e	-0.050420992
116	0xbd96d359	-0.0736453
117	0x3f0d94d6	0.5530523
118	0xbcef8259	-0.02923696
119	0xbc5a5c69	-0.013327696
120	0xbf1e3c6e	-0.6181096
121	0x3dc38a23	0.09547832
122	0xbeb54e92	-0.35411507
123	0x3e739b02	0.237896
124	0x3e01080b	0.12600724
125	0xbd24f553	-0.040273022
126	0x3cc91c2b	0.024549564
127	0xbd2058bb	-0.03914712
128	0xbcba6290	-0.022752076
129	0xbcfaf5e6	-0.030634832
130	0xbd025bef	-0.031825956
131	0x3bed0ddb	0.0072343177
132	0x3ce6c2d7	0.028169079
133	0x3c868966	0.016422939
134	0x3d0e1b1c	0.034693822
135	0xbb1e3441	-0.0024140032
136	0x3c7ab21f	0.015301256
137	0xbc99497b	-0.018711796
138	0xbdd13035	-0.10214273
139	0x3c3913da	0.011296237
140	0x3cc8d4b7	0.024515493
141	0x3c62e682	0.013848903
142	0xbf9cbf41	-1.2245866
143	0x3cb2d49f	0.021829901
144	0xbb9b96fc	-0.0047482233
145	0x3fa94443	1.3223957
146	0xbd5df22e	-0.05418604
147	0x3ede844e	0.43460315
148	0xbe849469	-0.25894478
149	0xbd0e0599	-0.034673307
150	0x3cd2a508	0.025713459
151	0xbce9bff5	-0.028533915
152	0x3cbf8d39	0.02338277
153	0x3ba37419	0.004988205
154	0x3c86c848	0.016452923
155	0x3cb90cbf	0.022589086
156	0xbbec08c3	-0.007203193
157	0xbb72b564	-0.0037034387
158	0x3c875f26	0.016524862
159	0xbcf37fec	-0.029724084
160	0xbc8b0388	-0.016969457
161	0x3b30b2f2	0.0026962128
162	0x3c45ade2	0.012065383
163	0x3db248a1	0.08705259
164	0x3cf106e0	0.029422224
165	0xbbf5f89e	-0.007506444
166	0xbc53c8da	-0.012926305
167	0x3f4ca9f0	0.79946804
168	0xbce5f99d	-0.028073126
169	0xba42cf9e	-0.000743145
170	0xbf59b5f2	-0.8504325
171	0x3c9e97ec	0.019359551
172	0xbecf8f68	-0.40539098
173	0x3e15babc	0.14622015
174	0x3a55b7bb	0.0008152683
175	0x3d44c444	0.048038736
176	0xbd268cbc	-0.04066156
177	0x3d9c392f	0.076280944
178	0x3c711b62	0.014716001
179	0x3dad766a	0.08469851
180	0x3d0cf224	0.03441061
181	0x3d0ec150	0.034852326
182	0xbe0f0e64	-0.13970333
183	0xbde950c1	-0.11392356
184	0xbdc2c508	-0.09510237
185	0xbda1c14b	-0.07898196
186	0xbde04b84	-0.109519035
187	0xbbecbea9	-0.007224877
188	0x3eafc7a1	0.34331992
189	0xbd3f1f34	-0.046660617
190	0xbdba1966	-0.090868756
191	0xbd8c8e1b	-0.06863042
192	0x3e8e4e72	0.27794224
193	0xbd840a48	-0.064472735
194	0x3cadf5d2	0.02123538
195	0xbec70e93	-0.38878307
196	0x3e1ac9e1	0.15116073
197	0xbe5f68eb	-0.21817367
198	0x3eac0f5c	0.33605468
199	0x3d21c683	0.039495956
200	0x3d215a5f	0.039392825
201	0x3dbe1934	0.09282151
202	0xbd949922	-0.0725577
203	0x3c5f5027	0.01362995
204	0xbb039a22	-0.0020080884
205	0xbd83eaab	-0.06441244
206	0x3d1e09cf	0.038583573
207	0xbba08caf	-0.0048995833
208	0xbb99d7b5	-0.0046949037
209	0x3dcea757	0.10090511
210	0x3d771bd0	0.06032926
211	0x3dc6532a	0.09683831
212	0xbd8945a2	-0.067027345
213	0xbdab8b20	-0.08376145
214	0x3d4c67ba	0.04990361
215	0x3cb344c0	0.021883368
216	0x3cfaf781	0.030635597
217	0xbec9dcf6	-0.39426392
218	0x3d8ca179	0.06866736
219	0x3c265d69	0.010154107
220	0x3ee3677d	0.44414893
221	0xbe067fc3	-0.13134675
222	0x3e88b843	0.2670308
223	0xbe2254c8	-0.15852654
224	0xbdd2694d	-0.10273991
225	0x3d8e70db	0.06955119
226	0xbda951f6	-0.08267586
227	0x3bf99549	0.007616673
228	0x3d8c5c71	0.06853569
229	0x3dd90570	0.1059674
230	0x3c0d1347	0.008610553
231	0x3de8e985	0.11372665
232	0xbcfee485	-0.031114826
233	0xbdbaed48	-0.09127289
234	0xbd007746	-0.031363748
235	0xbde047c4	-0.10951188
236	0xbda9a041	-0.08282519
237	0x3d289a35	0.04116269
238	0x3e5bde2b	0.21471469
239	0xbe0db2ba	-0.1383771
240	0xbe070c97	-0.13188396
241	0xbdab0c05	-0.08351902
242	0xbdf11b3b	-0.11772772
243	0xbdd5d996	-0.10441892
244	0xbd4cf097	-0.05003413
245	0xbe0b577a	-0.13607588
246	0x3df7d570	0.12101257
247	0xbe34669e	-0.1761727
248	0x3e4fc69b	0.20290606
249	0x3e1e943c	0.15486234
250	0xbd2bc4ba	-0.04193566
251	0xbd21be9f	-0.03948843
252	0x3d827d01	0.06371499
253	0x3d0cb937	0.034356322
254	0xbd446bcc	-0.047954366
255	0xbcf21043	-0.02954877

fc2.bias f4 [25]
0	0xbe470b92	-0.19438007
1	0x3e005ed4	0.12536174
2	0x3d4980e1	0.049195174
3	0xbdef718f	-0.116915815
4	0xbe01e671	-0.12685563
5	0xbcbb1a67	-0.022839738
6	0x3d3ba5f0	0.045812547
7	0xbdef2ad1	-0.116780885
8	0xbd6b5f10	-0.057463706
9	0x3c4b925b	0.012425031
10	0x3d2fe3a7	0.042941716
11	0xbd4e8c95	-0.05042704
12	0x3e595f3e	0.21227738
13	0xbe0d8849	-0.1382152
14	0xbdc704dc	-0.09717724
15	0xbd1ac9ed	-0.037790228
16	0x3e05e2ec	0.13074845
17	0xbc6fad11	-0.014628665
18	0x3ca434a7	0.020044638
19	0xbdb57bfc	-0.08861539
20	0xbe2e42b3	-0.17017631
21	0xbc20ccb0	-0.009814426
22	0x3d4c91f4	0.04994388
23	0xbe01368b	-0.12618463
24	0xbd415890	-0.0472036

fc3.weight f4 [25, 25]
0	0xbdba3f77	-0.09094136
1	0xbe75398b	-0.23947732
2	0x3d77e810	0.060524046
3	0x3e08ff47	0.1337863
4	0xbca84dd2	-0.02054492
5	0xbe251cd5	-0.1612428
6	0x3d72fe88	0.05932477
7	0x3e3134b5	0.17305262
8	0xbcc5aeb3	-0.024131155
9	0x3d1b571b	0.037924867
10	0x3d8b1221	0.06790567
11	0x3dfa6730	0.12226713
12	0x3d5845e9	0.052801047
13	0x3e2c080f	0.16799949
14	0x3d46e789	0.048560653
15	0xbe02c4fb	-0.12770455
16	0xbe24a80d	-0.16079731
17	0x3e1b8509	0.15187468
18	0x3e1ca9b5	0.15299113
19	0xbda5c0c0	-0.08093405
20	0xbda256c5	-0.07926706
21	0xbe05e31b	-0.13074915
22	0xbe0da6f0	-0.13833213
23	0xbdc79876	-0.097458765
24	0x3d6ecd5a	0.058301307
25	0xbc8e71a2	-0.017388169
26	0xbdbc5178	-0.091952264
27	0xbd2a1d9a	-0.041532136
28	0xbe4a41f1	-0.19751717
29	0x3db828af	0.08992135
30	0x3dda80c5	0.10669092
31	0xbe0d5157	-0.1380056
32	0x3e0a826e	0.13526317
33	0x3e24a5aa	0.16078821
34	0x3df5df18	0.120054424
35	0xbe2709ae	-0.16312286
36	0x3dbc371f	0.09190201
37	0xbda98418	-0.08277148
38	0x3e2de0c9	0.1698028
39	0xbcd3e95c	-0.02586811
40	0xbd7f4924	-0.06232561
41	0xbe0afa2b	-0.13571994
42	0xbe4284c8	-0.18995965
43	0xbe528d54	-0.20561725
44	0xbe4628b6	-0.19351467
45	0xbb0a243a	-0.0021078722
46	0xbdfa292d	-0.12214885
47	0xbdfc8ac3	-0.12331154
48	0x3d98b8fa	0.074571565
49	0xbe4adf05	-0.19811638
50	0xbe229b3e	-0.15879533
51	0xbcc78d4c	-0.024359368
52	0x3d5c967d	0.053854454
53	0xbc93636c	-0.017991744
54	0x3d2cab76	0.042155705
55	0xbd9dff4e	-0.07714711
56	0x3cdf1724	0.027232714
57	0x3e0a03b0	0.13477969
58	0x3c926db7	0.017874582
59	0x3e17ccaa	0.14824167
60	0x3e1ff903	0.15622334
61	0x3e1b787c	0.1518268
62	0xbbbc96e0	-0.0057552904
63	0xbdb20128	-0.08691627
64	0x3dc34293	0.095341824
65	0xbe0146a2	-0.126246
66	0xbe624161	-0.22095253
67	0x3d184f3d	0.037184943
68	0x3e07851f	0.13234375
69	0x3d868ff4	0.06570426
70	0xbe537573	-0.20650272
71	0x3d0ee576	0.0348868
72	0xbe28e3a0	-0.16493082
73	0xbe601875	-0.2188433
74	0x3e109922	0.14120916
75	0x3e639d58	0.2222799
76	0xbce1cdd1	-0.027563961
77	0xbe2ffdd9	-0.17186679
78	0xbe6d8c49	-0.23198046
79	0xbc013428	-0.00788597
80	0x3e26dcc5	0.16295154
81	0xbe71401e	-0.23559615
82	0x3d849c6f	0.0647515
83	0x3d3b9e88	0.045805484
84	0x3d3da970	0.046304166
85	0xbd245f6a	-0.040130056
86	0xbe99c0cb	-0.30029902
87	0xbe96600f	-0.29370162
88	0x3d1fbb2e	0.038996868
89	0xbe2e4236	-0.17017445
90	0x3e83d990	0.25751925
91	0xbcc67ee7	-0.024230434
92	0x3c89eebb	0.016837468
93	0xbc2621e2	-0.010139914
94	0xbc5b6b66	-0.013392305
95	0x3e8b983b	0.2726458
96	0x3db48de8	0.08816129
97	0x3d81fe9f	0.06347393
98	0x3e6ff3d1	0.23432852
99	0xbbacd06f	-0.0052738707
100	0xbdcd9f74	-0.10040179
101	0xbdf3884a	-0.118912295
102	0x3d2d5446	0.042316698
103	0xbdbd7c56	-0.09252231
104	0xbe3379ba	-0.17526904
105	0xbd7792eb	-0.060442846
106	0xbd207ce2	-0.039181598
107	0x3c8b5e45	0.017012725
108	0x3d6083b4	0.054813102
109	0xbdd13532	-0.10215224
110	0xbd21fc6b	-0.039547365
111	0xbd73d03d	-0.059524763
112	0xbdd5b825	-0.104355134
113	0xbe520f71	-0.20513703
114	0x3dbb9c56	0.09160678
115	0x3d66c013	0.05633552
116	0x3e2e7e62	0.17040399
117	0xbbd47ca7	-0.0064845863
118	0xbdf732ea	-0.12070258
119	0xbde439b4	-0.111438185
120	0xbd14c79e	-0.036323182
121	0x3de8481b	0.11341878
122	0xbbda3082	-0.0066586146
123	0xbd58a077	-0.052887406
124	0x3b1a4a7b	0.002354293
125	0x3bfe07d4	0.007752398
126	0xbe6afd05	-0.22948082
127	0x3df1b43f	0.11801957
128	0x3e367334	0.17817384
129	0x3d9dabd9	0.07698793
130	0xbe6e40bd	-0.23266883
131	0x3e48b5d6	0.19600615
132	0x3df63d0d	0.12023363
133	0x3ce4f624	0.0279494
134	0x3e16a8ee	0.14712879
135	0xbd468b91	-0.048472945
136	0xba45b04b	-0.00075412233
137	0xbc32ff53	-0.010925132
138	0x3e2c61af	0.16834138
139	0xbda221cc	-0.079166025
140	0xbe105be9	-0.14097561
141	0xbe3c9a2e	-0.1841819
142	0xbccc0318	-0.024903819
143	0x3d0069c6	0.031350873
144	0xbe16e2fe	-0.14735028
145	0xbe54be28	-0.20775664
146	0xbe318e21	-0.17339374
147	0x3ba36330	0.0049861893
148	0xbe612d36	-0.21989903
149	0x3de983d7	0.114020996
150	0xbdbc2f34	-0.09188691
151	0xbdf55c99	-0.11980552
152	0x3da29fff	0.07940673
153	0xbe34e0ba	-0.17663851
154	0xbdcda764	-0.10041693
155	0x3de39dea	0.11114104
156	0xbe228033	-0.15869217
157	0x3de95668	0.11393434
158	0x3e086cfd	0.13322826
159	0xbe286f08	-0.16448605
160	0x3e204506	0.1565133
161	0xbdbe75e5	-0.0929983
162	0xbe5a7a1c	-0.21335644
163	0x3e40a4c9	0.1881286
164	0xbe115906	-0.14194116
165	0xbe09fb6e	-0.13474819
166	0x3cd392e1	0.025826873
167	0xbc87f5b0	-0.016596645
168	0x3e1e97d4	0.15487605
169	0xbdc74374	-0.097296625
170	0xbd006878	-0.03134963
171	0x3de3091d	0.110857226
172	0xbce563a7	-0.02800162
173	0x3d90e0f6	0.07074158
174	0x3dd6992f	0.10478436
175	0xbe4c5fb4	-0.19958383
176	0x3cabfb46	0.02099384
177	0x3e68e904	0.22745138
178	0x3e3797a4	0.1792894
179	0x3d538400	0.051639557
180	0xbd7c44db	-0.061589103
181	0x3e3e7aa5	0.18601473
182	0x3e2e907f	0.17047308
183	0xbd31a027	-0.043365624
184	0x3cc80194	0.024414815
185	0x3d5f425f	0.054506656
186	0xb917feca	-0.00014495399
187	0xbd1e3968	-0.038628966
188	0xbc88e41e	-0.016710337
189	0x3d15bc12	0.03655631
190	0xbd3a3cd9	-0.045468185
191	0xbe2863fc	-0.16444391
192	0x3d3df9f4	0.046380952
193	0x3e0a62b4	0.13514215
194	0x3d277148	0.040879518
195	0xbdb6ecf3	-0.08931913
196	0xbe4a84d8	-0.19777238
197	0xbe2da039	-0.16955651
198	0xbd295dbe	-0.041349165
199	0x3d9ce3a2	0.07660605
200	0xbe12da76	-0.14341149
201	0xbe83c4ca	-0.25736076
202	0x3e549c45	0.20762737
203	0x3e6b34e4	0.22969395
204	0x3e3d434a	0.184827
205	0xbd6bc884	-0.057564273
206	0x3e588c4e	0.21147272
207	0xbc13ca4d	-0.0090204
208	0xbde6ad1f	-0.11263489
209	0xbc489e3f	-0.01224476
210	0x3e35a3a4	0.17738205
211	0x3d0d91c0	0.034562826
212	0x3db86cf1	0.09005154
213	0x3e581466	0.21101531
214	0xbd9dd84b	-0.0770727
215	0xbe0c2141	-0.1368456
216	0xbe160107	-0.1464883
217	0x3da15243	0.07877018
218	0x3d15e64a	0.036596574
219	0xbe3cc4b2	-0.18434408
220	0xbd38d62d	-0.04512613
221	0xbe455734	-0.19271547
222	0xbdb38b80	-0.08766842
223	0xbd8bfdba	-0.06835504
224	0x3e3a2283	0.18177228
225	0xbe5449ec	-0.20731324
226	0xbe57dbe0	-0.2107997
227	0x3e487dae	0.19579193
228	0x3d560175	0.052247483
229	0x3de3d137	0.11123889
230	0xbdfb3c29	-0.12267334
231	0x3d95ca4c	0.07313976
232	0x3e4a8f36	0.19781193
233	0x3d17bb6b	0.03704397
234	0xbcbbcb62	-0.022924129
235	0xbd8fab62	-0.070151106
236	0x3cfea274	0.031083323
237	0x3e00f236	0.12592396
238	0x3d634b93	0.055491995
239	0x3d55946e	0.052143507
240	0xbe5bd6b4	-0.21468621
241	0xbe1d426e	-0.15357372
242	0x3e3323e7	0.17494164
243	0x3dc1ee5e	0.09469293
244	0xbde0dc79	-0.10979552
245	0xbe4514b4	-0.19246179
246	0xbd9d9d20	-0.07695985
247	0xbe7eb584	-0.2487393
248	0xbdaba8b7	-0.08381789
249	0x3dc30043	0.09521534
250	0xbe034dc0	-0.12822628
251	0xbe3ec5dd	-0.18630166
252	0xbcf84f18	-0.030311152
253	0xbe31edc5	-0.17375858
254	0xbe0aeb70	-0.13566375
255	0x3e40ac49	0.18815722

fc3.bias f4 [25]
0	0x3db00aa7	0.08595782
1	0xbe0cff04	-0.13769156
2	0x3db0315f	0.08603167
3	0x3c921ab4	0.017834999
4	0xbd687d1e	-0.056759946
5	0x3df6a717	0.120435886
6	0xbe40fdc8	-0.1884681
7	0xbd57d988	-0.05269769
8	0x3cf2a20d	0.029618287
9	0x3d7e4295	0.062075216
10	0xbddf30a3	-0.108979486
11	0xbdc5b0e3	-0.09652879
12	0xbc5dadec	-0.013530236
13	0x3e23cd44	0.15996271
14	0x3d1d4bd2	0.038402386
15	0x3c8fe494	0.01756505
16	0x3c001400	0.007817268
17	0xbd351bf3	-0.044216108
18	0x3c61e3c1	0.013787211
19	0xbe0dcda6	-0.1384798
20	0xbaac6180	-0.0013151616
21	0xbe11979f	-0.14217995
22	0xbe54a9fd	-0.2076797
23	0xbcb13695	-0.021632472
24	0x3b8a96cb	0.0042294017

fcFinal.weight f4 [1, 25]
0	0x3da8157c	0.08207223
1	0x3d8f1783	0.069869064
2	0x3dd75390	0.10513985
3	0xbee8d3bc	-0.4547404
4	0xbc6320d4	-0.013862807
5	0xbe30ed96	-0.17278132
6	0x3e1d879d	0.15383764
7	0x3de12682	0.10993673
8	0x3d8ef979	0.06981177
9	0xbe20a294	-0.15687019
10	0xbe22e482	-0.15907481
11	0xbe14b33e	-0.145215
12	0x3dc8ddd7	0.098079376
13	0x3da7a816	0.08186357
14	0x3e052022	0.13000539
15	0x3db9d4bf	0.09073781
16	0xbdca84f0	-0.09888637
17	0x3db74fb4	0.08950749
18	0x3dc77755	0.09739558
19	0xbd59f4e0	-0.053212047
20	0x3e2c6e69	0.16838993
21	0xbe151ce0	-0.14561796
22	0x3d75ca86	0.060007595
23	0x3ddfa073	0.10919275
24	0x3d86bcd6	0.06578986

normalize2D.weight f4 [2]
0	0x3f800000	1.0
1	0x3f800000	1.0

normalize2D.bias f4 [2]
0	0x00000000	0.0
1	0x00000000	0.0

normalize2D.running_mean f4 [2]
0	0x00000000	0.0
1	0x00000000	0.0

normalize2D.running_var f4 [2]
0	0x3f800000	1.0
1	0x3f800000	1.0
