stock market/Stock_Data/NVDA/trained_weights/Moving_average_Gaussian/50_days.pth (torch, 11424 bytes, 11 tensors)

fc1.weight f4 [25, 3]
0	0xbee81f59	-0.45336416
1	0xbfcbba57	-1.5916241
2	0xbfdbf118	-1.7182951
3	0x3dc718bb	0.09721514
4	0x3fb38e4e	1.4027803
5	0x3fc4841e	1.5352819
6	0x3f041a69	0.516028
7	0x3fe75b7a	1.8074791
8	0x3ff4e719	1.9133025
9	0x3ec5900b	0.3858646
10	0x3e94a586	0.29032534
11	0xbf32829b	-0.6973054
12	0xbf3f5f2c	-0.74754596
13	0x3edb9c2e	0.42892593
14	0x3eac95e4	0.33708107
15	0x3d8c5754	0.06852594
16	0xbfc00a29	-1.5003101
17	0xc0034c97	-2.0515497
18	0x3d75c0ca	0.05999831
19	0xbfdc9a64	-1.7234616
20	0xbfebafd0	-1.8413029
21	0xbe50dbe0	-0.20396376
22	0x3f5b7cb1	0.8573714
23	0x4005620c	2.0841093
24	0x3f04a66b	0.51816434
25	0x3fbcd5de	1.4752767
26	0x3fa4e90c	1.288362
27	0xbefebd1f	-0.49753663
28	0xbe8afeb9	-0.27147463
29	0x3f497539	0.7869449
30	0x3e3bd1e5	0.18341787
31	0x3fce50f1	1.6118451
32	0x3fca6e86	1.5814979
33	0x3e611078	0.21978939
34	0x3fde0a95	1.7346979
35	0x3fde8c2d	1.7386528
36	0x3f3ebc29	0.7450586
37	0xbd3c32da	-0.045946933
38	0xbf100dcc	-0.5627105
39	0x3d3446c0	0.044012785
40	0x3fc08d30	1.5043087
41	0x401fd272	2.4972196
42	0xbecd4dee	-0.40098518
43	0x3fe15087	1.76027
44	0x3fdfc36f	1.7481517
45	0x3da44a35	0.08021966
46	0xbfa5a203	-1.2940067
47	0xc00e1120	-2.2197952
48	0x3e9ae98f	0.30256316
49	0xbe4fcaa4	-0.20292145
50	0xbdfe64fc	-0.12421605
51	0x3f181cb8	0.5941882
52	0x3ce1e955	0.027577082
53	0xbef88e22	-0.4854594
54	0xbe11baac	-0.14231366
55	0xbfe90f9a	-1.8207886
56	0xc00776d6	-2.1166282
57	0xbdf36f25	-0.118864335
58	0x3fb22c21	1.3919717
59	0x400ed139	2.23152
60	0xbf239035	-0.6389192
61	0xbdce71e6	-0.10080318
62	0x3f200c51	0.62518793
63	0xbe70f5f3	-0.23531322
64	0xbfbcb877	-1.4743794
65	0xbfda5cbe	-1.7059553
66	0x3edf2935	0.43586126
67	0xbe9d608b	-0.3073772
68	0xbe19b0a2	-0.15008786
69	0x3f013528	0.50471735
70	0xbd1e09be	-0.03858351
71	0xbef68ecc	-0.4815582
72	0x3f8fc57b	1.1232141
73	0xbead3dac	-0.33836114
74	0xbf2c2441	-0.6724282

fc1.bias f4 [25]
0	0x3fe61e81	1.7978059
1	0xbfa319b1	-1.2742215
2	0xc0099bc6	-2.1501327
3	0x3c890832	0.01672754
4	0xbcbfdfd8	-0.023422167
5	0x3fc64fe1	1.5493127
6	0x3fc7ec2b	1.5618948
7	0xbf804cab	-1.0023397
8	0xbfb628b3	-1.423117
9	0xbc96fc28	-0.018430784
10	0xbfba766c	-1.456739
11	0xbfdd0176	-1.7266071
12	0xbe9c929c	-0.30580604
13	0xc000a4b6	-2.0100532
14	0xbfa2141d	-1.2662388
15	0x3fb9e016	1.4521511
16	0x3d2322c6	0.039828084
17	0xbe96b6ed	-0.29436436
18	0x400429f9	2.0650618
19	0xbfcb0310	-1.586031
20	0x3e42d787	0.1902753
21	0x3fb7e888	1.4367838
22	0x3cdacd3c	0.026709192
23	0x3cc42ad9	0.023946213
24	0xbe0667d6	-0.13125548

fc2.weight f4 [25, 25]
0	0xbdb82526	-0.089914605
1	0x3d90257e	0.07038401
2	0x3e2970b3	0.16546898
3	0xbef9f0bc	-0.48816478
4	0x3ec8ca72	0.39216954
5	0xbdb339c4	-0.08751252
6	0xbe060998	-0.13089597
7	0x3d910972	0.0708188
8	0x3dc732f7	0.09726518
9	0x3f1281bb	0.57229203
10	0x3ded928c	0.11600217
11	0x3d5894d5	0.052876312
12	0xbee3a441	-0.44461253
13	0x3e42997e	0.19003865
14	0x3bfa9723	0.0076474114
15	0xbdd29d21	-0.10283876
16	0xbe1912e8	-0.14948618
17	0xbe616371	-0.2201059
18	0xbe10be02	-0.14134982
19	0x3e1a3d6c	0.15062493
20	0x3ea1bf4a	0.31591254
21	0xbe0f8136	-0.14014134
22	0xbd760175	-0.060059983
23	0xbde457c4	-0.111495525
24	0xbeb264cf	-0.34842536
25	0x3ca09711	0.019603284
26	0xbcfe4635	-0.031039337
27	0xbd000782	-0.03125716
28	0x3f0c3b57	0.54778045
29	0xbf155b3a	-0.58342326
30	0x3c81f2f9	0.015862929
31	0x3cdb2525	0.02675111
32	0x3c430272	0.0119024385
33	0x3b955bb8	0.004558053
34	0xbf0f7f9e	-0.56054103
35	0xbd2e2cd6	-0.042523228
36	0x3b5dfa0b	0.003387096
37	0x3d851986	0.06499009
38	0xbc8613c3	-0.016366845
39	0xbbd7acd5	-0.0065818825
40	0x3c902195	0.017594138
41	0x3e825d7c	0.25461948
42	0x3d623026	0.0552217
43	0x3bb3de50	0.005489148
44	0x3c90abe9	0.017660098
45	0xbdd73247	-0.105076365
46	0x3ce3c7b3	0.027805185
47	0x3e830d09	0.25595883
48	0x3eb50f93	0.35363445
49	0x3e1517dc	0.14559883
50	0x3dad822a	0.084720924
51	0xbdc4b731	-0.096052535
52	0xbdf1c789	-0.118056364
53	0x3ec1b832	0.37835842
54	0xbf116cbd	-0.56806546
55	0x3d93922b	0.07205614
56	0x3daf0ca7	0.08547335
57	0xbbefd088	-0.00731856
58	0xbd3f69a4	-0.046731606
59	0xbf1fcce6	-0.62422025
60	0xbdd13d68	-0.102167904
61	0xbdf1d712	-0.118085995
62	0x3eb7635e	0.35818
63	0xbdc9808e	-0.09838973
64	0xbdb3fe99	-0.08788795
65	0x3d6fb11b	0.05851851
66	0x3e31cbd9	0.17362918
67	0x3e951250	0.29115534
68	0x3e03ba83	0.12864117
69	0xbd9a4645	-0.07532934
70	0xbeb4a5a7	-0.35282633
71	0x3dc12dd2	0.09432568
72	0x3e888b0c	0.26668584
73	0x3f121d38	0.57075834
74	0x3e9ec37d	0.3100852
75	0xbcbd6901	-0.023121359
76	0xbc744b93	-0.014910596
77	0x3c3eb6b0	0.011640236
78	0x3e9b454f	0.30326316
79	0xbe5d1014	-0.21588165
80	0x3cedeb9b	0.02904301
81	0x3cfd85df	0.030947624
82	0xbda172af	-0.07883202
83	0x3bf3c8a9	0.007439692
84	0xbe8774f3	-0.26456413
85	0x3bfa5050	0.0076389685
86	0x3d69603c	0.056976542
87	0x3b8e10b9	0.0043354896
88	0x3c538c80	0.012911916
89	0xbd38d045	-0.045120496
90	0x3ccb6fd9	0.024833607
91	0x3ec48723	0.3838435
92	0xbd801801	-0.062545784
93	0xba868390	-0.0010262597
94	0xbd84a526	-0.06476812
95	0xbd99996d	-0.07499967
96	0xbb885998	-0.004161071
97	0x3d5ffe65	0.05468597
98	0x3e2aab0d	0.16666813
99	0x3da250f4	0.07925597
100	0xbcde1668	-0.027110294
101	0x3d8ccafd	0.068746544
102	0x388e2f50	6.7799e-05
103	0xbeaa4095	-0.33252397
104	0x3ed47a95	0.41499773
105	0x3cbadae2	0.02280945
106	0x3cf58a78	0.029973254
107	0x3c822ea6	0.015891384
108	0xbd1a5cec	-0.037686273
109	0x3e6dd685	0.23226364
110	0x3d042004	0.032257095
111	0x3d1edbf3	0.03878398
112	0xbe107cd7	-0.14110123
113	0x3c82aa97	0.015950484
114	0x3d8b1be1	0.06792427
115	0x3af9e64f	0.001906583
116	0x3cbf2c63	0.023336595
117	0xbd223cab	-0.03960864
118	0x3ba64764	0.0050744284
119	0x3cfc7569	0.030817704
120	0x3d8d5c18	0.06902331
121	0xbc68fbd6	-0.014220199
122	0xbe97e01d	-0.29663172
123	0xbe91b954	-0.28461707
124	0x3d4b5137	0.049638
125	0xbd8939c8	-0.06700474
126	0x3d858d79	0.065211244
127	0x3e0f9563	0.1402183
128	0xbe8214d4	-0.25406516
129	0x3e28ea7d	0.164957
130	0xbd9a2b45	-0.07527784
131	0xbe05f798	-0.13082731
132	0x3dc1496d	0.09437833
133	0x3dcef886	0.10105996
134	0x3ed4cb70	0.4156146
135	0x3d9e048b	0.0771571
136	0x3d57fa1f	0.05272877
137	0xbe631df8	-0.22179401
138	0x3d44804a	0.04797391
139	0x3d778a27	0.060434487
140	0xbdb6d207	-0.08926778
141	0xbca57d1e	-0.020201262
142	0xbe7eb635	-0.24874194
143	0xbcf92989	-0.030415313
144	0x3d6432bf	0.055712458
145	0x3e84803a	0.2587908
146	0xbdc4f79d	-0.09617541
147	0xbdb81273	-0.08987894
148	0xbe682913	-0.22671919
149	0xbe467ed2	-0.19384316
150	0x3cced1d5	0.02524654
151	0xbd17676c	-0.036963865
152	0xbc1bad10	-0.0095017105
153	0xbeb35c96	-0.35031575
154	0x3efe6010	0.49682665
155	0xbd14fc9e	-0.036373727
156	0xbc1822af	-0.009285613
157	0xbd043b34	-0.032283023
158	0x3d2d07a1	0.042243604
159	0x3f0b8e93	0.54514426
160	0x3cd1a201	0.025589945
161	0x3cfaa7d9	0.030597614
162	0xbb9679dc	-0.0045921635
163	0x3d0043da	0.03131471
164	0x3b939c01	0.004504681
165	0xbcc6ae25	-0.02425296
166	0xbd5e3b73	-0.054255914
167	0xbc8b3442	-0.016992692
168	0xbc258fc9	-0.010105082
169	0xbc30aae0	-0.010782927
170	0x3d7c5169	0.061601076
171	0xbc8a9274	-0.016915537
172	0xbeece730	-0.46270132
173	0xbe73ecd3	-0.2382081
174	0xbd965f14	-0.073423535
175	0xbbdc5b16	-0.0067247255
176	0xbcf52f2c	-0.02992972
177	0xbcf99f95	-0.030471602
178	0x3e880dd2	0.26573044
179	0xbf12bbb7	-0.5731768
180	0x3c472cfb	0.01215672
181	0x3d5ea52d	0.054356743
182	0xbd8fa8db	-0.070146285
183	0xbc4025a6	-0.011727726
184	0xbf21c791	-0.6319514
185	0xbc6cdecb	-0.014457415
186	0xbd7e49c8	-0.062082082
187	0x3e40d4ba	0.18831149
188	0xbd031a09	-0.03200725
189	0xbd95a243	-0.073063396
190	0x3d062929	0.032754097
191	0x3e8fd7dc	0.28094375
192	0x3e596c19	0.21232642
193	0x3d32ba53	0.043634724
194	0xbddadeb8	-0.106870115
195	0xbe4d6e49	-0.20061602
196	0x3cdf66d5	0.027270714
197	0x3ebdc6f4	0.37065852
198	0x3e535b9b	0.20640413
199	0x3e5fcf92	0.21856526
200	0xbc44805b	-0.011993493
201	0x3d83fac7	0.06444316
202	0x3d18796d	0.037225176
203	0x3e353310	0.1769526
204	0xbea0dce1	-0.31418517
205	0x3cdcfdb6	0.026976448
206	0x3c87cf31	0.016578289
207	0x3d1311e0	0.03590572
208	0xbb0f26bf	-0.0021843163
209	0xbedaaf18	-0.4271171
210	0xbd5f9e9f	-0.054594632
211	0xbb3ad915	-0.0028510739
212	0xbe06dcbc	-0.13170141
213	0x3d24ee13	0.040266108
214	0x3cf658fe	0.030071732
215	0x3bc8bcd9	0.006126028
216	0x3e875d68	0.2643845
217	0x3b1d2a52	0.0023981524
218	0x3d122efa	0.03568933
219	0xbd10dabb	-0.035364848
220	0x3dacbf59	0.08434934
221	0x3be7d487	0.007074896
222	0x3eacf03c	0.33777034
223	0x3e1af86d	0.1513383
224	0x3dc8ddf3	0.098079585
225	0xbc29be08	-0.010360248
226	0xbcf0cdb3	-0.02939496
227	0x3c964b0f	0.018346338
228	0xbe9e14c6	-0.30875224
229	0x3f0d031e	0.5508288
230	0x3c50ffba	0.012756282
231	0xbd44f5f8	-0.048086137
232	0x3d77988d	0.060448218
233	0x3d381e40	0.044950724
234	0x3f28f26c	0.65994906
235	0xbbe9522f	-0.0071203928
236	0x3c59b567	0.013287879
237	0xbe087c62	-0.13328698
238	0x3c8e5bad	0.017377699
239	0x3cc99e12	0.024611507
240	0x3baa6b19	0.0052007553
241	0xbe0f1152	-0.13971451
242	0xbde49b15	-0.11162392
243	0x3ad9ab26	0.0016606792
244	0x3d02a7a7	0.031898167
245	0x3e0d5043	0.13800149
246	0xbbf0f2de	-0.007353171
247	0xbed53811	-0.41644338
248	0xbf0a79b6	-0.54091966
249	0xbe1ea847	-0.1549388
250	0x3c1c3c0b	0.0095358
251	0x3cfe13fc	0.031015389
252	0xbc7a2a21	-0.015268833
253	0xbee2ffe8	-0.44335866
254	0x3f33e911	0.70277506
255	0xbc7b50d6	-0.015339097

fc2.bias f4 [25]
0	0xbd2903ac	-0.041263267
1	0xbe80f6ab	-0.25188193
2	0xbe672b65	-0.22575147
3	0xbe39ca0d	-0.18143483
4	0x3cb898c1	0.022533776
5	0xbae3b84b	-0.0017373649
6	0x3cd02fbb	0.025413385
7	0x3bb5c040	0.0055465996
8	0xbe5f898d	-0.21829815
9	0x3e1dc3ac	0.15406674
10	0x3c70b8e2	0.014692517
11	0xbde880ff	-0.11352729
12	0xbe0cc2b8	-0.13746154
13	0x3da8fa5f	0.082508795
14	0x3e59f7ee	0.21285984
15	0xbb155f83	-0.0022792525
16	0xbc81e244	-0.015854962
17	0x3dbd6ac5	0.0924888
18	0x3db14143	0.08655026
19	0xbe1e5296	-0.15461192
20	0xbe0fd3d4	-0.1404565
21	0x3e4d6b6a	0.20060506
22	0x3ae07429	0.0017124462
23	0x3bf14dbf	0.0073640044
24	0xbded5835	-0.1158909

fc3.weight f4 [25, 25]
0	0xbd56ddfa	-0.052457787
1	0xbcf29c02	-0.029615406
2	0xbe14bf22	-0.14526036
3	0xbdc47446	-0.0959249
4	0x3c42935f	0.011875956
5	0xbd9a3f2f	-0.075315826
6	0xbd59d4f3	-0.0531816
7	0xbdcb4ca7	-0.0992673
8	0x3e251941	0.16122915
9	0xbd08813c	-0.033326373
10	0x3d3b4e3e	0.045728914
11	0x3d003d91	0.031308714
12	0x3d8af165	0.067843236
13	0xbd86cda0	-0.065821886
14	0x3b6756b4	0.0035299482
15	0xbdfb9a42	-0.12285282
16	0xbdfca945	-0.12336973
17	0x3cc8da7d	0.024518246
18	0xbe5f6fa6	-0.21819934
19	0x3e0ac7b7	0.13552748
20	0xbe1765c2	-0.14784911
21	0xbde120d3	-0.10992589
22	0x3d823961	0.063586004
23	0xbd13f60f	-0.03612333
24	0xbe2fee41	-0.1718073
25	0x3e05d74c	0.1307041
26	0xbd6a1b9d	-0.05715524
27	0xbe1b92fd	-0.1519279
28	0xbe3eac0d	-0.1862032
29	0xbde90259	-0.11377401
30	0x3d678cb1	0.05653066
31	0xbe2eac5c	-0.17057937
32	0x3d7ccefe	0.06172084
33	0xbd3a269c	-0.045446977
34	0xbdf93f71	-0.121703036
35	0xbe032ae8	-0.12809336
36	0xbd8c90fa	-0.068635896
37	0xbe1fa36e	-0.15589687
38	0x3dd801e3	0.10547235
39	0xbdf993f1	-0.12186421
40	0x3df4fa99	0.1196186
41	0xbe0cbc6c	-0.13743752
42	0xbda5ffb3	-0.081054114
43	0x3e2567c8	0.1615287
44	0xbcf49cce	-0.029859927
45	0xbe05c2d0	-0.13062596
46	0xbe26aac4	-0.1627608
47	0xbc617813	-0.013761538
48	0x39906089	0.00027537745
49	0xbc08874b	-0.008333038
50	0xbdd58cd8	-0.104272544
51	0x3d458c33	0.048229408
52	0xbe397adb	-0.18113272
53	0x3d3c0f2e	0.045912914
54	0xbde0f586	-0.1098433
55	0xbde2e507	-0.1107884
56	0xbe390ec8	-0.18072045
57	0xbd30ec62	-0.043194182
58	0xbe376c68	-0.17912447
59	0xbd9d1e40	-0.07671785
60	0xbdcf6053	-0.10125794
61	0xbcc58fea	-0.024116475
62	0x3df3cd53	0.11904397
63	0xbd955842	-0.072922245
64	0x3e0c35ce	0.136924
65	0xbd900a2a	-0.07033189
66	0x3ded180b	0.115768515
67	0x3cea793b	0.02862226
68	0xbd0bbec2	-0.034117468
69	0xbd83f51c	-0.06443235
70	0xbd20b71b	-0.039237123
71	0xbe30e201	-0.17273714
72	0x3e0529cc	0.13004225
73	0x3d03c08c	0.03216605
74	0x3e1afda7	0.15135823
75	0x3e06dc90	0.13170075
76	0xbcd49e21	-0.025954308
77	0x3da6f755	0.081526436
78	0x3ca6ea19	0.020375298
79	0x3dc2a568	0.09504205
80	0xbb1cb06b	-0.0023908864
81	0xbcecdabc	-0.028912894
82	0xbde63508	-0.11240584
83	0x3de6e1be	0.11273526
84	0xbe11d15e	-0.14240023
85	0xbe5013ed	-0.20320101
86	0x3cedfad6	0.029050272
87	0x3d936086	0.07196145
88	0x3d99aa93	0.075032376
89	0x394f3239	0.00019759768
90	0x3d15d741	0.036582235
91	0xbe360866	-0.17776641
92	0xbcd397f0	-0.025829285
93	0x3df06624	0.11738232
94	0xbe43fb3c	-0.19138807
95	0xbe24db3d	-0.16099258
96	0x3e06055a	0.13087979
97	0xbe1fd31b	-0.15607874
98	0xbddc77cd	-0.10765038
99	0xbda912e6	-0.08255558
100	0x3ae508a8	0.0017473893
101	0xbd3f6170	-0.046723783
102	0xbe059927	-0.13046704
103	0xbe425465	-0.18977506
104	0x3e1e5d26	0.15465221
105	0x3e49b64b	0.19698445
106	0x3c8cd276	0.0171902
107	0x3cd21446	0.025644433
108	0xbe01f45a	-0.12690869
109	0xbd298449	-0.041385923
110	0xbcb505c9	-0.022097485
111	0x3d9bf3eb	0.07614883
112	0xbd9bd96d	-0.0760983
113	0x3d594e60	0.05305326
114	0x3cc6ae29	0.024252968
115	0x3e29ab00	0.16569138
116	0xbe79c6f3	-0.243923
117	0x3d38a930	0.045083225
118	0xbe055ef0	-0.13024497
119	0x3d286854	0.04111512
120	0xbdb36247	-0.08758979
121	0x3d318680	0.04334116
122	0x3e0147c1	0.12625028
123	0x3e107b26	0.14109477
124	0xbe0a5963	-0.13510661
125	0x3aa10a67	0.0012286425
126	0x3de2d4a8	0.11075717
127	0x3ccd2ec9	0.025046723
128	0x3e246d29	0.16057266
129	0xbdbf17c3	-0.09330704
130	0x3d188c2e	0.03724306
131	0xbe277243	-0.16352181
132	0x3ddc7b2e	0.10765682
133	0x3e3e9332	0.18610838
134	0xbe2e09e1	-0.16995956
135	0xbe585c1a	-0.21128884
136	0xb9fe9050	-0.00048554176
137	0xbe38f119	-0.18060721
138	0x3ca40fdc	0.020027094
139	0xbe5d6ad2	-0.2162278
140	0xbe037eda	-0.12841359
141	0xbd135cf9	-0.035977338
142	0xbe936ad1	-0.28792432
143	0x3e489a31	0.1959007
144	0x3e792f5e	0.24334475
145	0x3ea91070	0.33020353
146	0xbc1b88a7	-0.00949303
147	0xbdcfcf74	-0.101469904
148	0xbe11df5d	-0.14245363
149	0x3d3aaafc	0.04557322
150	0x3e57785d	0.21042009
151	0xbe1acc3e	-0.15116975
152	0xbe6d0c7c	-0.23149294
153	0xbd943a44	-0.07237676
154	0x3d4386cd	0.047735978
155	0x3e165771	0.14681794
156	0xbd15c28b	-0.036562484
157	0xbe3a6792	-0.18203571
158	0x3d8fca4d	0.07021008
159	0x3e0a906d	0.13531657
160	0xbc1c32c8	-0.009533592
161	0x3e084a23	0.13309531
162	0xbdbc9ca3	-0.092095636
163	0x3ddf5414	0.109047085
164	0x3d00eecb	0.03147773
165	0x3c32f01a	0.0109215025
166	0xbd8fc72f	-0.07020413
167	0x3c9e90d6	0.019356173
168	0xbdcf9428	-0.101356804
169	0xbc24fdb3	-0.010070252
170	0xbe298df4	-0.16558057
171	0x3dfc7d60	0.12328601
172	0x3d97035c	0.073736876
173	0x3d45bba8	0.048274666
174	0xbe5cf57a	-0.21578017
175	0x3df96fbb	0.12179514
176	0xbe3999f4	-0.18125135
177	0xbe185eb0	-0.1487987
178	0x3e505f09	0.20348753
179	0xbe400144	-0.18750483
180	0xbda87123	-0.08224704
181	0x3da2806c	0.07934651
182	0x3e146550	0.14491773
183	0x3c83e86c	0.016102038
184	0xbdd65b85	-0.10466675
185	0x3d67b679	0.056570504
186	0x3e2d29db	0.16910498
187	0xbe10a294	-0.14124519
188	0xbe02b3e7	-0.1276394
189	0x3d8d82ce	0.06909715
190	0x3db7e683	0.089795135
191	0x3cdc61c8	0.026902094
192	0x3e1f1b52	0.15537766
193	0xbdf4d23f	-0.11954164
194	0xbdcd7555	-0.10032145
195	0xbd991e78	-0.074765146
196	0xbc505e3d	-0.012717781
197	0xbe0bb349	-0.1364261
198	0xbe4d25e2	-0.20033982
199	0xbe39d544	-0.1814776
200	0x3e02c219	0.12769355
201	0xbe538465	-0.20655973
202	0xbe334d7b	-0.17510025
203	0x3c5bc754	0.013414223
204	0x3e0c8748	0.1372348
205	0x3e52a074	0.2056902
206	0x3dfd8918	0.12379664
207	0xbe4fee69	-0.2030579
208	0x3c9d022c	0.019166075
209	0x3db21f20	0.08697343
210	0x3e088f0a	0.13335815
211	0x3d75a0a7	0.059967663
212	0xbe695186	-0.22785005
213	0x3db1c9b0	0.08681047
214	0x3e1b6041	0.15173437
215	0x3bee85f3	0.0072791516
216	0x3dd025b8	0.10163444
217	0x3e021145	0.127019
218	0x3e06ebc9	0.13175882
219	0xbdd474f1	-0.10373867
220	0xbd9d268c	-0.07673368
221	0x3d6b3c12	0.057430334
222	0xba367d21	-0.00069613947
223	0x3d807e0c	0.062740415
224	0xbe1d28a2	-0.15347531
225	0x3d9abc7f	0.07555484
226	0x3db5b6a8	0.088727295
227	0xbe37396c	-0.17892998
228	0x3d49e213	0.049287867
229	0x3d02071d	0.031745065
230	0x3debcf77	0.1151418
231	0xbd9f2729	-0.07771141
232	0xbd96b9bf	-0.07359647
233	0xbda1ebf5	-0.07906333
234	0x3dbcc8d0	0.092179894
235	0x3dd603af	0.10449921
236	0x3daf184a	0.08549555
237	0xbdbf18f4	-0.09330931
238	0x3e1a9591	0.15096118
239	0x3cb2f1af	0.02184376
240	0x3df0daed	0.11760507
241	0xbe63a2f8	-0.22230136
242	0xbdba2471	-0.09088982
243	0xbe3e57bb	-0.18588154
244	0xbdcfe27e	-0.10150622
245	0xbe102c37	-0.14079367
246	0x3de730db	0.11288615
247	0xbd127a5b	-0.03576122
248	0x3d88e593	0.06684413
249	0xbd283ec8	-0.041075498
250	0x3d3d38bf	0.046196695
251	0x3e1e3306	0.15449151
252	0xbd8fe104	-0.0702534
253	0xbdfd5340	-0.12369394
254	0x3c8d32d5	0.017236153
255	0xbe5ebb68	-0.21751177

fc3.bias f4 [25]
0	0x3db824da	0.08991404
1	0x3dc4d350	0.09610617
2	0xbe1aa534	-0.15102082
3	0xbe0f2f34	-0.1398285
4	0x3dcfe4cf	0.10151064
5	0x3e23ac25	0.15983637
6	0xbd2c9b41	-0.04214025
7	0xbe04d587	-0.12972079
8	0xbe378364	-0.17921215
9	0x3e2e37b1	0.17013432
10	0x3d4f7683	0.05065013
11	0xbc2e2126	-0.01062802
12	0xbe3693eb	-0.17829864
13	0xbddc01c7	-0.107425265
14	0xbdfcd710	-0.123457074
15	0xbddd5d21	-0.108087786
16	0xbdc9de7f	-0.09856891
17	0x3dfc6ccf	0.12325441
18	0xbdd66f20	-0.10470414
19	0x3dcd9a00	0.10039139
20	0xbccd7070	-0.025078028
21	0x3d85bbf9	0.065299936
22	0xbe3a3fd7	-0.18188415
23	0xbdec927e	-0.11551379
24	0xbd965174	-0.07339755

fcFinal.weight f4 [1, 25]
0	0xbd0d9666	-0.03456726
1	0x3b257090	0.0025244094
2	0xbdf9b168	-0.12192041
3	0xbda70a19	-0.08156223
4	0x3dbab122	0.09115817
5	0xbebb076d	-0.36529103
6	0xbe17bf6e	-0.14819118
7	0xbdb65939	-0.089037366
8	0x3d9863d3	0.07440915
9	0x3dc819b3	0.09770527
10	0xbd9a8f95	-0.07546917
11	0x3d61cd5e	0.055127494
12	0x3e015d89	0.12633337
13	0x3dabb0ce	0.08383332
14	0x3d9b7eb3	0.07592525
15	0xbd910a17	-0.070820026
16	0x3d8d81df	0.069095366
17	0xbe3f9803	-0.18710332
18	0x3df2fcc2	0.11864616
19	0xbe00ef27	-0.1259123
20	0x3db885e3	0.09009912
21	0x3d9544af	0.07288491
22	0xbf091057	-0.5354056
23	0x3d9f0d81	0.077662475
24	0x3db90f0a	0.090360716

normalize2D.weight f4 [2]
0	0x3f800000	1.0
1	0x3f800000	1.0

normalize2D.bias f4 [2]
0	0x00000000	0.0
1	0x00000000	0.0

normalize2D.running_mean f4 [2]
0	0x00000000	0.0
1	0x00000000	0.0

normalize2D.running_var f4 [2]
0	0x3f800000	1.0
1	0x3f800000	1.0
