stock market/trained_weights/Moving_average_Gaussian_Close/NVDA/30_days.pth (torch, 11424 bytes, 11 tensors)

fc1.weight f4 [25, 3]
-0.70363945 -1.6554589 -0.8499286 -0.42116314 0.28110236 0.15149282 0.009489019 -0.9295326
-1.8036717 0.1389451 -1.0355972 -1.821378 0.51677454 -0.40332115 0.022160962 -0.12632203
1.1011667 1.3291024 0.105523676 0.5239171 -0.5143756 0.7038985 0.769608 1.7423487
-0.45870864 0.058114097 -0.8490005 0.1929576 1.1424149 1.4249784 0.8009185 1.1100476
0.14589465 -0.6400183 -1.1783931 -0.62460274 -0.48155463 0.27881587 0.09966039 -0.10544896
-0.4715905 0.43455037 0.85743463 -0.64296776 -0.23069449 -0.1898792 -0.83600557 -0.9196275
0.12420157 1.455837 1.742832 -0.64814055 -0.59342027 -1.140644 -0.0076421197 1.1290177
1.3719436 -0.5850207 -1.3831161 -0.8531678 -0.16497776 1.6539481 1.8687514 -0.14530356
-1.2324008 -1.6287842 0.40464398 0.86693746 1.4174 -0.91115683 0.6249518 0.18831258
0.76755404 0.052223 -0.8341558
00000000: b721 34bf 14e6 d3bf ec94 59bf b2a2 d7be
00000010: a6ec 8f3e ef20 1b3e d577 1b3c d9f5 6dbf
00000020: b7de e6bf a047 0e3e 738e 84bf ea22 e9bf
00000030: 564b 043f 1c80 cebe e88a b53c 905a 01be
00000040: 08f3 8c3f 0720 aa3f cc1c d83d 6e1f 063f
00000050: 1fae 03bf b132 343f 0805 453f 4805 df3f
00000060: dcdb eabe 0c09 6e3d 1958 59bf ad96 453e
00000070: a73a 923f b165 b63f ff08 4d3f 0a16 8e3f
00000080: 6865 153e 3dd8 23bf 96d5 96bf f7e5 1fbf
00000090: 548e f6be f4c0 8e3e bf1a cc3d a0f5 d7bd
000000a0: 4f74 f1be 637d de3e d680 5b3f 8999 24bf
000000b0: 2d3b 6cbe b16f 42be 7604 56bf b56c 6bbf
000000c0: 655d fe3d de58 ba3f 1e15 df3f 8aec 25bf
000000d0: 64ea 17bf 9f00 92bf bf6a fabb a783 903f
000000e0: d99b af3f ebc3 15bf f309 b1bf 3469 5abf
000000f0: eeef 28be 92b4 d33f 3f33 ef3f 75ca 14be
00000100: 4fbf 9dbf 007c d0bf 7f2d cf3e 9def 5d3f
00000110: 5d6d b53f 9341 69bf d7fc 1f3f 03d5 403e
00000120: 6c7e 443f c9e7 553d 3c8b 55bf

fc1.bias f4 [25]
1.4592516 -0.03916429 1.0975459 1.1304773 -0.43229908 -0.83735794 -0.15134965 -1.4378332
-0.0929879 -1.1497947 -0.54892725 0.7804305 0.1836534 0.30834508 0.027877752 0.4333801
-1.5697339 0.801067 -0.97967404 1.086987 -1.5381587 1.299011 -1.1079733 0.25920853
0.022587197
00000000: c2c8 ba3f bc6a 20bd 627c 8c3f 7bb3 903f
00000010: 4e56 ddbe 175d 56bf 67fb 1abe eb0a b8bf
00000020: 7170 bebd 792c 93bf 7f86 0cbf 4bca 473f
00000030: a30f 3c3e 68df 9d3e e25f e43c ffe3 dd3e
00000040: 0aed c8bf ba12 4d3f ebcb 7abf 6422 8b3f
00000050: 62e2 c4bf fe45 a63f 12d2 8dbf fbb6 843e
00000060: c908 b93c

fc2.weight f4 [25, 25]
0.021510093 0.41796118 -0.08370419 -0.15584426 -0.07353847 -0.026509086 0.0042424845 0.16130489
-0.008026917 0.026581392 -0.07529367 0.00023072789 -0.012308092 0.22841467 -0.6125576 0.06859554
-0.12254377 0.06844547 0.09909127 0.0032108042 0.15786299 -0.18608162 0.034913406 0.20264576
-0.28496867 -0.041708693 -0.26563597 -0.029259263 0.024875669 -0.05701856 0.11787755 -0.16037586
0.0984488 0.043616034 -0.11890946 0.042173352 0.03314094 -0.19851853 -0.102129795 0.22847798
0.14467238 -0.06968969 -0.08418681 -0.0373245 -0.063293405 -0.13773349 0.04156595 0.017425345
0.006776957 0.35530847 0.027012933 0.0123186335 0.029341917 0.018461848 -0.11632408 0.0420348
-0.08044241 -0.01536782 0.05185899 -0.03669268 0.05934357 0.13882297 -0.035375297 -0.06159028
-0.29164138 -0.022630323 0.12068474 0.029406147 0.1535156 -0.13585167 0.11452806 -0.008151288
0.1163861 0.023977745 -0.10859313 0.073033966 0.58314097 0.049694046 0.04624605 0.014659284
0.029504519 -0.02049491 0.0037600861 0.07419155 0.1102258 0.056594457 -0.044489477 0.0680019
0.09438555 -0.9067422 -0.001997821 0.09660155 -0.01773165 0.12103322 -0.03195231 0.06613826
0.06890312 0.070254795 0.23948824 -0.7839444 -0.13372315 0.15557411 -0.14521454 -0.05544601
-0.09051999 0.11408649 -0.16133161 0.07418579 0.07933526 0.045354575 0.14396888 -0.15936978
0.17257132 0.059330948 -0.38701218 0.06138346 -0.015405171 0.0731282 0.00694555 -0.19238201
0.056243178 -0.013812864 0.06009572 0.19017857 -0.33158472 -0.14167881 0.35013694 -0.16833027
0.030775633 0.038317993 0.09364633 -0.21474886 -0.02996615 -0.15746564 0.14937186 -0.014860009
-0.088385634 -0.08547986 0.07098959 -0.17005198 -0.100672804 0.024843328 -0.15200663 0.1546417
-0.06607418 0.23383069 -0.05863445 0.035218127 0.093772195 -0.37473452 0.1328815 -0.46094343
0.046370648 -0.04801766 0.16889428 -0.122346014 -0.017166276 0.05862835 -0.041431613 0.053824656
-0.109720245 0.09731625 -0.0026563515 -0.08068136 0.33268407 -0.03522358 0.020830225 0.13867201
0.08218907 -0.024852343 -0.097442605 -0.035314955 -0.08729221 -0.13772218 0.53322047 -0.013502897
-0.66980267 0.017507503 0.032245103 0.03627623 -0.104211606 0.023802709 -0.04505321 -0.034162026
-0.081744805 0.01729428 -0.041743785 -0.016846556 -0.14594992 0.5977447 0.025300007 -0.006677063
-0.048688043 -0.031313922 0.02762227 0.03624753 0.06795384 0.10513568 0.0036713558 0.76314384
0.10529656 0.033921782 0.032395337 0.1315348 -0.012421317 0.043777447 0.15335248 -0.05298403
-0.040145166 0.087221384 -0.0099726375 -0.039328653 0.105829366 -0.16050419 -0.11097455 -0.028377784
-0.11397113 0.065594755 -0.16340463 0.074964195 -0.11337176 -0.07302812 0.08483305 -0.04587622
0.028178757 -0.048840966 -0.0013179122 0.062167134 -0.14501959 -0.083606035 -0.052863922 -0.007638603
0.12592705 -0.130441 0.031552795 0.19649303 -0.002190011 0.026519917 0.03202972 -0.286566
0.06869239 0.016013436 -0.1138483 -0.12067844 0.033199977 0.04501682 0.12861457 0.17607793
0.061365776 -0.03441957 -0.013076265 -0.052045394 0.063780904 -0.16707511 -0.05221308 0.138845
00000000: ef35 b03c 02ff d53e 1a6d abbd a395 1fbe
00000010: 569b 96bd 9529 d9bc 8a04 8b3b 1c2d 253e
00000020: 5583 03bc 38c1 d93c 9133 9abd 8cef 7139
00000030: e1a7 49bc 89e5 693e 93d0 1cbf d27b 8c3d
00000040: 3af8 fabd 232d 8c3d 5df0 ca3d 5b6c 523b
00000050: d6a6 213e 2e8c 3ebe 5c01 0f3d 5f82 4f3e
00000060: 6ae7 91be bcd6 2abd 7001 88be 1fb1 efbc
00000070: 0fc8 cb3c 4b8c 69bd c969 f13d 9239 24be
00000080: 869f c93d baa6 323d ce86 f3bd f7bd 2c3d
00000090: cbbe 073d 7148 4bbe 6d29 d1bd 22f6 693e
000000a0: ff24 143e 78b9 8ebd 226a acbd 93e1 18bd
000000b0: f99f 81bd 020a 0dbe 0f41 2a3d 99bf 8e3c
000000c0: 3c11 de3b feea b53e 3a4a dd3c 18d4 493c
000000d0: 765e f03c 4d3d 973c 523b eebd af2c 2c3d
000000e0: febe a4bd 4fc9 7bbc 186a 543d 104b 16bd
000000f0: 3e12 733d 9c27 0e3e b0e5 10bd 1746 7cbd
00000100: 0552 95be 3a63 b9bc 9029 f73d 29e5 f03c
00000110: 3233 1d3e b31c 0bbe b08d ea3d fb8c 05bc
00000120: d65b ee3d fa6c c43c 1366 debd d592 953d
00000130: ba48 153f fc8b 4b3d 806c 3d3d 7e2d 703c
00000140: 76b3 f13c f1e4 a7bc c76b 763b bdf1 973d
00000150: 10be e13d 97cf 673d 993a 36bd 9544 8b3d
00000160: 364d c13d 4220 68bf e0ed 02bb 09d7 c53d
00000170: f741 91bc 44e0 f73d 6de0 02bd 7f73 873d
00000180: 141d 8d3d bfe1 8f3d 683c 753e 95b0 48bf
00000190: b9ee 08be d24e 1f3e 1fb3 14be 5b1b 63bd
000001a0: 8b62 b9bd 2da6 e93d 1d34 25be b8ee 973d
000001b0: 867a a23d b8c5 393d 946c 133e d531 23be
000001c0: 89b6 303e 0205 733d 7626 c6be 396d 7b3d
000001d0: f865 7cbc 3dc4 953d 7f97 e33b caff 44be
000001e0: 3f5f 663d 5a4f 62bc ee26 763d 2cbe 423e
000001f0: 79c5 a9be 4014 11be 2645 b33e c55e 2cbe
00000200: 2e1d fc3c 54f3 1c3d a6c9 bf3d 20e7 5bbe
00000210: 927b f5bc ac3e 21be f0f4 183e 6577 73bc
00000220: 8703 b5bd 1110 afbd fd62 913d 1b22 2ebe
00000230: 8b2d cebd 3c84 cb3c a0a7 1bbe 655a 1e3e
00000240: e651 87bd 5071 6f3e ad2a 70bd e240 103d
00000250: a30b c03d 34dd bfbe 1712 083e c700 ecbe
00000260: 26ef 3d3d 2aae 44bd 9ff2 2c3e 8c90 fabd
00000270: 4aa0 8cbc 4824 703d 32b4 29bd 3e77 5c3d
00000280: 02b5 e0bd be4d c73d 2f16 2ebb 453c a5bd
00000290: 9155 aa3e 9a46 10bd 26a4 aa3c 0900 0e3e
000002a0: be52 a83d 2497 cbbc fd8f c7bd 6aa6 10bd
000002b0: 42c6 b2bd 0b07 0dbe 2381 083f 413b 5dbc
000002c0: 3078 2bbf e56b 8f3c 7113 043d 6296 143d
000002d0: e56c d5bd e6fd c23c b789 38bd 7bed 0bbd
000002e0: d269 a7bd bcac 8d3c 88fb 2abd ca01 8abc
000002f0: e573 15be cc05 193f f641 cf3c 44cb dabb
00000300: 1d6d 47bd 0743 00bd 1948 e23c 4a78 143d
00000310: 622b 8b3d 6051 d73d 219b 703b 655d 433f
00000320: b9a5 d73d 91f1 0a3d f9b0 043d 0fb1 063e
00000330: c882 4bbc fb4f 333d 6f08 1d3e c805 59bd
00000340: 426f 24bd 20a1 b23d 4664 23bc 1517 21bd
00000350: 11bd d83d 365b 24be a046 e3bd 8778 e8bc
00000360: b269 e9bd 8b56 863d 8b53 27be d486 993d
00000370: 742f e8bd c48f 95bd f3bc ad3d b4e8 3bbd
00000380: 23d7 e63c 770d 48bd ccbd acba f7a2 7e3d
00000390: 0480 14be a439 abbd d787 58bd 3f4d fabb
000003a0: 05f3 003e 5392 05be 813d 013d 7835 493e
000003b0: 4a86 0fbb 4c40 d93c 9831 033d c7b8 92be
000003c0: 99ae 8c3d 9c2e 833c 4c29 e9bd 4226 f7bd
000003d0: b3fc 073d 8f63 383d 8ab3 033e c64d 343e
000003e0: ae5a 7b3d 89fb 0cbd d53d 56bc 8d2d 55bd
000003f0: 909f 823d bd15 2bbe 62dd 55bd 622d 0e3e

fc2.bias f4 [25]
-0.008539868 0.12729508 0.009155979 -0.021215186 0.1045683 0.11238807 -0.15669931 -0.2265089
0.021350844 -0.037036467 0.11082119 -0.117645495 0.13749053 -0.022955177 0.14274073 0.1504258
0.22172126 0.09959796 0.013317255 -0.14005563 -0.24496455 -0.0371234 0.06912978 0.18646581
0.14768763
00000000: cdea 0bbc a459 023e f602 163c 78cb adbc
00000010: e827 d63d b72b e63d c975 20be f3f1 67be
00000020: f7e7 ae3c 8db3 17bd 38f6 e23d 1ff0 f0bd
00000030: 51ca 0c3e 7f0c bcbc a02a 123e 3909 1a3e
00000040: e60a 633e 04fa cb3d 9e30 5a3c be6a 0fbe
00000050: fdd7 7abe b50e 18bd ea93 8d3d e5f0 3e3e
00000060: 6d3b 173e

fc3.weight f4 [25, 25]
-0.09233542 0.18540145 0.0007415712 0.16674642 -0.16225286 -0.07321441 -0.0022123605 0.14077966
0.13510652 -0.15440714 -0.15936244 -0.12094078 0.06976257 0.17177014 -0.021516562 -0.19398713
0.1300645 -0.15588287 -0.097738646 -0.17968862 0.020004392 0.006732866 -0.095713 -0.17262904
-0.052613765 0.14050233 0.07085774 -0.035094447 0.06953119 0.17208277 0.09482155 -0.25572896
-0.13907126 -0.044509772 -0.15002416 -0.08412839 -0.14209917 -0.012367209 -0.017430991 0.16137731
0.09929609 0.1743559 0.1690552 0.08690783 -0.013107177 -0.18225282 0.09179517 -0.009522973
0.0623958 -0.11772272 -0.18885547 0.13666771 -0.15064313 -0.2797483 -0.04092532 -0.028338017
0.24614224 0.20301896 -0.17770198 -0.044645894 -0.093215585 0.17590082 -0.0441668 -0.09288536
0.068269 0.06123486 -0.26438272 0.0059458935 -0.082758844 -0.07308351 0.051463634 0.06380254
0.13210718 -0.07455505 0.2571247 0.15554352 -0.19901203 -0.14766368 0.01610823 -0.05291167
-0.10589273 0.08036162 -0.09906366 0.13265587 -0.03110829 -0.035186097 -0.08636143 -0.015724152
0.06756447 -0.063068956 0.1388049 -0.18398724 0.047329858 -0.009007975 0.16041465 0.12585048
0.0023978502 -0.09971052 -0.08995531 -0.19325972 0.17177854 0.069742456 -0.06442727 -0.08160152
0.110615544 0.06478857 -0.08865223 0.07665966 0.12677526 0.13363025 -0.19357172 -0.051443897
0.018589757 -0.08750136 0.03453585 0.13923329 0.14571401 -0.014355426 -0.03765708 -0.15941912
-0.11787144 -0.05927407 -0.17732066 0.19427608 -0.13768224 0.042958975 -0.08314337 -0.004351791
0.22673522 -0.042191632 -0.051191956 -0.12790558 -0.18475305 0.050049473 0.046605017 -0.1491058
-0.22186685 0.12450176 0.18674451 0.15565893 0.055558372 0.17364076 0.0500511 -0.044522524
-0.07343897 -0.20467813 0.34486204 -0.23165466 0.09626084 0.043277685 0.024872964 0.06974772
-0.056746736 0.15442891 0.15251766 0.044885308 -0.015723733 -0.17423293 -0.052381683 0.18099475
-0.12122467 -0.12413207 0.0034457422 -0.028673118 -0.056845237 0.06668041 0.15982646 -0.014318354
-0.1693029 -0.1232182 -0.084198765 0.19065773 -0.21826288 0.18834443 -0.12920353 0.097833864
-0.11577079 0.07119916 0.2740855 0.0041970345 0.024751915 -0.1924036 -0.15752661 -0.12268948
-0.036626708 0.08537425 -0.03706581 -0.14499629 -0.028851664 -0.031854514 0.18899977 0.26885214
0.17971925 -0.15228535 -0.082680464 -0.036505014 0.2309047 -0.08121199 -0.046031296 -0.076229446
0.047760103 0.050813533 0.0015374675 0.12060133 0.14797968 0.043426614 -0.2963501 -0.2471741
-0.12677073 -0.03548839 0.13582525 -0.19415326 0.14067033 0.15328076 0.044985093 0.10840571
0.17983258 0.11364719 -0.08827184 -0.0041399854 -0.21105856 -0.077524684 0.03343906 -0.14883018
0.012037613 0.15946811 -0.15226482 -0.05923628 0.26443258 0.20223828 0.013320891 -0.045996733
-0.08335748 -0.09753273 -0.020390257 -0.080161005 -0.24333799 -0.029143834 0.16935289 -0.026944201
0.15270469 0.15355219 0.017558252 0.105124466 -0.11837611 -0.24872193 0.071835205 -0.0795763
-0.09528973 -0.15045369 0.17131107 -0.036097135 0.19954859 0.02039255 0.14591552 0.15742743
00000000: 5a1a bdbd e1d9 3d3e 0066 423a 93bf 2a3e
00000010: 9d25 26be 70f1 95bd 40fd 10bb 8b28 103e
00000020: 5d59 0a3e e81c 1ebe e82f 23be cdaf f7bd
00000030: aedf 8e3d 83e4 2f3e 8043 b0bc 90a4 46be
00000040: a12f 053e c29f 1fbe 332b c8bd 4b00 38be
00000050: 40e0 a33c 609f dc3b 2d05 c4bd abc5 30be
00000060: 8881 57bd d8df 0f3e dd1d 913d 32bf 0fbd
00000070: 5e66 8e3d 7736 303e cd31 c23d e8ee 82be
00000080: b268 0ebe e14f 36bd ef9f 19be 814b acbd
00000090: 7282 11be d69f 4abc 70cb 8ebc 1840 253e
000000a0: c05b cb3d 5a8a 323e ce1c 2d3e bbfc b13d
000000b0: 7cbf 56bc 7ca0 3abe 1bff bb3d 3e06 1cbc
000000c0: bd92 7f3d 9c18 f1bd 5463 41be 9ff2 0b3e
000000d0: 3142 1abe 2b3b 8fbe 4fa1 27bd 2125 e8bc
000000e0: b60c 7c3e 34e4 4f3e 82f7 35be 9dde 36bd
000000f0: d0e7 bebd 581f 343e 3fe8 34bd ae3a bebd
00000100: 9ed0 8b3d 68d1 7a3d 2c5d 87be c5d5 c23b
00000110: 787d a9bd cfac 95bd 88cb 523d e8aa 823d
00000120: 1b47 073e 51b0 98bd d9a5 833e cd46 1f3e
00000130: cfc9 4bbe 2635 17be 68f5 833c e8b9 58bd
00000140: 4ade d8bd a294 a43d e3e1 cabd f1d6 073e
00000150: d0d6 febc 4c1f 10bd 43de b0bd f0cf 80bc
00000160: 3e5f 8a3d 4c2a 81bd df22 0e3e 2767 3cbe
00000170: f4dc 413d 3096 13bc bd43 243e f3de 003e
00000180: 4025 1d3b 0735 ccbd 7d3a b8bd e0e5 45be
00000190: b7e6 2f3e 22d5 8e3d 72f2 83bd b31e a7bd
000001a0: 678a e23d dfaf 843d 4d8f b5bd bdff 9c3d
000001b0: 60d1 013e 5ed6 083e aa37 46be d6b6 52bd
000001c0: 8c49 983c ea33 b3bd 7775 0d3d 2c93 0e3e
000001d0: 0e36 153e 0533 6bbc 4f3e 1abd c43e 23be
000001e0: 9566 f1bd 5ec9 72bd 8c93 35be 4ff0 463e
000001f0: 93fc 0cbe c0f5 2f3d 1247 aabd 7899 8ebb
00000200: 472d 683e 22d1 2cbd a8ae 51bd aef9 02be
00000210: e72f 3dbe ad00 4d3d e7e4 3e3d 31af 18be
00000220: 1031 63be c7fa fe3d f439 3f3e 0e65 1f3e
00000230: 2d91 633d e2ce 313e 6202 4d3d 405d 36bd
00000240: 2c67 96bd 2597 51be c291 b03e e136 6dbe
00000250: 6724 c53d f143 313d 63c2 cb3c e5d7 8e3d
00000260: 446f 68bd 9d22 1e3e 972d 1c3e a8d9 373d
00000270: 0fcf 80bc 1e6a 32be 2d8e 56bd b056 393e
00000280: a444 f8bd f438 febd f6d1 613b e3e3 eabc
00000290: 8dd6 68bd bd8f 883d 8ca9 233e 8897 6abc
000002a0: bd5d 2dbe d359 fcbd 6770 acbd c83b 433e
000002b0: 4e80 5fbe 5ddd 403e ee4d 04be 1f5d c83d
000002c0: 3c19 edbd ddd0 913d ef54 8c3e 4787 893b
000002d0: 87c4 ca3c 7305 45be a84e 21be 9f44 fbbd
000002e0: e305 16bd b2d8 ae3d 52d2 17bd e879 14be
000002f0: 535a ecbc e179 02bd 2889 413e fda6 893e
00000300: 5308 383e b1f0 1bbe 6054 a9bd 4886 15bd
00000310: 4872 6c3e 7952 a6bd 508b 3cbd 2f1e 9cbd
00000320: 19a0 433d da21 503d d984 c93a d5fd f63d
00000330: fc87 173e 1be0 313d 33bb 97be 351b 7dbe
00000340: 30d0 01be 465c 11bd c615 0b3e 1dd0 46be
00000350: e20b 103e a2f5 1c3e 4a42 383d d003 de3d
00000360: 0826 383e dcbf e83d dec7 b4bd b7a8 87bb
00000370: bc1f 58be 43c5 9ebd 65f7 083d f066 18be
00000380: 6939 453c 9c4b 233e 4feb 1bbe bea1 72bd
00000390: b563 873e 8d17 4f3e de3f 5a3c 1267 3cbd
000003a0: 54b7 aabd 3dbf c7bd 7809 a7bc 742b a4bd
000003b0: 982d 79be 0dbf eebc d86a 2d3e 16ba dcbc
000003c0: 9e5e 1c3e c93c 1d3e 53d6 8f3c 7f4b d73d
000003d0: 2d6f f2bd f6b0 7ebe 561e 933d e6f8 a2bd
000003e0: 4327 c3bd 8810 1abe 2b6c 2f3e 97da 13bd
000003f0: 7756 4c3e 470e a73c e16a 153e a834 213e

fc3.bias f4 [25]
0.10654454 -0.04866894 0.14012857 -0.12763903 0.01657901 -0.018698895 0.09874726 0.019687237
0.104827024 0.1578701 0.10214183 -0.18754937 -0.17776237 0.06783919 0.12930325 0.006763277
0.017244395 0.07143454 0.12348572 0.08395513 -0.101299144 -0.13155524 0.14408943 -0.043332852
-0.18058644
00000000: 0634 da3d 1559 47bd dd7d 0f3e ceb3 02be
00000010: b4d0 873c 6d2e 99bc 013c ca3d 2147 a13c
00000020: 8daf d63d b3a8 213e bc2f d13d f10c 40be
00000030: 5707 36be 46ef 8a3d 1268 043e 7b9e dd3b
00000040: 1e44 8d3c 464c 923d 15e6 fc3d abf0 ab3d
00000050: ed75 cfbd 6bb6 06be 2e8c 133e ca7d 31bd
00000060: a7eb 38be

fcFinal.weight f4 [1, 25]
0.1393856 0.077657595 -0.28766766 -0.11121624 0.12555449 0.0689939 0.11379786 0.08626698
0.06273888 0.088833876 0.09633615 -0.05091457 0.07743984 -0.03838544 -0.08175766 -0.045015134
-0.13916251 0.13954118 -0.066809304 0.13766098 0.10668816 -0.34584144 0.14455536 -0.1480109
-0.09557985
00000000: 19bb 0e3e f20a 9f3d 2d49 93be 57c5 e3bd
00000010: 5b91 003e ad4c 8d3d da0e e93d beac b03d
00000020: 3e7d 803d 89ee b53d e34b c53d cc8b 50bd
00000030: c798 9e3d 0d3a 1dbd 8f70 a7bd ca61 38bd
00000040: 9e80 0ebe e2e3 0e3e 51d3 88bd 00f7 0c3e
00000050: 527f da3d 2112 b1be 5206 143e 2b90 17be
00000060: 5ebf c3bd

normalize2D.weight f4 [2]
1.0 1.0
00000000: 0000 803f 0000 803f

normalize2D.bias f4 [2]
0.0 0.0
00000000: 0000 0000 0000 0000

normalize2D.running_mean f4 [2]
0.0 0.0
00000000: 0000 0000 0000 0000

normalize2D.running_var f4 [2]
1.0 1.0
00000000: 0000 803f 0000 803f
