stock market/trained_weights/Moving_average_Gaussian_Close/NVDA/50_days.pth (torch, 11424 bytes, 11 tensors)

fc1.weight f4 [25, 3]
0.379962 -0.16809301 -0.053272154 -0.2711556 -1.291425 -1.2455263 -0.44782495 0.39775395
0.06971286 -0.4511728 0.3253239 -0.031033147 0.9743103 1.0868064 1.023941 -0.7219408
-1.0287906 -0.6923244 0.5136187 0.6047534 0.79931337 -0.86571306 -0.8134338 -1.338652
0.60715264 0.047156017 -0.5330792 -0.9458579 -0.47917262 -1.4960463 0.44939548 1.573975
1.4691505 0.6380122 1.3956752 0.40789068 -0.7657371 -1.1140846 -0.25428897 0.6642491
1.2057505 0.55537677 -0.18279226 -1.4639921 -1.7139018 -0.032234684 0.26588416 -0.2544925
0.7849525 0.8404075 0.3717153 0.16104852 0.29511604 -0.47032163 -0.7151768 -0.7322426
-1.9539135 0.3210486 1.0742058 0.9082239 0.27466542 -0.083450414 -0.04086631 -0.65823245
-0.014815007 0.6774504 -0.057565603 0.62918025 0.6891472 -0.1457471 -0.73387927 -1.1132773
-0.40702522 -1.4474906 -1.9718037
00000000: 618a c23e 9320 2cbe e733 5abd e8d4 8abe
00000010: 6a4d a5bf 686d 9fbf 5049 e5be 68a6 cb3e
00000020: 9ec5 8e3d 1f00 e7be db90 a63e 3a39 febc
00000030: 666c 793f 791c 8b3f 8010 833f 1dd1 38bf
00000040: 69af 83bf 2c3c 31bf 847c 033f 1ed1 1a3f
00000050: cd9f 4c3f 5f9f 5dbf 333d 50bf f358 abbf
00000060: 5b6e 1b3f ab26 413d e177 08bf be23 72bf
00000070: 1d56 f5be 727e bfbf 2a17 e63e 0378 c93f
00000080: 200d bc3f c454 233f 7ca5 b23f 0cd7 d03e
00000090: 5907 44bf 539a 8ebf 2a32 82be 3b0c 2a3f
000000a0: 0856 9a3f 2c2d 0e3f e52d 3bbe 1864 bbbf
000000b0: 2261 dbbf 8408 04bd f821 883e d74c 82be
000000c0: a6f2 483f f224 573f 7851 be3e e7e9 243e
000000d0: 7319 973e ffcd f0be d415 37bf 4074 3bbf
000000e0: d619 fabf 7b60 a43e 937f 893f 5d81 683f
000000f0: f2a0 8c3e 0de8 aabd 6f63 27bd ec81 28bf
00000100: a5ba 72bc 646d 2d3f e9c9 6bbd f511 213f
00000110: f36b 303f ba3e 15be 83df 3bbf df7f 8ebf
00000120: 9c65 d0be 5f47 b9bf 1064 fcbf

fc1.bias f4 [25]
-0.47483644 1.1613485 -0.103623495 0.25095367 -1.3251773 0.7861981 -0.23650858 1.2725803
-0.37276053 1.2144662 -1.5926411 -0.88904333 0.6097975 -0.8012764 1.4983991 0.26663098
-0.20343573 0.098070666 1.5283564 -0.81101745 -0.5311773 -0.0276003 0.026084235 0.5181357
1.8106567
00000000: c31d f3be 11a7 943f 8e38 d4bd 007d 803e
00000010: 699f a9bf 4744 493f 4e2f 72be e9e3 a23f
00000020: 78da bebe a173 9b3f aadb cbbf 5898 63bf
00000030: b01b 1c3f 7320 4dbf 8bcb bf3f db83 883e
00000040: 7551 50be 46d9 c83d 2fa1 c33f d79e 4fbf
00000050: 3cfb 07bf 061a e2bc 9bae d53c 8ba4 043f
00000060: 99c3 e73f

fc2.weight f4 [25, 25]
-0.05732733 -0.12036274 0.2500878 0.039519425 0.039666854 -0.093574055 -0.0832368 -0.1011449
-0.021536361 -0.09361305 -0.11674238 -0.07757961 0.115440205 -0.06750473 -0.02179735 -0.24543068
0.056592725 -0.19079314 -0.026721938 0.07804633 -0.03386365 0.5758931 0.11627126 0.0979898
-0.05054355 -0.17023285 -0.1444293 0.20605683 -0.11024425 0.15118611 0.022205215 -0.13623393
-0.102228515 -0.025445648 -0.008921923 0.060862426 -0.052284263 -0.00471184 0.14191304 -0.08302546
-0.08352968 0.12805234 -0.20787804 -0.06808627 0.18214746 -0.15661353 0.43434182 0.12754188
-0.20549276 -0.023405043 8.315434e-05 0.11508948 -0.15890586 -0.22018161 0.07634103 0.14352678
-0.19070789 -0.044972103 -0.010894344 0.12614055 0.12590781 0.09670895 0.048197776 -0.15113169
-0.08305968 0.02415104 0.002607729 0.11881236 0.1467231 -0.014444113 0.08673194 -0.2021702
0.013132703 0.1271541 0.071681134 -0.064330064 -0.04785826 -0.19672664 -0.16323474 -0.09051308
0.06319393 0.00965061 0.009268577 0.14302291 0.18359905 0.03573757 -0.16498226 0.12489902
0.001086911 0.16803512 -0.07340718 -0.04451459 0.41757107 -0.044783544 -0.098820604 0.14652339
-0.46056113 0.10044714 -0.097236626 0.18358968 -0.06707251 0.009188455 0.26094788 -0.072939515
0.13908863 -0.08264736 -0.004439431 -0.07626643 -0.060289297 -0.090597965 0.0904628 0.12236822
-0.07255844 -0.05088178 -0.1209087 -0.09995007 0.04636949 -0.16834384 -0.16910604 -0.0033937092
-0.24592899 0.4547305 0.13479774 -0.12685987 -0.12352528 -0.05262072 -0.077048995 0.028673243
-0.07713718 -0.057698745 -0.1590505 0.20503113 -0.021812508 -0.17058426 -0.034222223 0.0044033052
0.045919377 -0.1706801 -0.055544056 0.0016134906 -0.050341763 -0.06442669 -0.12173402 -0.099059455
0.15573487 0.063416585 0.47203365 0.15277247 0.05029752 -0.121073075 -0.11516241 -0.14902449
0.08253373 0.047746535 0.090415135 -0.006883505 0.12822054 -0.136745 -0.15564334 -0.08460646
0.07243114 -0.1227803 0.124658115 0.04733323 -0.08449349 -0.08750116 0.115006864 -0.42828095
-0.107762724 0.022384262 -0.10628536 0.6258823 0.09555059 -0.0003205324 -0.16031772 0.10697617
-0.06808357 0.008068828 0.051926106 -0.07193659 0.015268011 0.100800864 0.038102206 0.03063642
0.075259715 -0.057478715 0.1860477 0.00807164 0.17974113 -0.10043428 0.13563864 -0.103197984
0.14244403 -0.044372965 -0.08451925 0.076110005 -0.06217845 -0.12715973 -0.09520354 -0.097597085
-0.052641727 -0.0031698414 0.36111704 0.14348786 0.09878461 0.07945663 -0.026411189 -0.13382524
-0.078514285 -0.1150131 0.083232805 0.08723832 -0.074791156 0.06411422 -0.041199937 -0.08959572
0.002962902 -0.28867474 -0.06520989 -0.17729199 -0.18336485 0.6503733 -0.1457557 0.078029245
-0.10546826 -0.03720918 -0.057808965 -0.09176913 0.1805359 -0.037154254 0.12277411 0.072098285
0.08534986 0.014329859 -0.011053052 0.1317982 0.14480096 -0.12215758 0.17435396 -0.07605107
-0.107907146 -0.08997415 -0.2675742 -0.039512213 -0.01821138 -0.11875608 0.14739563 -0.16569237
-0.1724175 -0.034522183 -0.2203767 -0.048305463 0.057451498 0.10028845 -0.13188602 -0.026220763
00000000: 10d0 6abd bd80 f6bd 820b 803e 1fdf 213d
00000010: b679 223d c1a3 bfbd 0e78 aabd 0f25 cfbd
00000020: 066d b0bc 33b8 bfbd a116 efbd 0fe2 9ebd
00000030: ea6b ec3d eb3f 8abd 5b90 b2bc 2e52 7bbe
00000040: c6cd 673d 475f 43be f7e7 dabc c1d6 9f3d
00000050: 9cb4 0abd bb6d 133f a01f ee3d e0ae c83d
00000060: c106 4fbd 8551 2ebe 46e5 13be 9000 533e
00000070: bdc7 e1bd 88d0 1a3e b6e7 b53c e880 0bbe
00000080: 2f5d d1bd 6473 d0bc 422d 12bc e14a 793d
00000090: 0628 56bd c765 9abb a751 113e 4109 aabd
000000a0: 9c11 abbd 2720 033e fbdd 54be d070 8bbd
000000b0: dd84 3a3e 4c5f 20be 0d62 de3e 579a 023e
000000c0: b26c 52be efbb bfbc 2563 ae38 09b4 eb3d
000000d0: 38b8 22be 4a77 61be b058 9c3d aff8 123e
000000e0: ee48 43be ab34 38bd 317e 32bc fd2a 013e
000000f0: faed 003e 580f c63d 086b 453d 44c2 1abe
00000100: 321b aabd 67d8 c53c 6fe6 2a3b e553 f33d
00000110: 953e 163e 00a7 6cbc 84a0 b13d b405 4fbe
00000120: 8c2a 573c af34 023e 8fcd 923d 7bbf 83bd
00000130: 0607 44bd b572 49be 0227 27be ec5e b9bd
00000140: d26b 813d 981d 1e3c 3bdb 173c 9974 123e
00000150: 6401 3c3e 8f61 123d 1cf1 28be 0fcb ff3d
00000160: ae76 8e3a 6611 2c3e 8156 96bd ee54 36bd
00000170: e0cb d53e f36e 37bd 7562 cabd 3a0a 163e
00000180: abce ebbe 3bb7 cd3d ff23 c7bd effe 3b3e
00000190: 505d 89bd 2c8b 163c f69a 853e 5061 95bd
000001a0: 406d 0e3e 0543 a9bd a578 91bb 9331 9cbd
000001b0: e9f1 76bd 6d8b b9bd 8f44 b93d 309c fa3d
000001c0: 8599 94bd 6a69 50bd fb9e f7bd 9fb2 ccbd
000001d0: efed 3d3d 5462 2cbe 222a 2dbe fe68 5ebb
000001e0: cfd4 7bbe 70d2 e83e 6b08 0a3e 8ee7 01be
000001f0: d2fa fcbd d388 57bd ddcb 9dbd 26e4 ea3c
00000200: 19fa 9dbd 8555 6cbd 22de 22be aef3 513e
00000210: 25b0 b2bc a4ad 2ebe 9a2c 0cbd 9a49 903b
00000220: f515 3c3d c4c6 2ebe 2a82 63bd c37b d33a
00000230: 2a33 4ebd 24f2 83bd b04f f9bd afdf cabd
00000240: f678 1f3e 8ee0 813d 65ae f13e 6370 1c3e
00000250: c604 4e3d 29f5 f7bd 45da ebbd e099 18be
00000260: 7207 a93d df91 433d 922b b93d 068f e1bb
00000270: 3f4c 033e e206 0cbe f860 1fbe 2746 adbd
00000280: c756 943d 3d74 fbbd c14c ff3d 7de0 413d
00000290: ec0a adbd cf33 b3bd b888 eb3d a447 dbbe
000002a0: b4b2 dcbd 335f b73c 24ac d9bd d339 203f
000002b0: 07b0 c33d 210d a8b9 542a 24be 5216 db3d
000002c0: 666f 8bbd 1e33 043c 78b0 543d 7e53 93bd
000002d0: ae26 7a3c af70 ce3d 0f11 1c3d 3bf9 fa3c
000002e0: c421 9a3d cd6e 6bbd 4a83 3e3e e93e 043c
000002f0: 0f0e 383e 7db0 cdbd dbe4 0a3e 7759 d3bd
00000300: d9dc 113e 6dc0 35bd 6e18 adbd 90df 9b3d
00000310: d5ae 7ebd 2936 02be 13fa c2bd fbe0 c7bd
00000320: da9e 57bd 1dbd 4fbb 55e4 b83e 7bee 123e
00000330: 964f ca3d 28ba a23d 475c d8bc 7c09 09be
00000340: 19cc a0bd fd8b ebbd f675 aa3d 01aa b23d
00000350: 1b2c 99bd 514e 833d 44c1 28bd f67d b7bd
00000360: 3f2d 423b 2dcd 93be c38c 85bd 088c 35be
00000370: ffc3 3bbe dd7e 263f fb40 15be cccd 9f3d
00000380: beff d7bd a768 18bd 18c9 6cbd 74f1 bbbd
00000390: 67de 383e 0f2f 18bd fe70 fb3d 44a8 933d
000003a0: e8cb ae3d c9c7 6a3c dc17 35bc 1bf6 063e
000003b0: b446 143e c12d fabd d889 323e aac0 9bbd
000003c0: 6cfe dcbd 5e44 b8bd 7cff 88be 8fd7 21bd
000003d0: 0830 95bc 6336 f3bd e1ee 163e 43ab 29be
000003e0: 378e 30be 2267 0dbd 6eaa 61be f3db 45bd
000003f0: 4352 6b3d 0864 cd3d 210d 07be edcc d6bc

fc2.bias f4 [25]
0.03908796 -0.026760794 -0.04523063 0.0020426114 0.021146921 -0.053866163 0.03458805 -0.11995182
-0.04277699 0.14869358 0.03461888 -0.114445314 -0.06638081 -0.017593384 0.060200423 -0.14737973
-0.14339484 0.08125631 -0.21249816 -0.08819277 0.11047655 -0.1416345 0.11282547 -0.09245501
0.0024496266
00000000: b21a 203d 7439 dbbc c143 39bd 55dd 053b
00000010: 4f3c ad3c c4a2 5cbd 33ac 0d3d 4da9 f5bd
00000020: ed36 2fbd 2143 183e 87cc 0d3d 4e62 eabd
00000030: aaf2 87bd 0020 90bc b894 763d b6ea 16be
00000040: 19d6 12be b569 a63d 1e99 59be 699e b4bd
00000050: 8841 e23d a208 11be 0a11 e73d 0d59 bdbd
00000060: ea89 203b

fc3.weight f4 [25, 25]
0.0907228 -0.13580056 0.052790206 -0.17989737 0.15058172 -0.046133544 0.013343875 0.07746418
-0.10234237 0.09966 -0.031929508 -0.23200247 0.13144659 -0.099293195 0.12583424 0.08576634
0.122484386 -0.13633196 0.13226135 -0.001078684 0.0015837171 -0.05809989 -0.22404738 0.04970524
-0.13178928 -0.12619963 0.15057193 0.094397426 0.048237856 -0.19270381 -0.13679127 -0.21345018
-0.01812476 0.017972864 0.16750723 0.08514295 0.10874784 -0.0031027922 -0.13704318 0.054525554
0.033221435 -0.1738321 -0.11320402 -0.039060846 0.10984167 0.15892747 -0.07428449 -0.16503909
-0.13619822 0.05241753 -0.19746804 0.013758751 0.13304213 0.11768219 -0.08086443 0.16120994
0.02092553 -0.18090488 0.00261747 -0.14782143 0.16352606 0.055095404 -0.189109 -0.17208834
-0.042722397 0.17149486 0.077665195 -0.12668437 -0.08462883 0.043791506 -0.14245236 -0.1166111
0.08170967 -0.17180143 0.014704103 -0.09356001 0.061660115 -0.11310927 -0.15313897 0.12833823
0.11561734 0.1965204 -0.059381317 -0.0032892115 0.09167887 0.11048671 -0.17141719 0.16326044
0.005938153 -0.07733182 0.13036811 -0.06784009 0.014132658 0.08440951 0.16012181 -0.07483512
0.047025274 -0.18223974 0.18264711 -0.13312645 -0.1310986 -0.11879525 0.14754729 -0.17129336
-0.034397677 -0.14167532 -0.11430843 -0.16781557 0.031005591 0.023572996 -0.07359891 -0.16014393
-0.18912578 0.10065822 0.19828571 -0.053913787 0.08649306 -0.15222237 -0.16624482 0.116183236
0.11670558 0.1508561 0.18695305 -0.1811115 -0.07639468 0.09876533 0.046414506 0.08552046
-0.023798518 -0.041524947 0.033263706 0.1581904 -0.12698461 0.25641337 -0.10889687 0.14409375
-0.20399158 -0.052302204 -0.16931444 -0.22866662 0.06960925 0.2613889 -0.19802763 0.08245837
0.2062553 -0.04562684 -0.116540864 -0.21023366 0.029407507 0.044348557 0.19626178 -0.012769162
-0.1821957 -0.03991527 0.13563074 -0.15578343 0.09697023 0.12909424 0.033658404 -0.057469483
-0.09837751 -0.09418233 -0.071372785 0.140727 -0.117124274 -0.092238136 0.17982483 -0.10868974
0.13785286 0.14500906 0.10345674 -0.10662584 -0.17393222 -0.015802165 0.19440135 0.21064009
-0.05798515 -0.112962686 -0.02369817 0.22390819 -0.00075378007 0.08194916 0.0035567675 0.20612898
0.06094028 0.2231594 -0.042028416 -0.16106728 -0.11703109 -0.18106039 -0.21708241 -0.026894523
-0.2041948 0.22492567 -0.12078753 -0.09962824 0.091658264 -0.0214769 0.2133614 0.13261065
-0.19328254 -0.07912831 0.11496122 0.03668497 -0.18465379 -0.15023819 0.10457059 -0.20397562
-0.14260355 0.12966585 -0.016624223 0.1599176 -0.19228722 0.020778993 0.047645662 0.052803747
0.166263 -0.17686328 -0.0048674294 0.026688434 0.17269957 -0.21464674 -0.13979277 -0.022786764
-0.012737128 -0.13689812 0.09712109 0.1341394 -0.16278107 0.00020913 0.10083627 -0.072964236
0.08273849 -0.19324432 -0.138483 -0.13084114 0.16717966 -0.03173137 0.08609884 -0.18894906
0.14523423 0.11683141 0.1351956 -0.08331724 0.16878977 0.052616324 -0.20464107 -0.13878511
0.11821005 0.015424121 0.065912165 -0.09317616 -0.10586311 0.012158858 0.009859804 -0.037097562
00000000: e0cc b93d 4d0f 0bbe 8b3a 583d 0437 38be
00000010: 1832 1a3e 87f6 3cbd 45a0 5a3c 8aa5 9e3d
00000020: e098 d1bd 8b1a cc3d 84c8 02bd 0e92 6dbe
00000030: ef99 063e 3b5a cbbd b1da 003e 43a6 af3d
00000040: 18d9 fa3d 9b9a 0bbe 856f 073e a162 8dba
00000050: ba94 cf3a 26fa 6dbd ad6c 65be b997 4b3d
00000060: c5f3 06be 7a3a 01be 872f 1a3e 7053 c13d
00000070: 0f95 453d 2654 45be 0313 0cbe af92 5abe
00000080: 607a 94bc d43b 933c 0487 2b3e 6d5f ae3d
00000090: 30b7 de3d 3758 4bbb 0c55 0cbe 3056 5f3d
000000a0: 3313 083d 0b01 32be 82d7 e7bd 44fe 1fbd
000000b0: abf4 e03d e2bd 223e 7722 98bd 0200 29be
000000c0: 8c77 0bbe c4b3 563d 1035 4abe 626c 613c
000000d0: 323c 083e 5c03 f13d 409c a5bd 3814 253e
000000e0: 046c ab3c 213f 39be dc89 2b3b 805e 17be
000000f0: 6073 273e b8ab 613d caa5 41be ed37 30be
00000100: aefd 2ebd 599c 2f3e ee0e 9f3d 8cb9 01be
00000110: e151 adbd b95e 333d 08df 11be cdd1 eebd
00000120: 6657 a73d b7ec 2fbe 7ae9 703c 649c bfbd
00000130: 518f 7c3d d5a5 e7bd 76d0 1cbe 196b 033e
00000140: c9c8 ec3d a53c 493e d339 73bd d08f 57bb
00000150: 22c2 bb3d db46 e23d fd87 2fbe bf2d 273e
00000160: d694 c23b 2560 9ebd 387f 053e bfef 8abd
00000170: aa8c 673c e5de ac3d f9f6 233e 2843 99bd
00000180: 939d 403d 0e9d 3abe d807 3b3e 4d52 08be
00000190: b63e 06be ed4a f3bd a316 173e 8767 2fbe
000001a0: 94e4 0cbd 5613 11be 8a1a eabd d8d7 2bbe
000001b0: 70ff fd3c 281c c13c 06bb 96bd c5fc 23be
000001c0: 30aa 41be e625 ce3d 690b 4b3e b4d4 5cbd
000001d0: 4623 b13d 2ee0 1bbe 153c 2abe 7af1 ed3d
000001e0: 5603 ef3d 057a 1a3e 9f70 3f3e 4b75 39be
000001f0: d074 9cbd 7a45 ca3d 231d 3e3d 5a25 af3d
00000200: 1cf5 c2bc 1016 2abd 863f 083d aafc 213e
00000210: 4108 02be 9d48 833e 5205 dfbd 508d 133e
00000220: 2be3 50be d63a 56bd c460 2dbe 9527 6abe
00000230: 4b8f 8e3d c4d4 853e c1c7 4abe efdf a83d
00000240: 9734 533e 36e3 3abd faac eebd 7e47 57be
00000250: 03e8 f03c d5a6 353d d9f8 483e bf35 51bc
00000260: 8291 3abe 327e 23bd c9e2 0a3e b185 1fbe
00000270: 5498 c63d 4831 043e 65dd 093d 1f65 6bbd
00000280: 267a c9bd aae2 c0bd e52b 92bd bd1a 103e
00000290: dade efbd 59e7 bcbd 0024 383e ba98 debd
000002a0: 4d29 0d3e 417d 143e 21e1 d33d a65e dabd
000002b0: 4a1b 32be 8b73 81bc 2611 473e 09b2 573e
000002c0: d681 6dbd fb58 e7bd aa22 c2bc 3048 653e
000002d0: 5399 45ba f6d4 a73d a818 693b 7a13 533e
000002e0: 849c 793d e683 643e fd25 2cbd d2ee 24be
000002f0: ffad efbd e567 39be da4a 5ebe e751 dcbc
00000300: 7118 51be ea52 663e 745f f7bd e409 ccbd
00000310: 54b7 bb3d 53f0 afbc 697b 5a3e 16cb 073e
00000320: dceb 45be 060e a2bd ca70 eb3d fb42 163d
00000330: e215 3dbe 0ad8 19be 1b29 d63d fcde 50be
00000340: aa06 12be 20c7 043e 862f 88bc 70c1 233e
00000350: f1e6 44be b538 aa3c 1928 433d be48 583d
00000360: d940 2a3e a61b 35be f57e 9fbb b4a1 da3c
00000370: 28d8 303e 5bcc 5bbe d625 0fbe 4fab babc
00000380: 63af 50bc 052f 0cbe 6ce7 c63d d75b 093e
00000390: 15b0 26be e849 5b39 3f83 ce3d 466e 95bd
000003a0: cc72 a93d d7e1 45be 7dce 0dbe 38fb 05be
000003b0: 2531 2b3e c1f8 01bd 9754 b03d dd7b 41be
000003c0: 48b8 143e 4e45 ef3d b770 0a3e 3ba2 aabd
000003d0: 3ad7 2c3e 3784 573d 6e8d 51be af1d 0ebe
000003e0: 1c18 f23d 74b5 7c3c f5fc 863d 24d3 bebd
000003f0: c2ce d8bd f235 473c 048b 213c 9df3 17bd

fc3.bias f4 [25]
0.07587262 0.040397212 0.17485273 -0.15188687 -0.0879268 0.038315967 -0.050782207 -0.08285551
0.15429159 -0.1649266 0.16444317 -0.028425459 -0.012391907 -0.011532543 0.16283505 -0.06542493
-0.1134706 -0.12520522 0.11971786 -0.11933849 -0.12673369 -0.19434372 0.09511955 0.15542464
-0.06636731
00000000: 1b63 9b3d 8c77 253d 980c 333e 3b88 1bbe
00000010: f712 b4bd 34f1 1c3d 0101 50bd 26b0 a9bd
00000020: 9dfe 1d3e 85e2 28be ca63 283e 82dc e8bc
00000030: 6d07 4bbc fef2 3cbc 3bbe 263e 81fd 85bd
00000040: 4663 e8bd cc35 00be a32e f53d bd67 f4bd
00000050: 7ac6 01be 0a02 47be 0ace c23d a327 1f3e
00000060: 96eb 87bd

fcFinal.weight f4 [1, 25]
-0.08073953 -0.12752819 -0.17147084 0.17538452 -0.00541687 0.1337398 0.19977994 0.0909955
-0.15358442 -0.087029696 -0.07484179 -0.19918104 0.15067774 -0.06915278 -0.13375044 -0.021213336
-0.100902215 -0.18961847 0.15310882 -0.042245388 -0.06230481 -0.0069085807 0.083686434 -0.035149198
0.106444925
00000000: c45a a5bd c096 02be 0d96 2fbe 0098 333e
00000010: 0080 b1bb 16f3 083e 1d93 4c3e d95b ba3d
00000020: 3c45 1dbe a03c b2bd a746 99bd 1df6 4bbe
00000030: 444b 1a3e f99f 8dbd e0f5 08be 97c7 adbc
00000040: d2a5 cebd 582b 42be 8fc8 1c3e 8009 2dbd
00000050: 5433 7fbd 6061 e2bb cb63 ab3d 9bf8 0fbd
00000060: ccff d93d

normalize2D.weight f4 [2]
1.0 1.0
00000000: 0000 803f 0000 803f

normalize2D.bias f4 [2]
0.0 0.0
00000000: 0000 0000 0000 0000

normalize2D.running_mean f4 [2]
0.0 0.0
00000000: 0000 0000 0000 0000

normalize2D.running_var f4 [2]
1.0 1.0
00000000: 0000 803f 0000 803f
