stock market/trained_weights/NVDA/Moving_average_volatility_order/VO1_30_days.pth (torch, 11424 bytes, 11 tensors)

fc1.weight f4 [25, 3]
0	0xbf1bbca1	-0.608347
1	0x3f2ba11c	0.6704271
2	0x3f4fc9d8	0.81167364
3	0x3e40f246	0.1884242
4	0xbed2ef95	-0.41198412
5	0xbfb0c743	-1.381081
6	0x3f2a3f9b	0.66503304
7	0xbf9dcf71	-1.2328931
8	0xbfa318f7	-1.2741994
9	0xbeee0def	-0.46495005
10	0x3e89a9e2	0.26887423
11	0x3fab1e71	1.3368665
12	0x3eca6de0	0.39536953
13	0xbee99ddf	-0.4562826
14	0xbec76288	-0.3894236
15	0xbf74a00f	-0.9555673
16	0x3f7e7242	0.99393094
17	0x3fa9134f	1.3209018
18	0xbeb5712e	-0.35437912
19	0x3f6cddcf	0.92525953
20	0x3f134454	0.57526135
21	0x3f2b1660	0.66831017
22	0xbf3bb71e	-0.7332629
23	0xbfc4714a	-1.5347073
24	0xbefda538	-0.49540114
25	0xbed37a08	-0.4130404
26	0x3eeb9806	0.46014422
27	0xbf0b52c5	-0.5442317
28	0xbdf08e5b	-0.11745902
29	0x3f110752	0.56651795
30	0x3edf73f9	0.43643168
31	0xbeb55b6f	-0.3542132
32	0xbf168dd2	-0.5881015
33	0x3ec4f785	0.38470092
34	0xbe27fa00	-0.16403961
35	0x3e728607	0.2368394
36	0xbed98eb6	-0.42491692
37	0xbe191b18	-0.14951742
38	0x3f16696a	0.587546
39	0x3ebe29b2	0.37141186
40	0xbe36c07e	-0.17846867
41	0xbf23d3d7	-0.63995117
42	0x3ec3b53b	0.38224205
43	0xbf35d828	-0.71032953
44	0xbf3cfb75	-0.7382119
45	0x3ebccc4a	0.3687461
46	0xbf514c79	-0.81757313
47	0xbf94bae0	-1.161953
48	0x3fa63e86	1.2987831
49	0xbf7d8180	-0.99025726
50	0xbfcaab10	-1.5833454
51	0x3f8ce4b1	1.1007291
52	0xbf5b1b3c	-0.8558843
53	0xbfd00973	-1.6252884
54	0x3fbd0239	1.4766303
55	0xbf7a4c1b	-0.9777238
56	0xbfc1b1a3	-1.5132335
57	0x3f1e529c	0.618448
58	0xbf5291e5	-0.8225387
59	0xbf977770	-1.1833324
60	0xbd1eaab6	-0.03873702
61	0xbe3c2c59	-0.18376292
62	0x3f22c991	0.63588816
63	0xbc719b24	-0.014746461
64	0xbf8f2b7a	-1.1185143
65	0xbf91eb9f	-1.1400031
66	0xbe950eab	-0.29112753
67	0x3da7bb94	0.081900746
68	0x3f711711	0.9417582
69	0xbf0d34da	-0.5515877
70	0x3f2a3b4e	0.6649674
71	0x3f9dea59	1.2337142
72	0x3f749c08	0.95550585
73	0xbf7397b8	-0.9515338
74	0xbfd568f5	-1.6672655

fc1.bias f4 [25]
0	0xbe84f60a	-0.25968963
1	0x3f25163f	0.6448707
2	0x3f48e99f	0.7848148
3	0xbee85e6c	-0.45384538
4	0x3e3929c8	0.18082345
5	0xbf10acc1	-0.565136
6	0xbeb3cf17	-0.35118935
7	0x3f2e4c3a	0.6808506
8	0x3f0338f2	0.51258767
9	0x3e6b65a8	0.22987998
10	0x3e93c78b	0.28863177
11	0xbe6f1bd4	-0.2335046
12	0xbdf5cffb	-0.1200256
13	0x3e6e0220	0.23242998
14	0x3e703886	0.23459062
15	0x3f32b863	0.698126
16	0x3ef034c7	0.46915266
17	0x3f061a46	0.5238384
18	0x3ec332af	0.38124606
19	0x3f0aea97	0.54264206
20	0xbe5a5c07	-0.21324168
21	0x3f856d71	1.0424024
22	0xbe96ecc0	-0.294775
23	0xbf10dba4	-0.56585145
24	0x3f317f26	0.6933464

fc2.weight f4 [25, 25]
0	0xbe41c889	-0.18924154
1	0xbdf0b346	-0.11752944
2	0xbe8a0701	-0.2695847
3	0xbde019a2	-0.10942389
4	0x3e87b96d	0.26508656
5	0x3dc81b21	0.097707994
6	0x3da78745	0.081800975
7	0xbe0b3c9d	-0.13597341
8	0x3eaedf01	0.34154513
9	0x3e47edbd	0.19524284
10	0x3e887419	0.26651075
11	0xbd557e92	-0.05212266
12	0x3e4d98fa	0.20077887
13	0x3e5ff46e	0.21870586
14	0x3e1254fe	0.14290234
15	0x3d0ec9af	0.03486031
16	0xbe3936e3	-0.18087344
17	0xbd4a8805	-0.049446125
18	0xbdddb606	-0.10825734
19	0x3bb2e7a8	0.0054597445
20	0xbe32d86e	-0.17465374
21	0xbea7ac52	-0.32748657
22	0xbd7fd48e	-0.062458567
23	0x3cb5b5c4	0.0221814
24	0xbcabc1ac	-0.020966373
25	0xbd7803f2	-0.060550638
26	0x3e21e9f4	0.15811902
27	0x3dbc96f5	0.0920848
28	0x3d3b041f	0.045658227
29	0x3c219a62	0.009863468
30	0xbdf36fad	-0.11886535
31	0x3d2472ca	0.040148534
32	0x3d2cd526	0.04219546
33	0xbe5d10c9	-0.21588434
34	0xbe530248	-0.20606339
35	0xbe0a7061	-0.13519432
36	0x3d31efce	0.043441586
37	0xbd2b6bc8	-0.041850835
38	0xbddd60ab	-0.108094536
39	0x3d2fc734	0.042914584
40	0x3e4c44f5	0.1994818
41	0xbc614262	-0.013748737
42	0xbcfdf586	-0.031000864
43	0x3e8dfb7c	0.2773093
44	0x3d4472ee	0.047961168
45	0xbd8133a3	-0.06308677
46	0x3e7bc0bf	0.24585246
47	0xbb7bf8e9	-0.0038447923
48	0xbe278b2e	-0.16361687
49	0x3e7069ff	0.23477934
50	0xbe5c9703	-0.21541981
51	0x3e769069	0.24078526
52	0x3e34df9d	0.17663427
53	0xbe16f183	-0.14740567
54	0x3d27e734	0.040991977
55	0xbea71a3f	-0.32637212
56	0xbd51e3c0	-0.05124259
57	0x3e0acaa7	0.13553868
58	0xbe034a51	-0.12821318
59	0x3d358d4f	0.044324216
60	0x3d5d7ee9	0.05407611
61	0xbe193bd8	-0.14964235
62	0xbe453c01	-0.19261171
63	0x3d076eb2	0.03306455
64	0x3dcb44d6	0.09925239
65	0x3e05fadb	0.13083975
66	0x3c65cbf5	0.014025678
67	0x3e680462	0.22657922
68	0x3e096f93	0.13421468
69	0x3e6ed93a	0.23325053
70	0x3ab5a914	0.0013859593
71	0xbd3056cb	-0.043051522
72	0xbd5ea384	-0.05435516
73	0xbeb87a7a	-0.36030942
74	0x3d8801be	0.06640957
75	0xbda04091	-0.07824815
76	0xbe846700	-0.25859833
77	0xbdbb5ab7	-0.09148162
78	0x3e0abc5a	0.13548413
79	0x3e172a52	0.14762238
80	0xbd42ef94	-0.04759176
81	0x3db61180	0.088900566
82	0x3c9382e4	0.01800675
83	0x3d688741	0.056769613
84	0x3eac04d3	0.3359743
85	0x3e406064	0.1878677
86	0xbe19e9ce	-0.15030596
87	0x3dc0d04e	0.09414731
88	0xbd3b79b1	-0.04577035
89	0x3dbde1f8	0.09271616
90	0xbce5347e	-0.027979132
91	0xbe83be86	-0.25731295
92	0xbe066df1	-0.13127877
93	0x3dda718b	0.10666188
94	0xbe3a3080	-0.18182564
95	0xbe2053f7	-0.1565703
96	0xbd761345	-0.06007697
97	0xbd56659a	-0.05234299
98	0x3e0f7d13	0.14012556
99	0xbd807ddb	-0.06274005
100	0xbc27aa9d	-0.0102335485
101	0xbd605103	-0.05476476
102	0x3e5071ab	0.20355861
103	0x3d031408	0.032001525
104	0xbe30b360	-0.17255926
105	0xbd6ea421	-0.058261994
106	0xbc8ead69	-0.017416673
107	0x3e1cc739	0.15310372
108	0xbe2465b7	-0.16054426
109	0xbe1ffc45	-0.15623577
110	0x3ca17baf	0.019712297
111	0x3df7c8b0	0.12098825
112	0xbe3a12ff	-0.18171309
113	0xbda8d9cb	-0.08244666
114	0xbd0d4845	-0.03449275
115	0xbdcb8f47	-0.09939437
116	0x3d86ad82	0.06576063
117	0x3a76e7ea	0.0009418713
118	0xbdd5ecac	-0.10445532
119	0xbd9492e1	-0.072545774
120	0xbc59cfb5	-0.01329415
121	0x3e1a0f36	0.15044865
122	0x3e4d9cc4	0.20079333
123	0x3e0b6484	0.13612562
124	0x3cd89e4f	0.026442675
125	0x3e5e5232	0.21711043
126	0xbe436dd3	-0.19084863
127	0x3dcb3177	0.09921544
128	0xbd70ceb4	-0.058790877
129	0xbd099896	-0.033592783
130	0xbda6a767	-0.08137398
131	0x3e4e7686	0.201624
132	0x3e08e3a3	0.13368087
133	0x3da8e4e4	0.082467824
134	0x3dd1bd6e	0.10241209
135	0xbd170b08	-0.036875755
136	0x3d5d4362	0.05401934
137	0x3d8a2376	0.06745045
138	0x3dda7618	0.10667056
139	0xbe098f05	-0.13433464
140	0xbd8c110f	-0.06839191
141	0xbda4b76a	-0.08042796
142	0xbd6cb708	-0.05779174
143	0xbe58d6bc	-0.21175665
144	0xbc1064a2	-0.008813055
145	0x3cf64c8f	0.030065803
146	0x3d3d93c8	0.046283513
147	0x3e3132c9	0.17304529
148	0xbd2100cf	-0.03930741
149	0xbd3359b2	-0.043786712
150	0x3d25215b	0.040315013
151	0x3da0de25	0.07854871
152	0x3e3f7e83	0.18700604
153	0x3c037cc3	0.008025351
154	0x3e16ae50	0.14714932
155	0xbd93cc8e	-0.0721675
156	0xbcff8c70	-0.031194896
157	0x3c9de4d9	0.019274162
158	0x3e12fb1a	0.143536
159	0x3df05368	0.117346585
160	0xbd7d6cd2	-0.061871357
161	0xbc7c1654	-0.015386183
162	0x3db8abab	0.09017118
163	0x3dc759f7	0.09733956
164	0x3cfdca02	0.030980114
165	0xbd8361ee	-0.06415163
166	0xbc0358d1	-0.008016781
167	0x3e5b51eb	0.21417968
168	0x3e587975	0.21140082
169	0xbd83502e	-0.064117774
170	0xbe88fa9d	-0.26753703
171	0xbdd1f25a	-0.10251303
172	0xbe935454	-0.28775275
173	0xbe80950f	-0.25113723
174	0xbced5576	-0.028971415
175	0x3e6769ba	0.22598925
176	0xbcc39d16	-0.023878615
177	0xbdfe1ba0	-0.12407613
178	0x3e30c85d	0.17263933
179	0xbe5147de	-0.20437571
180	0x3eb99423	0.36245832
181	0xbd8fbde6	-0.07018642
182	0xbcae4752	-0.021274243
183	0xbda6e5dd	-0.08149312
184	0xbd1fc6ab	-0.039007824
185	0xbe6521c3	-0.2237616
186	0xbc5507d4	-0.013002355
187	0x3e37f353	0.17963915
188	0xbe003c8e	-0.125231
189	0x3d878af1	0.06618298
190	0xbdeec91c	-0.11659452
191	0xbd9982be	-0.0749564
192	0xbdd51a94	-0.1040546
193	0xbea4407d	-0.3208045
194	0x3c2b6a24	0.010462318
195	0x3e88c583	0.2671319
196	0x3d01cdd4	0.031690434
197	0x3e56339a	0.20918122
198	0x3eb2f212	0.3495031
199	0xbe887089	-0.26648358
200	0x3e131f92	0.14367512
201	0x3dad7625	0.084698
202	0xbe55ec0c	-0.20890826
203	0x3d7adf15	0.061247904
204	0xbcb58644	-0.02215875
205	0x3e0e29d6	0.13883147
206	0x3d6faa4f	0.05851203
207	0xbcacf37d	-0.021112198
208	0x3de8bafa	0.11363788
209	0x3d76e08a	0.06027273
210	0xbe1af0f3	-0.15130977
211	0xbe126caf	-0.14299272
212	0x3e0a217c	0.13489336
213	0x3e3c3154	0.18378192
214	0x3d477bcd	0.04870205
215	0x3d5e0135	0.05420037
216	0xbc825e82	-0.015914205
217	0xbd0a18e4	-0.033715144
218	0xbe21e8b7	-0.1581143
219	0xbe64c583	-0.2234097
220	0xbe178c65	-0.1479965
221	0x3d1d05db	0.038335662
222	0x3df990bd	0.1218581
223	0xbcd3a115	-0.025833646
224	0xbe779da0	-0.24181223
225	0x3ca6da76	0.020367842
226	0xbd36c03c	-0.044616923
227	0xbe70845c	-0.23487991
228	0x3e3ac5d3	0.18239526
229	0xbb34d4c8	-0.0027592648
230	0x3e99466a	0.29936534
231	0x3dad1c1c	0.08452627
232	0xbdda9573	-0.106730364
233	0x3e341003	0.17584233
234	0x3e2ea401	0.1705475
235	0x3d7ba2f4	0.0614347
236	0x3e0873d2	0.13325432
237	0x3e0a0660	0.13478994
238	0xbe264790	-0.16238236
239	0xbcf71013	-0.030159032
240	0xbe4ddefb	-0.20104592
241	0xbda086fb	-0.078382455
242	0xbe846586	-0.25858706
243	0xbe04010c	-0.12891024
244	0xbe75a932	-0.23990324
245	0x3e4f21d9	0.20227756
246	0xbe271278	-0.16315639
247	0xbd97bf95	-0.07409588
248	0x3e31d80b	0.1736757
249	0xbe289167	-0.16461717
250	0x3d1b1238	0.03785917
251	0x3e0a2ba7	0.13493215
252	0x3cc8c7eb	0.02450939
253	0x3ce9d8c0	0.028545737
254	0xbd7391da	-0.059465267
255	0xbe03b486	-0.12861833

fc2.bias f4 [25]
0	0xbdd0951d	-0.10184691
1	0xbdf67ba4	-0.12035301
2	0x3d1a7f1e	0.037718885
3	0x3d037659	0.032095287
4	0x3b0aed42	0.0021198546
5	0xbe352000	-0.17687988
6	0xbd452fef	-0.048141416
7	0x3c653c44	0.013991419
8	0x3da25b39	0.079275556
9	0x3e0d3fce	0.13793871
10	0xbd625957	-0.055260982
11	0x3cb5e3a1	0.022203268
12	0xbe75b2a6	-0.2399393
13	0xbb3b5f74	-0.002859083
14	0xbd878427	-0.06617003
15	0x3def9ca1	0.116997965
16	0xbdfb365e	-0.12266229
17	0xbcf14af1	-0.02945468
18	0xbd9142d0	-0.070928216
19	0x3cdc85ff	0.026919363
20	0x3d42ee87	0.04759076
21	0xbd6a0769	-0.057135973
22	0xbe3f1b61	-0.18662788
23	0xbd63cdc6	-0.055616163
24	0x3e358508	0.17726529

fc3.weight f4 [25, 25]
0	0xbde9f5c0	-0.11423826
1	0x3e31019b	0.17285769
2	0x3e34f5e3	0.17671923
3	0xbe4fcb3d	-0.20292373
4	0xbe5878a6	-0.21139774
5	0xbe1a837b	-0.15089218
6	0x3e3d14df	0.18464993
7	0xbe3e404e	-0.18579218
8	0xbe7d7321	-0.2475095
9	0xbe74e2fb	-0.23914711
10	0xbd7b0117	-0.061280336
11	0x3e4160c6	0.18884572
12	0x3d672070	0.05642742
13	0xbe216809	-0.15762343
14	0x3e088953	0.13333635
15	0x3d371fad	0.044707943
16	0x3e37eef4	0.17962247
17	0x3da00b68	0.078146756
18	0x3b040ef6	0.002015052
19	0x3e1236e8	0.14278758
20	0x3cf96ba0	0.030446827
21	0x3e3f1f6c	0.1866433
22	0x3c527215	0.012844582
23	0x3e3f9d52	0.18712357
24	0xbe5a2ac3	-0.21305375
25	0xbd5b6375	-0.053561646
26	0x3e2ab922	0.16672185
27	0xbcb44137	-0.022003753
28	0xbd914794	-0.070937306
29	0x3db62520	0.088938
30	0x3c183e1d	0.009292153
31	0x3e180fab	0.14849727
32	0xbe38a05a	-0.1802992
33	0xbe4cab13	-0.19987135
34	0xbe267c25	-0.16258295
35	0x3dced6d1	0.10099567
36	0xbbb6e29a	-0.005581212
37	0x3dd183fb	0.102302514
38	0xbe0e32e8	-0.13886607
39	0x3e0df8c3	0.13864426
40	0xbe48a2cc	-0.19593352
41	0xbe20ab24	-0.15690285
42	0x3e3bfe0e	0.18358633
43	0xbe06da82	-0.13169292
44	0x3dc78a5f	0.09743189
45	0xbe20843d	-0.15675445
46	0x3db91a1a	0.090381816
47	0x3e31ff14	0.17382461
48	0x3e449125	0.19195993
49	0xbe0c52ce	-0.13703462
50	0x3dc5e279	0.09662337
51	0x3c7bcaef	0.015368207
52	0xbe38cedc	-0.1804766
53	0x3d9684ed	0.07349572
54	0xbe1256a8	-0.14290869
55	0x3d6887c4	0.0567701
56	0xbdc6ccb2	-0.09707011
57	0xbe0cd1a0	-0.1375184
58	0xbe1eb785	-0.15499695
59	0xbe408743	-0.18801598
60	0x3d798743	0.06092001
61	0xbe608fbb	-0.21929829
62	0x3de131a0	0.10995793
63	0x3d979a49	0.074024744
64	0xbe52dc23	-0.20591788
65	0x3db8aa16	0.09016816
66	0xbe57a0aa	-0.21057382
67	0x3dcb8122	0.099367395
68	0xbde4f24f	-0.11179029
69	0x3e1d7f83	0.15380673
70	0xbda640d3	-0.08117833
71	0xbe425545	-0.1897784
72	0xbdddb8d0	-0.10826266
73	0x3d46bd1a	0.048520185
74	0x3dbd3fdd	0.092406966
75	0xbde4aa3d	-0.11165283
76	0x3daa4005	0.08312992
77	0xbe38589a	-0.18002549
78	0xbdbe034c	-0.092779726
79	0xbe07cdab	-0.1326205
80	0xbce36404	-0.027757652
81	0xbe0ff028	-0.14056456
82	0xbdb1b536	-0.08677141
83	0x3e38a9c4	0.1803351
84	0xbe285d42	-0.16441825
85	0x3e3cb8fd	0.18429942
86	0xbcff89d8	-0.031193659
87	0xbd9d2da4	-0.07674721
88	0xbb462a30	-0.0030237548
89	0x3e2fb4c0	0.17158794
90	0x3de334c3	0.11094048
91	0xbe20e048	-0.15710557
92	0x3cdfa9c9	0.02730264
93	0x3c859200	0.01630497
94	0x3c780884	0.015138749
95	0xbc6ecefc	-0.014575716
96	0xbe4a2484	-0.19740492
97	0x3e18206c	0.14856118
98	0x3dee4528	0.11634284
99	0x3da016c2	0.07816841
100	0x3e274af6	0.16337189
101	0x3e1738b6	0.14767727
102	0x3dd485b3	0.103770636
103	0xbe19eace	-0.15030977
104	0xbce5b15a	-0.02803867
105	0x3e0e0aa9	0.13871254
106	0xbc8ac768	-0.016940787
107	0xbddc856f	-0.10767638
108	0xbde554ee	-0.1119784
109	0xbe74e04b	-0.23913686
110	0xbdfff0eb	-0.12497123
111	0x3c34e2aa	0.011040369
112	0x3dc07403	0.093971275
113	0xbe626f6a	-0.22112814
114	0x3e5cf502	0.21577838
115	0xbe71c0f3	-0.2360876
116	0x3a58d8cd	0.0008272052
117	0x3e4c8760	0.19973516
118	0x3e344c16	0.1760715
119	0x3df2946d	0.11844716
120	0xbcf1131e	-0.029428061
121	0xbe17de5f	-0.14830922
122	0x3dd026f6	0.10163681
123	0x3e4a890f	0.19778846
124	0xbd978933	-0.073992155
125	0x3c54a35a	0.012978399
126	0x3d61f129	0.05516163
127	0x3d92ec0a	0.07173927
128	0x3e13b7f3	0.1442564
129	0x3e15c0c2	0.14624313
130	0x3d9f25d0	0.07770884
131	0x3d0a0dd7	0.033704605
132	0xbe0cc9fc	-0.13748926
133	0xbd183f40	-0.037169695
134	0xbddea48c	-0.108712286
135	0xbe04fcb5	-0.12987025
136	0xbb8d8999	-0.0043193814
137	0xbd243a74	-0.040094808
138	0x3c3d0e6e	0.011539085
139	0xbb5e347b	-0.0033905793
140	0xbd511217	-0.051042642
141	0xbe2dc683	-0.16970257
142	0xbe5d4092	-0.21606663
143	0x3caf5f75	0.021407822
144	0x3ab3b301	0.0013709964
145	0xbde105ab	-0.10987409
146	0xbe2a73bf	-0.16645716
147	0x3e027c66	0.12742767
148	0x3e1ec3d2	0.15504387
149	0xbdd35ae7	-0.103200726
150	0x3d75d646	0.0600188
151	0xbdd2d841	-0.102951534
152	0x3ca66118	0.02030997
153	0xbe26d3ce	-0.16291735
154	0xbd5cf01e	-0.05393993
155	0xbde5762a	-0.11204179
156	0x3d5282f9	0.051394437
157	0x3d873194	0.06601253
158	0xbe421e60	-0.189569
159	0xbde1d047	-0.11026054
160	0x3ddfca61	0.109272726
161	0xbded77b8	-0.115951
162	0xbcc39be9	-0.023878055
163	0xbe1b8aea	-0.1518971
164	0x3e301421	0.17195179
165	0xbc47018e	-0.012146367
166	0xbdd0ecce	-0.10201417
167	0x3dae0d24	0.084986
168	0xbd561b5d	-0.05227219
169	0x3e2500a0	0.1611352
170	0x3d128ef3	0.03578086
171	0x3e304bb2	0.17216375
172	0x3dcf01a5	0.101077355
173	0x3ca4d744	0.020122178
174	0x3c8790cb	0.016548535
175	0xbe3e4711	-0.18581797
176	0x3cb97794	0.022640027
177	0xbddc10b3	-0.107453726
178	0xbe467fd1	-0.19384696
179	0xbd1473f9	-0.036243413
180	0xbded6e4c	-0.11593303
181	0x3df307c7	0.11866718
182	0xbe470776	-0.1943644
183	0xbe2cd64f	-0.16878627
184	0xbd171dcb	-0.036893647
185	0x3e3d061e	0.18459365
186	0x3dc311f1	0.095249064
187	0xbe218f13	-0.15777235
188	0x3e0bf7c7	0.13668738
189	0xbe20806a	-0.15673986
190	0xbc06733f	-0.008206188
191	0xbe518a13	-0.20462827
192	0xbd34fcd4	-0.04418643
193	0x3e3fa354	0.18714648
194	0xbd54fe4d	-0.052000333
195	0x3ded304d	0.11581478
196	0x3e018c47	0.12651168
197	0xbe3576cb	-0.17721097
198	0x3e2260c3	0.15857224
199	0x3b9f5db8	0.004863467
200	0xbce6b9de	-0.0281648
201	0x3d7239e9	0.05913726
202	0x3ddf39f7	0.10899728
203	0x3ddf0367	0.10889321
204	0xbe1ddd79	-0.15416516
205	0x3df1445a	0.11780615
206	0x3d82e19f	0.0639069
207	0x3dafd7f2	0.0858611
208	0x3d91123a	0.070835546
209	0xbdc3a1fa	-0.09552379
210	0x3e26f4f1	0.16304375
211	0xb962a233	-0.00021613463
212	0x3d6fdd06	0.058560394
213	0xbe498356	-0.19679007
214	0x3e34ccc2	0.17656234
215	0xbc7a6e24	-0.015285049
216	0xbdf65e74	-0.12029734
217	0xbe1dbec1	-0.15404798
218	0x3cfcaddd	0.030844623
219	0xbe48832d	-0.1958129
220	0xbe4fcefb	-0.202938
221	0xbe0fb0c2	-0.14032272
222	0x3dbbc3cb	0.09168204
223	0xbe4b14d6	-0.19832167
224	0xbdbbd3e3	-0.091712736
225	0x3c75ee20	0.015010387
226	0x3ca3c898	0.019993111
227	0xbbea1060	-0.0071430653
228	0xbe1d45ce	-0.1535866
229	0xbe4c86f8	-0.19973361
230	0x3e2f6e1b	0.17131846
231	0xbda31260	-0.07962489
232	0x3db961b2	0.09051837
233	0x3c2707e0	0.010194749
234	0x3cd5d858	0.026104137
235	0xbd9c6f9a	-0.07638474
236	0x3d58a1d4	0.052888706
237	0x3e3f2789	0.18667425
238	0x3d742764	0.05960788
239	0xbe134da6	-0.1438509
240	0xbdbe7d93	-0.09301295
241	0xbe3bd665	-0.18343504
242	0xbe37c073	-0.17944507
243	0xbe26a102	-0.16272357
244	0xbe4b7faa	-0.19872919
245	0xbe1ac5a5	-0.15114458
246	0xbc78e9a0	-0.015192419
247	0xbdd39aad	-0.103322364
248	0x3dc78122	0.09741427
249	0x3e457d47	0.19286071
250	0x3cfb4064	0.030670352
251	0x3e558673	0.2085207
252	0x3dfca193	0.12335505
253	0xbdcf150e	-0.10111438
254	0xbd906174	-0.07049838
255	0x3dcf6ced	0.10128198

fc3.bias f4 [25]
0	0x3dcd9331	0.1003784
1	0x3e346390	0.17616105
2	0x3cfc3fee	0.030792203
3	0xbd4f6763	-0.050635707
4	0x3cc93975	0.02456353
5	0x3e24d673	0.16097431
6	0xbe27f0df	-0.16400479
7	0xbc4cbb46	-0.012495821
8	0x3dcde23c	0.100529164
9	0xbe05ac92	-0.13054112
10	0x3d2dba46	0.042413972
11	0xbe2b861d	-0.16750379
12	0xbe245dc4	-0.16051394
13	0xbdf498e4	-0.11943224
14	0x3e003b15	0.12522538
15	0x3e340c6e	0.17582867
16	0x3e2ce1ed	0.16883059
17	0x3d1e13f7	0.03859326
18	0x3dfc7241	0.1232648
19	0x3d40bc02	0.0470543
20	0xbe2dfc9a	-0.16990891
21	0x3e0c3b2f	0.13694452
22	0xbe4929bd	-0.19644828
23	0x3dd6f3b0	0.104956985
24	0xbe4feaa6	-0.20304355

fcFinal.weight f4 [1, 25]
0	0x3d881e33	0.06646385
1	0x3d9d6606	0.07685475
2	0xbd51e636	-0.051244937
3	0xbd498f68	-0.04920903
4	0x3da28799	0.079360195
5	0xbd00940e	-0.031391196
6	0xbe4883f5	-0.19581588
7	0xbcf765c1	-0.030199887
8	0xbe050855	-0.1299146
9	0x3e1378a1	0.14401485
10	0x3d8cd59c	0.0687668
11	0xbba8c4f9	-0.005150434
12	0xbe1a2c7b	-0.1505603
13	0xbdf7033f	-0.12061166
14	0x3e17604a	0.14782825
15	0xbd86a65b	-0.065746985
16	0xbd21f9a1	-0.039544705
17	0xbe17c84b	-0.148225
18	0xbd42c4ac	-0.047550842
19	0xbe3076d8	-0.17232835
20	0xbddfa8b3	-0.10920849
21	0xbd91bb3d	-0.07115791
22	0xb9a34c00	-0.00031146407
23	0x3dce55ee	0.100749835
24	0x3d87a4ed	0.06623254

normalize2D.weight f4 [2]
0	0x3f800000	1.0
1	0x3f800000	1.0

normalize2D.bias f4 [2]
0	0x00000000	0.0
1	0x00000000	0.0

normalize2D.running_mean f4 [2]
0	0x00000000	0.0
1	0x00000000	0.0

normalize2D.running_var f4 [2]
0	0x3f800000	1.0
1	0x3f800000	1.0
