stock market/trained_weights/OC_NN/v1.pth (torch, 10866 bytes, 11 tensors)

fc1.weight f4 [25, 3]
000000 77 2c b5 3e 03 e6 21 3e f6 91 03 bf f4 f1 f4 be
       0.35385486 0.15810399 -0.51394594 -0.47840846
000010 bc a8 c3 be 70 46 9b be 6a f4 fd 3d 56 e5 4a bf
       -0.38214672 -0.30327177 0.12400134 -0.7925619
000020 7d d0 06 bf 8d d4 f2 be 65 fd d5 3c a3 87 13 be
       -0.5266188 -0.47427788 0.026121804 -0.1440721
000030 53 c4 e4 3e 3b 1f d2 3d 11 62 bd be 74 20 24 3f
       0.44681033 0.10259863 -0.3698888 0.6411202
000040 ef 35 08 bf 1d a3 c7 bd 83 0d a3 3e d7 99 d5 be
       -0.53207296 -0.09747908 0.31846246 -0.41718933
000050 1b e2 0e bf 41 2f fa 3e 4f 6b ff be e5 0a fb 3d
       -0.5581376 0.48864177 -0.49886557 0.12257937
000060 d4 84 97 be db 21 24 3e 13 94 14 3e a4 ac b9 3d
       -0.29593527 0.1602854 0.14509611 0.09066132
000070 b5 2f 85 be 09 e3 0b bf 4d 24 d9 3e df 4f 0c bf
       -0.2601296 -0.54643303 0.42410508 -0.54809374
000080 a3 5f 0e 3e cd c0 ad 3e 28 c0 f6 be 35 45 c2 be
       0.1390367 0.33936158 -0.4819348 -0.37943426
000090 73 18 f9 3e 87 ad a7 3e 62 c9 87 be 56 b6 41 bd
       0.48651466 0.32749578 -0.2652083 -0.04729303
0000a0 49 37 6d 3e f7 40 53 be 96 28 5f 3e 33 16 bc 3e
       0.23165621 -0.20630251 0.21792826 0.36735687
0000b0 26 a0 16 bf 81 7b fb bc 0b 3e e1 be fa 42 c9 3e
       -0.5883812 -0.03069854 -0.43992648 0.39308912
0000c0 77 4e a0 be 3c 3a b1 3e b9 e7 1c 3f 2a a4 1d bf
       -0.31309864 0.34614742 0.6129108 -0.6157862
0000d0 02 39 08 bf d4 d3 07 3e e9 a0 cc be 0e 9d f1 be
       -0.53211987 0.132644 -0.39966515 -0.47190136
0000e0 5a 32 53 be 9c f6 01 be eb 35 e9 3e b4 fe 09 3f
       -0.20624676 -0.1269173 0.4554895 0.5390427
0000f0 3c c5 5d bd 40 f9 bf be c3 07 be be 6e 26 d9 be
       -0.054143175 -0.3749485 -0.37115297 -0.42412132
000100 4f fb 8d be a8 a7 0b be 1d 19 99 be 5c a9 30 3e
       -0.27730796 -0.13638175 -0.29901972 0.17252105
000110 4a 1b 00 3e ad aa 61 3d f9 f0 ab be ec 8f a9 3e
       0.1251041 0.05509441 -0.33582285 0.33117616
000120 74 53 5b be 78 e9 c5 be a9 ef c1 be
       -0.21418554 -0.38654685 -0.3787816

fc1.bias f4 [25]
000000 89 9d a6 3e 8a 81 fb 3e b1 d6 0f 3f 27 76 87 bd
       0.32542065 0.49122268 0.5618697 -0.06614333
000010 7f 22 da 3e 5a 44 ba bc d2 ab 42 3d 11 d6 57 3d
       0.42604443 -0.02273767 0.047527142 0.052694384
000020 85 84 bb 3d 96 1b c7 3d bf 17 71 be cd e4 c2 be
       0.091561355 0.097220585 -0.23544215 -0.38065186
000030 0b 25 e5 be 33 cc e7 3e bc ae 6d 3e 00 20 a2 be
       -0.44754824 0.4527298 0.23211187 -0.3166504
000040 ff d8 99 3e 7f d3 fe 3d 0a 61 6c be 20 66 43 be
       0.30048367 0.124426834 -0.23083892 -0.19081926
000050 f9 e7 5a 3e 38 a0 b4 3e 35 dc 3a be 6c 01 f5 bd
       0.21377553 0.35278487 -0.18248065 -0.11963162
000060 ac b9 94 3d
       0.072619766

fc2.weight f4 [25, 25]
000000 aa d9 d2 3d 4c 65 30 3e 10 52 99 bd 93 e0 c5 bd
       0.102954224 0.17226142 -0.07486355 -0.09661975
000010 79 98 b9 bd 18 cc 99 3d 71 a2 71 bd 75 e0 75 3b
       -0.09062285 0.07509631 -0.058992807 0.003751782
000020 6b 8b ce bd ed cb 04 bd f4 d4 cd bd c1 d8 8f 3b
       -0.100851856 -0.03242104 -0.10050383 0.0043898528
000030 86 39 84 bd 3e 45 30 bc d8 3a 13 be d9 a6 03 3e
       -0.06456284 -0.010758696 -0.14377916 0.12856616
000040 f7 7c 24 3e 58 fb 02 3e 79 3e 90 bd 97 47 9f 3d
       0.16063295 0.12791193 -0.07043166 0.077773266
000050 b4 ba 60 bd db 36 03 be cf 55 f9 3d 74 62 ae bd
       -0.054865554 -0.12813894 0.1217457 -0.08514872
000060 aa 67 20 3d 86 47 f0 bc 47 3b 47 3e 82 1c 8d 3d
       0.03916136 -0.02933098 0.19456206 0.06890203
000070 26 c9 e2 3d 19 aa 0e be c4 98 06 be a0 bb e0 bd
       0.11073522 -0.13932075 -0.13144213 -0.10973287
000080 37 09 f2 3d a4 16 cd 3d 3f 77 fc 3d f5 c4 02 3d
       0.11818164 0.10014084 0.12327432 0.031926114
000090 28 6b 00 be 1f 0f 2b 3e b0 b9 95 bb 79 06 03 be
       -0.12540877 0.16704987 -0.004569255 -0.12795438
0000a0 0f 98 16 be f6 21 df 3d 3c 13 62 3d d8 ee fc bd
       -0.14706443 0.108951494 0.055194125 -0.12350243
0000b0 4c 75 79 3d 10 71 03 3c a3 95 28 be 1e 86 28 be
       0.06090288 0.008022562 -0.16463332 -0.16457412
0000c0 0b b2 f0 3d dc ce 2b be 5b f9 d1 3d 40 34 10 be
       0.11752709 -0.1677813 0.10252639 -0.14082432
0000d0 ae 5a f2 3d 90 9b 87 bd 78 57 83 bd 3d b8 a8 3d
       0.11833702 -0.06621468 -0.06413168 0.08238266
0000e0 42 30 32 3c d7 63 13 be d9 7f 21 3e e0 6b 20 3d
       0.010875763 -0.14393555 0.15771426 0.039165378
0000f0 ad a9 38 be ed 5b 7b bd 12 cf 6d bd 2e 6f d6 3d
       -0.18033476 -0.061366964 -0.058058806 0.104704246
000100 11 f6 7e 3c ea d5 01 3e a3 7e 79 3d 96 c7 22 bd
       0.0155615965 0.12679258 0.060911786 -0.03974112
000110 78 06 3a be e2 6a 93 bd 56 49 19 3e 27 4a 5d be
       -0.1816653 -0.07198121 0.14969382 -0.21610318
000120 63 35 8b bd b2 95 89 bd 50 05 e2 bd 70 67 d8 bd
       -0.06797292 -0.06718005 -0.110361695 -0.10566604
000130 a6 8e 19 be dd 92 2e be 86 40 06 3d a9 16 1c be
       -0.14995822 -0.17048211 0.032776378 -0.15243019
000140 af 4d 87 3e f0 92 24 3e 18 c1 01 be 73 59 48 bd
       0.26426455 0.16071677 -0.12671316 -0.04891343
000150 84 21 c1 3d 57 a9 0c 3c 44 c6 a4 bd a7 34 aa bd
       0.09430221 0.008585296 -0.08045629 -0.08310824
000160 01 76 49 bc d8 17 8e 3d 8f 3a 60 3d b4 f4 0d 3e
       -0.012296201 0.069381416 0.054743346 0.13862878
000170 7d 50 84 3d 7b a8 16 3e 10 32 20 3e c1 b6 44 be
       0.064606644 0.14712708 0.15644097 -0.1921034
000180 e0 e6 7b bd 9d 8d 74 bb 9d a1 16 3d a9 ec d7 3d
       -0.061499476 -0.0037315853 0.03677522 0.10543186
000190 e2 4e 2b 3e e8 e9 c0 bd 7e 7d a9 3d c4 fd a6 bd
       0.1672931 -0.09419614 0.08275889 -0.08153871
0001a0 8f fa bb bd 51 20 34 bc 1e 2c 4c bc 77 42 12 3e
       -0.0917865 -0.010994033 -0.01246169 0.14283167
0001b0 5d da 31 be 63 51 bf bd c6 8d 0b 3e 40 93 0c 3e
       -0.17368455 -0.09341695 0.13628301 0.13728046
0001c0 d4 a7 86 3d 26 9e 03 be 02 66 0d 3e 34 98 53 bc
       0.065749794 -0.12853298 0.13808444 -0.012914706
0001d0 f4 51 cc bd ea 97 b2 bd 18 e9 b7 bd 69 97 1d bd
       -0.09976569 -0.087203816 -0.08980006 -0.038474474
0001e0 8d 5a 02 3e 51 1c 7c bd 42 6e b0 bd 29 2a 84 3d
       0.12729855 -0.061550442 -0.0861478 0.06453354
0001f0 85 69 ad bd fc 90 da 3d 7c 5d 88 bd 1b 40 fd bd
       -0.08467392 0.10672185 -0.06658456 -0.12365743
000200 4c f6 1e bd b0 d2 da 3d ec e7 c0 3d c4 05 52 be
       -0.038809106 0.10684717 0.094192356 -0.20510012
000210 d4 f3 27 3d ef 8d 04 3e 14 97 7e 3d 99 70 b7 bb
       0.041004017 0.12944768 0.062155798 -0.0055981395
000220 72 cf 14 3c 65 8f db bd 14 11 e2 bb b3 b8 58 3d
       0.009082662 -0.1072071 -0.0068990085 0.052910518
000230 bf 86 c5 bd 5f 6b a0 3d cb 08 5e 3d d1 d7 0f bd
       -0.096448414 0.078329794 0.054207604 -0.035117928
000240 82 c1 39 3d 34 02 9c bd d2 45 09 3e 44 cb 7f bd
       0.04535056 -0.07617608 0.1340554 -0.06244971
000250 84 a7 1f be ce 9f 0d be cb 9d 28 be 67 25 b3 bd
       -0.15591246 -0.13830492 -0.16466443 -0.08747368
000260 a8 3c c2 3d 3e 7c 1a 3e 14 ce 0c 3e 57 b2 27 3d
       0.094842255 0.15086457 0.13750488 0.040941563
000270 cc 32 63 3d a9 6f 65 bd bb 06 f1 3a 9d 10 c9 3d
       0.055468366 -0.05601469 0.0018388847 0.09817622
000280 0a 7d 5f be b7 72 0a be a3 c5 39 be 19 af 2c 3e
       -0.21825042 -0.13520323 -0.18141799 0.1686367
000290 ec f0 ff bd 67 73 63 bc 28 99 f2 3d 81 b3 60 bd
       -0.12497124 -0.0138824945 0.118456185 -0.05485869
0002a0 5e 93 ab 3d f1 81 0d 3d ed eb 51 3e bb 89 82 bd
       0.083777174 0.03454775 0.20500155 -0.06373926
0002b0 4d b4 14 3e ed 76 5e 3c 6e fa 1b 3d 25 43 e6 3c
       0.14521904 0.013578159 0.038080625 0.028108189
0002c0 d5 12 8a 3b f9 58 c3 ba 4c ba bd 3d f2 23 ca bb
       0.0042136707 -0.0014903835 0.09264049 -0.006168836
0002d0 4f 7a 20 bd af b9 4a 3d bc bb 5d be d7 03 59 3e
       -0.039179143 0.049493488 -0.21653646 0.21192871
0002e0 92 dc 70 bd 37 e7 04 bc 8e dc 32 3e e3 dc 8f bd
       -0.058804102 -0.008111767 0.17466947 -0.07024553
0002f0 01 0f 11 3d 8d b1 75 bc cf 74 1c be e1 ef 35 3e
       0.0354147 -0.014995945 -0.15278934 0.17767288
000300 26 a5 30 3e 42 24 8a 3d 30 26 2d be 71 95 ee bd
       0.17250499 0.06745197 -0.16909099 -0.116495974
000310 39 46 72 3d f8 a6 2e 3e 3d e3 22 be b1 8f fc 3d
       0.059149 0.17055881 -0.15906997 0.123320945
000320 25 0c 7a 3c 51 72 05 be 97 4c dc bd af 13 f2 bd
       0.015261685 -0.1303189 -0.10756796 -0.118201606
000330 0b ff 0d be 9b 2a 27 3d 23 85 23 3d e7 f5 39 be
       -0.13866822 0.040812116 0.03992189 -0.1816021
000340 ac 52 f7 3d 73 de fe bd f3 52 3b 3e 18 cd 07 3e
       0.12076315 -0.124447726 0.18293361 0.13261831
000350 b1 07 0e 3e f1 a2 19 3e bd 98 58 3c cf 6a 2e 3e
       0.13870122 0.15003563 0.013220009 0.17032932
000360 8d 4c 24 3d 17 83 30 3e 8c f6 3b bd 5b 82 34 be
       0.040112067 0.17237507 -0.045889422 -0.17627852
000370 be 1a b1 3d 49 fb 0b bd 56 10 90 bd 07 d5 af 3d
       0.08647679 -0.03417519 -0.07034366 0.085855536
000380 9c 6a 1c 3e 07 6b 16 be 46 ea 0f be 3b 4b fa 3c
       0.15275043 -0.14689265 -0.14054212 0.03055345
000390 d0 54 17 bd e5 26 14 3e eb 45 57 be 4b 65 0d be
       -0.036946118 0.14467962 -0.21022765 -0.13808171
0003a0 84 78 2f bd f9 ec ea 3d 36 61 56 bd 6e 32 87 38
       -0.042839542 0.1147098 -0.0523388 6.446695e-05
0003b0 da 68 f8 3d d6 5e a5 3d 9a ab 06 bd 12 05 b7 3d
       0.12129374 0.08074729 -0.032878496 0.08936514
0003c0 03 37 0e 3e 2b 68 2e be ca 5e ad bc 4a 1b 9c 3d
       0.13888173 -0.17031924 -0.021163363 0.076223925
0003d0 2b d4 1e bd 57 21 f4 3c 78 94 fe bc 22 b5 05 3e
       -0.038776558 0.029801054 -0.031076655 0.13057378
0003e0 1c 6e f2 3d ae 45 a7 3d 28 49 ed bc 00 08 9b bd
       0.11837408 0.08167587 -0.028965548 -0.07569885
0003f0 59 f5 f5 bd c6 60 1c be cd 73 08 3d b2 9e c7 3d
       -0.12009687 -0.15271291 0.03331356 0.097470656

fc2.bias f4 [25]
000000 1f 8c 28 3e 30 46 0a be ff 74 33 3e 16 ed dd bc
       0.16459702 -0.13503337 0.17525099 -0.02709059
000010 a3 a7 3e 3d c9 ff 17 bc 9c 1f 15 be 0d 73 be bd
       0.04654659 -0.0092772925 -0.1456284 -0.09299288
000020 a3 f2 22 bd 44 4a 78 3d 7c 94 00 3e bd c6 24 3e
       -0.039782178 0.0606177 0.12556642 0.16091438
000030 9b ca b4 bd 75 38 e2 3d 66 d6 ef bd c3 a0 26 3d
       -0.088277064 0.110459246 -0.11710815 0.040680658
000040 d5 01 3a bd 76 b6 fa 3d e0 0a 00 be 72 cd c1 3c
       -0.045411903 0.12241833 -0.12504148 0.023657534
000050 a1 6a a7 3d ca 1c d5 bd cf c6 c2 bd 55 8a 3e 3e
       0.08174635 -0.10405882 -0.09510576 0.18607457
000060 d3 60 4a bd
       -0.049408745

fc3.weight f4 [25, 25]
000000 d0 4f 97 bc 92 ec 90 3d 2d 09 02 be c6 c9 8c bd
       -0.018470675 0.07076372 -0.12698813 -0.06874423
000010 77 5b b8 bd 0c 04 06 be 80 e0 13 bc 98 48 9e bc
       -0.090018205 -0.13087481 -0.009025693 -0.019321725
000020 76 0c 0d be 81 17 44 3e d1 c3 0e 3e 20 16 2b bd
       -0.13774285 0.19149591 0.13941886 -0.041769147
000030 b3 91 f9 bd 15 14 37 be 0a fb d9 3d db 8f 1f 3e
       -0.12185993 -0.17878754 0.10643585 0.1558222
000040 74 76 34 3d 54 ba 05 3d fd 84 47 be bb e3 32 be
       0.04405828 0.0326484 -0.19484325 -0.17469685
000050 b7 84 ae bd 8a 40 a1 3d 92 fe c8 3d 30 c6 14 be
       -0.08521407 0.07873638 0.098141804 -0.14528728
000060 ed 88 0a be fd 00 a4 bd d2 f2 51 bd 29 a4 07 3e
       -0.13528796 -0.08008001 -0.051256962 0.13246216
000070 8a dd 89 3c 2c 27 85 bd 47 c3 c6 bd 68 68 69 bd
       0.01682927 -0.06501612 -0.09705215 -0.056984335
000080 58 bf 9c bd 44 32 a3 3d 1a e6 2f be 03 c5 23 bc
       -0.076536834 0.07968572 -0.1717762 -0.009995702
000090 5a bb 2b 3e 35 ef d3 bd 0d 5d 5a bd 6f 9c 23 be
       0.16770688 -0.103483595 -0.053311396 -0.15977643
0000a0 86 de 1d 3e 78 cd bf bd 24 52 69 3d 37 d5 51 bd
       0.15416917 -0.09365362 0.0569631 -0.05122873
0000b0 93 f4 a2 bd b0 c9 90 bb 91 22 e7 bd 33 8f e7 3c
       -0.07956805 -0.0044185743 -0.1128589 0.028266525
0000c0 75 21 ad 3d 8c 4d 2d bc 59 ad 07 3e bc e1 7e 3d
       0.08453647 -0.010577571 0.1324972 0.062226996
0000d0 60 58 2e be 3c 43 02 be ec 8e 51 bd 04 c4 93 bd
       -0.170259 -0.1272096 -0.05116169 -0.072151214
0000e0 b2 63 a4 3d 00 99 ea ba 94 32 2f 3d 00 fc 19 3b
       0.08026828 -0.0017898381 0.042772844 0.002349615
0000f0 00 5c 60 bc 4c e4 69 bd 83 53 1b 3e 22 2c 21 be
       -0.0136938095 -0.057102486 0.15168576 -0.15739492
000100 a0 d8 a0 bb de 51 e5 3d 88 26 0a 3d 50 93 96 3c
       -0.004908636 0.111972556 0.033728153 0.018380791
000110 96 2e 19 be 70 ec a7 bc 3d 12 d8 bd f4 a8 1a bd
       -0.14959177 -0.020498484 -0.10550354 -0.037758783
000120 0d d2 37 3e dd b9 18 be e6 e0 af 3d d4 bc 4d 3d
       0.17951222 -0.14914651 0.08587818 0.05022891
000130 2e 43 f4 3d aa ac 92 bd a0 49 c1 bd 28 69 8f 3c
       0.11926876 -0.07161839 -0.09437871 0.017506197
000140 d5 46 1e be 08 8d 1c bd cc 55 06 3d 87 bb 44 be
       -0.15456708 -0.038220435 0.032796666 -0.19212161
000150 b0 45 f7 bd 46 47 0d be b0 6c ec bc d5 79 1d 3e
       -0.12073839 -0.1379672 -0.02886042 0.15378506
000160 00 bc 65 3b cb e7 10 be c3 51 e5 bd 81 35 1e 3e
       0.0035054684 -0.14150922 -0.111972354 0.15450098
000170 20 6d a4 bd 11 5d 1e 3e 08 ea 04 be a8 6e b7 3c
       -0.080286264 0.1546519 -0.12979901 0.022391632
000180 68 4e f1 3c dd 1d a6 bd 70 fc a7 3c 47 2d 31 be
       0.029456332 -0.08111165 0.020506114 -0.17302428
000190 4b 97 11 3e 9b cf 1e be d1 1f 18 3d 3e ad 8f bd
       0.1421787 -0.15508883 0.037139717 -0.07015465
0001a0 0a 35 32 3e 42 4a 31 3e 94 11 31 be d0 62 c6 3d
       0.17403045 0.17313483 -0.17291862 0.09686816
0001b0 70 9f f1 bd a4 c3 08 3d 1b b9 19 3e ec 50 a8 3d
       -0.117979884 0.033389702 0.15012018 0.082185596
0001c0 17 c5 b1 3d 2a 71 e4 3d 76 17 16 be 9b 7c 83 bd
       0.0868017 0.11154397 -0.14657387 -0.06420251
0001d0 4d 27 1c bd 03 af 13 3d 57 12 2a be 0d a4 5a 3d
       -0.038123418 0.036055576 -0.16608559 0.053379107
0001e0 ff 12 de bd 2a c7 15 3e 36 0f d0 bd 08 d1 b1 b9
       -0.10843467 0.14626756 -0.10159151 -0.0003391581
0001f0 4e 45 bf 3d 3b 84 31 bd f2 81 0f 3e 54 fe 84 bd
       0.09339391 -0.043338995 0.14014414 -0.06493822
000200 88 b9 36 3d e2 bf 1e 3e 86 85 43 3e f8 24 96 bd
       0.04461053 0.15502885 0.19093904 -0.0733127
000210 1d ce ef 3d 3a 96 24 be 2e 01 1a 3d 25 ad b2 bd
       0.11709235 -0.16072932 0.03759878 -0.08724431
000220 23 fc af bc ec b4 04 3e b7 c5 20 3e 27 5e 37 bd
       -0.021482533 0.12959641 0.15700422 -0.044767525
000230 59 28 71 bd fc 4d 89 bd 8d a8 a8 3c a7 b2 af bd
       -0.05887637 -0.067043275 0.020588184 -0.08578997
000240 b4 07 20 be 38 c0 a8 bd 07 37 91 3d 5e 8e 0c bc
       -0.15627939 -0.08239788 0.07090574 -0.008578865
000250 92 81 95 bd 81 1e 51 be 95 68 9a 3d 0b 18 a5 bb
       -0.07300104 -0.20421793 0.07539479 -0.0050382665
000260 97 0b 2a 3e 97 42 4d bc f6 91 dc bd d9 de 39 3d
       0.16605984 -0.012528083 -0.10770027 0.04537854
000270 0b b7 c5 3c c2 fe cf 3d 78 49 49 be 27 2d 0d be
       0.024135133 0.10156013 -0.19656932 -0.13786756
000280 36 36 24 be 27 e0 84 bc a9 71 1c be f1 bc 21 3e
       -0.16036305 -0.016220165 -0.15277733 0.15794732
000290 64 e4 22 be 79 a3 42 3d 2c 82 ad bd af 73 2d bd
       -0.15907437 0.04751918 -0.08472094 -0.042346653
0002a0 f6 5d 1f be 3c b5 db 3d fc 2c 57 be 3e 71 c5 3d
       -0.15563187 0.10727927 -0.21013254 0.0964074
0002b0 26 3a 2b 3d 71 74 8c 3d 45 3c 06 3e 05 52 38 bd
       0.0418035 0.06858147 0.13108929 -0.045000095
0002c0 bd c8 4f 3d b5 14 85 3c 97 2e 32 3d bb e5 a1 3d
       0.05072855 0.016245225 0.043501463 0.07905146
0002d0 33 db 1a 3e f3 97 bc bd 99 dc 8f bd b7 7b 74 bd
       0.1512268 -0.092086695 -0.070244975 -0.059688296
0002e0 a3 7d 15 3e 72 71 75 bd 36 d9 bb 3d 1d 1b 25 be
       0.14598708 -0.059922643 0.09172289 -0.16123624
0002f0 42 f3 a4 bd f7 da e0 bd e6 70 cd 3d f2 4f 06 3e
       -0.0805421 -0.10979264 0.10031299 0.13116434
000300 52 ae 77 3d cc a6 48 bd 5c b3 ac 3c 3c 45 cd bc
       0.06046898 -0.048987195 0.021081619 -0.025057428
000310 7b 93 e5 3d 95 c0 28 bd a1 6e 49 3d 0d c0 32 be
       0.1120977 -0.041199286 0.04917777 -0.17456074
000320 a9 74 06 be 32 ab ea 3d 45 9a 4b be 59 3a 34 3d
       -0.1313044 0.11458434 -0.19883068 0.044000957
000330 b4 7f 91 3d 87 5c f0 bc ec a2 d6 3d b0 8a 13 bd
       0.071044356 -0.029340995 0.10480294 -0.036020935
000340 09 1d 64 bd 4f 08 37 be ce 69 1b 3e bb 6e 1a 3e
       -0.055691753 -0.17874263 0.1517708 0.15081303
000350 61 1c 2e 3a 9c bb 83 bd 7e 1c 65 bd 6c 95 ac 3d
       0.0006641802 -0.06432268 -0.055935375 0.084269375
000360 e5 12 a1 3d a9 a7 fe bd 13 20 07 3d 2f 96 a8 3c
       0.07864932 -0.124343224 0.032989573 0.020579426
000370 09 00 32 3e 89 ab 22 3e 60 49 52 be 2a 3c aa bc
       0.17382826 0.15885748 -0.20535803 -0.020780642
000380 66 17 55 be fc 13 28 be ae aa 15 be 08 92 6e 3d
       -0.20809707 -0.16413873 -0.1461589 0.058244735
000390 0f 6c 02 3e a4 c7 3a 3d d5 c3 ae bc 5e 25 a3 bd
       0.12736534 0.04560055 -0.021333614 -0.079661116
0003a0 5c cb dc bd 5d 9d f0 3d 2f 79 03 3e c3 e8 3b 3e
       -0.10780975 0.11748765 0.12839197 0.1835051
0003b0 59 cd ff bd f1 45 e1 bd 07 6d 01 be 65 12 25 be
       -0.12490339 -0.109996684 -0.12639247 -0.16120298
0003c0 41 5c 1e be da 30 2c 3d 96 07 2d 3e d9 a2 3d 3e
       -0.1546488 0.042038776 0.16897425 0.18519153
0003d0 61 a6 46 be ff 33 cf bd c8 76 a9 3d b0 56 da 3d
       -0.19399406 -0.10117339 0.08274609 0.106610656
0003e0 67 63 1a be 7d a1 22 bd 60 33 1c be b4 fd 21 bd
       -0.15076981 -0.03970479 -0.15253973 -0.03954859
0003f0 80 77 2b bb b7 59 2e 3e e9 de 13 3e fc 9f 92 bd
       -0.0026163757 0.17026411 0.14440502 -0.07159421

fc3.bias f4 [25]
000000 dc 05 81 bd 06 99 09 3e e8 f7 32 bd d8 aa df bc
       -0.06299946 0.1343728 -0.043693453 -0.027303144
000010 06 0c 03 be 31 0a bf 3d bf 09 11 be 8d f8 d3 bd
       -0.12797555 0.09328116 -0.14163874 -0.10350142
000020 1b 3f aa 3d 88 4f ce bc 80 89 6c bd db b7 50 3d
       0.08312818 -0.025184408 -0.057748318 0.05095659
000030 fd 06 83 3b 29 ec 42 be 62 a2 19 be 91 59 c5 3c
       0.003998636 -0.190354 -0.1500335 0.02409056
000040 ec 1d ca bd dc 9a 24 bc 44 13 49 bd bc 0c 9f 3c
       -0.098689884 -0.010046687 -0.04909064 0.019415252
000050 b8 2a 3f bd 20 a8 59 3c 3e b3 a7 3d 94 f7 16 3d
       -0.0466716 0.013284713 0.081884846 0.036857203
000060 2f 06 14 3e
       0.14455484

fcFinal.weight f4 [1, 25]
000000 34 bd 0c bd 9a a5 71 bd 17 ea 02 3e 90 d9 b3 3c
       -0.034360126 -0.05899582 0.1278461 0.021954328
000010 80 a7 a4 3d 48 49 96 3d c5 22 b0 bd 39 bd 23 be
       0.080397606 0.07338196 -0.08600382 -0.15990151
000020 01 40 a1 3d 33 0d 1c 3e d6 50 01 be 9c ab 29 b8
       0.07873536 0.1523941 -0.12628493 -4.0452564e-05
000030 8c db ed 3d c4 e4 fe bd c2 65 a9 3d 81 f8 e3 3a
       0.11614141 -0.12445977 0.08271362 0.0017392786
000040 f8 ac 1c 3e c4 52 72 3d 3e cc 2e 3e ba 2e cd bd
       0.15300357 0.059160963 0.170701 -0.10018678
000050 00 b3 db bd 54 7f 70 bd 46 60 22 be d8 8a 50 bd
       -0.10727501 -0.05871518 -0.15857038 -0.05091366
000060 2c bf f1 bd
       -0.11804041

normalize2D.weight f4 [2]
000000 00 00 80 3f 00 00 80 3f
       1.0 1.0

normalize2D.bias f4 [2]
000000 00 00 00 00 00 00 00 00
       0.0 0.0

normalize2D.running_mean f4 [2]
000000 00 00 00 00 00 00 00 00
       0.0 0.0

normalize2D.running_var f4 [2]
000000 00 00 80 3f 00 00 80 3f
       1.0 1.0
