stock market/Stock_Data/NVDA/trained_weights/Moving_average_volatility_order/VO1_50_days.pth (torch, 11512 bytes, 11 tensors)

fc1.weight f4 [25, 3]
000000 20 b3 4b bf 4b bd 6c be 84 5f 83 3f 9a 21 89 3f
       -0.795702 -0.23119085 1.0263524 1.0713379
000010 42 24 7c bf 8c 6b fc bf dd db 61 bd 43 16 e6 be
       -0.98492825 -1.9720321 -0.05514132 -0.4493886
000020 de f1 cf 3c 20 2e f8 3e 7b 70 d7 be 7f 4b 7a 3e
       0.025383886 0.4847269 -0.42078003 0.24442862
000030 6a 5f 17 3f 32 c9 8f bf 24 2f f2 bf b6 93 0d bf
       0.59129965 -1.1233275 -1.8920636 -0.55303514
000040 40 dd aa 3c 5d 08 6e 3f d4 81 b1 bf 25 48 96 3f
       0.020857453 0.9298151 -1.3867745 1.1740767
000050 03 d8 db 3f 35 5d b7 3f 7d a8 ad bf a5 6a df bf
       1.7175297 1.432532 -1.3567044 -1.745442
000060 c0 3e a1 be 84 c4 c0 3e 52 bf b8 3e 68 15 4e 3f
       -0.31493187 0.3764993 0.36083466 0.80501413
000070 79 98 5a bf b5 fd 08 c0 7a d4 44 bf 5c 17 40 3f
       -0.85388905 -2.140485 -0.76886714 0.75035644
000080 3e b9 f6 3e d6 01 76 bf 0d f3 a9 3f 4a d4 ad 3f
       0.48188204 -0.9609655 1.3277298 1.358041
000090 ef 16 a9 3d a9 c7 49 bf 0a 49 f9 bf 3c 7f 9b 3f
       0.08256327 -0.7882028 -1.9475415 1.2148204
0000a0 ac 15 a6 bf b5 14 df bf 30 89 7f 3e c5 dc 1c be
       -1.2975364 -1.7428194 0.24954677 -0.15318592
0000b0 d0 f6 13 bf ca 1c 1e bf 2f cc b4 3f 53 af ff 3f
       -0.5779848 -0.6176268 1.4124812 1.997538
0000c0 29 95 a4 3f 7a ab 03 bf 1b 27 51 bf b6 44 bb be
       1.285802 -0.5143353 -0.81700295 -0.3657586
0000d0 18 a4 ae 3f 51 cb b6 3f c9 0f 88 3f 57 2b a8 bf
       1.3643827 1.4280797 1.0629817 -1.3138226
0000e0 d0 5b cf bf c7 13 c9 3f 3b ad 42 bf 2e 38 5d bf
       -1.6199894 1.570916 -0.7604558 -0.8641385
0000f0 4a 85 b8 be 85 7c b3 3f 7f 4b ab 3f 6c b3 28 3d
       -0.3603919 1.4022375 1.3382415 0.041186735
000100 9a 17 19 3f 8e 6b 80 be 92 b9 86 bf 70 b2 de 3e
       0.5980164 -0.25082058 -1.0525382 0.43495512
000110 57 bd 28 3f d8 ac f3 3e d3 55 72 bf bf b4 03 c0
       0.6591391 0.47592807 -0.9466221 -2.0579069
000120 73 af aa bf 81 92 44 3f 9c 13 1b 3f
       -1.3334793 0.7678605 0.60576797

fc1.bias f4 [25]
000000 1b 8c 19 ba 9f 98 37 3f da b6 3b 3f 53 a4 f0 be
       -0.0005857364 0.71717256 0.73325884 -0.4700037
000010 fd 72 93 3f e3 90 1c bf 26 7e 0c bf 0e 09 1c 3f
       1.1519467 -0.6115858 -0.5487999 0.60951316
000020 ee 69 19 bf 5b 74 6d 3f 3d fc 1b bf e4 87 27 bf
       -0.5992726 0.9275567 -0.6093176 -0.6544173
000030 f9 0f a9 3f c7 75 35 3f 6d 0a 3a 3f 0b bf b2 bf
       1.3208 0.7088284 0.7267216 -1.3964552
000040 86 4e e9 3c 03 3d 92 bf 8c f5 36 3f 46 56 09 3d
       0.028479826 -1.1424869 0.71468425 0.033529542
000050 5b 9e 8e bf 81 3e 10 bf 05 8c ac bd e3 5c 99 3f
       -1.1142076 -0.56345373 -0.08425144 1.1981472
000060 f9 85 2d bd
       -0.042364094

fc2.weight f4 [25, 25]
000000 2a 98 05 bf 09 88 3a 3c e0 f5 b2 3d f0 b4 75 bd
       -0.5218531 0.011384972 0.08738303 -0.05998701
000010 2c 03 a6 3d 76 d6 3d be 13 41 eb bd 34 a3 a4 3d
       0.08106074 -0.18538842 -0.11487021 0.08038941
000020 53 c1 e0 3d 2c d3 22 3e 4e dd 20 3d 5b af 34 bd
       0.10974374 0.15900868 0.039273553 -0.044112545
000030 68 1f 5c 3d de 56 0c 3e 5e e6 fb bd 8c 63 07 3d
       0.05374089 0.13705012 -0.122997984 0.03305392
000040 75 dd d8 3e b8 3a 4e 3c bf b6 3c bd f9 1e e3 3e
       0.42356458 0.012587242 -0.046072718 0.44359568
000050 2d 70 ac 3d 47 46 d3 bd 16 7b 80 be 30 ac c4 3d
       0.08419833 -0.10316139 -0.25093907 0.09603155
000060 66 04 ad be 30 1d 6e bf 4f 4d a8 bc 5c e2 61 bd
       -0.33792418 -0.93013287 -0.020544676 -0.055147514
000070 6a 66 80 3e 4c 9a 1e bd 4d 5f e4 bd c9 bb 42 3d
       0.25078136 -0.038721368 -0.1115099 0.047542367
000080 9f 98 95 3d 57 3d 25 3e d5 e8 b6 3d 15 85 b5 bd
       0.07304501 0.1613668 0.08931128 -0.08863274
000090 9a e0 3d be 2d 95 99 bb 9f c4 1f 3e 35 34 d6 bc
       -0.1854271 -0.0046869726 0.15602349 -0.026147941
0000a0 9a 04 94 3d 30 79 c8 3d 49 a1 12 be f9 73 f5 3d
       0.0722744 0.0978874 -0.14319338 0.11985011
0000b0 5a 05 08 3f 11 98 b3 bd b3 85 a1 3d 02 96 80 3d
       0.53133166 -0.08769239 0.07886829 0.06278612
0000c0 c4 d6 3b 3d 9f 6b c6 be 2f 11 89 bf d0 46 65 3d
       0.045859113 -0.38753983 -1.0708369 0.055975735
0000d0 20 63 6d be 7f c5 80 3e 73 bf 31 3e 8f 97 45 3e
       -0.23182344 0.25150678 0.17358188 0.19296096
0000e0 83 9c a4 bd ac 2a b2 3d f4 e3 8f 3e 3c f6 c1 3d
       -0.08037665 0.08699545 0.28103602 0.094707936
0000f0 62 54 fa 3d 00 9c 8e bc 3c 47 e7 3d 3c 93 0e 3d
       0.12223126 -0.017408371 0.11292884 0.034808382
000100 95 2c 81 be 13 72 1e be aa 45 21 be 59 13 b9 bd
       -0.25229326 -0.15473203 -0.15749231 -0.090368934
000110 1d 99 c8 3d b1 4a 00 be 08 fb f6 bd a5 e7 7b 3e
       0.09794829 -0.12528493 -0.12059599 0.24600084
000120 1f 81 79 3e 9b c9 c1 3d 98 f7 f9 3d 25 2f b8 be
       0.24365662 0.09462281 0.12205428 -0.35973468
000130 86 e5 1f 3d 3b 97 e2 bd 92 a0 39 be 18 93 37 3e
       0.03903725 -0.11064001 -0.18127659 0.17927206
000140 80 31 82 3d 89 f2 06 be 10 de 71 bd 6c 01 99 3d
       0.063570976 -0.13178457 -0.059049666 0.07470974
000150 49 55 1e 3c c0 70 4f be bb 7d 82 3b c4 f5 25 3e
       0.009663888 -0.20257854 0.0039822734 0.16207033
000160 c4 c5 3e 3e ed 9a ba 3c 03 31 82 be 28 e3 04 3e
       0.18630129 0.022778952 -0.25428018 0.12977278
000170 e9 2f 28 3d 5a 48 57 bd 74 4c 04 3f 92 83 83 3c
       0.041061316 -0.052559234 0.5167916 0.016053949
000180 3c b2 b6 bd 0c 3a 23 be df c0 13 3c ad c7 1e be
       -0.08920714 -0.15940112 0.009018152 -0.15505858
000190 31 2a a2 be 26 4d 02 bc 60 b6 8c 3c 37 da e3 bd
       -0.31672814 -0.007952964 0.017176807 -0.111256056
0001a0 66 10 62 3d 6f a9 82 bd a6 e1 54 be 5c ea 0c 3d
       0.05519142 -0.06379973 -0.20789203 0.03440319
0001b0 6b dd a6 3d f7 61 6e bd 32 1e eb bd 53 44 2f 3c
       0.08147701 -0.058198895 -0.11480369 0.010697442
0001c0 85 16 b2 3d bb 4e 38 3e fa 7b 2a 3d 22 eb ab bd
       0.086957015 0.17998783 0.04162214 -0.083944574
0001d0 6d 0e c5 3d e3 67 cb 3d 45 56 ec 3d 0f 3e d1 3e
       0.09621892 0.09931924 0.11539892 0.4086766
0001e0 ba d5 11 be ba d9 0c 3e 9b 63 3b be 6a fd 09 3d
       -0.14241686 0.13754931 -0.18299715 0.03368894
0001f0 4b 36 bf be 91 ce d8 be ad 7b 15 3d ac 36 32 3d
       -0.3734611 -0.42345098 0.0364949 0.04350917
000200 ff 22 13 3d 68 f8 20 3d ea b2 b6 bd da ca f4 bd
       0.035922047 0.0392994 -0.08920844 -0.11952753
000210 a4 8c c2 bd ba 5a 6d bd f9 ba ad bd 35 a7 f8 bd
       -0.09499481 -0.05794785 -0.08482928 -0.12141267
000220 96 fc ae 3d d0 c7 bb bc 3f c5 94 bc e4 42 22 3d
       0.08544271 -0.022922426 -0.01816046 0.039614573
000230 70 41 41 bb e3 82 0d 3f 5f c5 94 bc 88 26 43 3d
       -0.0029488467 0.5527784 -0.01816052 0.04764417
000240 1a 75 dd 3e 64 42 bb bc c6 bc f8 3d a2 97 3b be
       0.43253404 -0.022858806 0.12145381 -0.18319562
000250 fc 20 8e 3d 2b b4 89 be 65 4c af 3e 44 c7 9a 3d
       0.06939885 -0.2689527 0.34237972 0.07557538
000260 20 46 6a 3d b9 c6 e0 bd 4c ff df bd 34 8a 0c be
       0.057195783 -0.10975403 -0.10937366 -0.13724595
000270 18 10 21 be 10 b0 3d 3d d0 cd 0d bd 16 d6 64 3c
       -0.15728796 0.046310484 -0.034620106 0.013967058
000280 dc 3e 84 bc 5d 23 16 3d 63 a4 14 be 16 50 07 be
       -0.016143255 0.03665482 -0.14515834 -0.13214144
000290 0d 87 20 3e 49 e1 f7 3d be 41 df 3e a2 01 9c bb
       0.15676518 0.121035166 0.43604845 -0.004760937
0002a0 67 5a c1 3c 84 77 bf 3e 27 3e 4f 3d 8e 25 27 be
       0.023602678 0.3739587 0.050596382 -0.1632292
0002b0 ff 9a 2d be 92 b1 b2 3c 5b 73 be be 37 39 15 bf
       -0.16953658 0.021813188 -0.37197384 -0.5829043
0002c0 f3 f0 85 3e b6 75 37 3d 1f e4 a3 be 8a b6 94 3e
       0.26160392 0.044789992 -0.3200998 0.29045516
0002d0 db a2 d9 be 28 d7 a5 be 98 85 e1 3e c0 d9 6d be
       -0.4250706 -0.32390714 0.44047236 -0.23227596
0002e0 db 35 b3 3e 6a 31 ad be 92 2c 00 bf c3 e8 df 3e
       0.35002026 -0.33826762 -0.5006801 0.4373227
0002f0 53 e0 98 3e a1 3a c2 3e eb 81 c1 be 5f d2 ad 3e
       0.29858646 0.37935355 -0.37794432 0.33949563
000300 e2 d1 c5 be ef 1a ab 3e 02 61 0e 3f c2 8d 86 be
       -0.3863669 0.33418986 0.5561677 -0.26280028
000310 39 19 ab be b8 23 5b be 86 dd a3 3e da d7 fb be
       -0.3341768 -0.21400344 0.32004946 -0.4918812
000320 0d e4 01 bf 89 e0 a6 3e b2 eb 7b 3e 30 b3 39 be
       -0.507386 0.32593182 0.2460163 -0.18134761
000330 95 f3 85 3e bf 30 bc be 75 28 c8 be 41 f2 eb 3e
       0.261624 -0.3675594 -0.39093366 0.46083263
000340 da bc a1 be f0 1d 85 3e 1e 05 95 be 88 68 98 be
       -0.31589395 0.25999403 -0.29105467 -0.2976725
000350 32 a4 c4 3e 32 8b b6 3e 83 fe 90 3e a6 26 b2 be
       0.3840652 0.35653073 0.28319177 -0.3479511
000360 3a 6a ff 3e 6e 0e 8a be 79 84 bf 3e 3e ea 88 3e
       0.49885732 -0.26964134 0.37405756 0.26741213
000370 23 5b fd be ab 33 23 be d4 ab 96 be 67 92 d8 3e
       -0.49483594 -0.15937679 -0.2942797 0.42299196
000380 66 79 cd be 79 91 49 3f c6 d0 80 3d 5d 64 cb 3d
       -0.40131682 0.787376 0.062898204 0.09931252
000390 20 b5 80 bc b7 50 06 3d 30 92 6f 3b 68 09 82 3d
       -0.015711367 0.03279182 0.003655564 0.0634945
0003a0 84 c4 95 bd e7 3d b2 bd 4f c1 21 be 66 60 fb bd
       -0.07312873 -0.08703213 -0.15796398 -0.12274246
0003b0 3b 2c b5 3c 52 b9 0d bd f0 e6 d2 bd 8c f9 ce 3d
       0.022115817 -0.034600563 -0.10297954 0.10106191
0003c0 dc f5 ee bc 86 97 18 be af 2f e1 b9 ed 73 15 bd
       -0.02916997 -0.14901552 -0.0004295087 -0.03648751
0003d0 37 c6 bf be dd 6b 1d 3e c6 38 84 bd 5c 1d 3e 3e
       -0.37455913 0.15373178 -0.06456141 0.18565887
0003e0 ca 96 43 3c a8 d0 d9 3d 1d 64 c2 be 0b a2 4e 3d
       0.011937806 0.10635501 -0.37967005 0.050447505
0003f0 e8 b3 0b 3d ef 01 03 bd dd dc 0f bd f9 08 88 3d
       0.03410712 -0.031984266 -0.03512274 0.066423364

fc2.bias f4 [25]
000000 cf 7d c2 bd 0c 93 51 3e b2 58 8b 3e 6b 7c b5 3d
       -0.09496652 0.2046625 0.27216107 0.088616215
000010 4c 89 08 3e 53 4f cb bc 68 4c f9 bd d0 f8 ec 3d
       0.13333625 -0.024818098 -0.121727765 0.11570895
000020 e5 15 bb bd 00 2b 54 be f0 61 ab 3c af 29 a9 3d
       -0.091350354 -0.20719528 0.020920724 0.08259904
000030 20 3d a1 bc 73 fd 1e bd 2f ed 4c be 76 1b 4f 3e
       -0.019682467 -0.038815927 -0.20012353 0.2022532
000040 96 c1 30 bd 37 08 e4 3b a8 ee 0c 3e f1 3e 9a bc
       -0.043153368 0.006958987 0.13762915 -0.01882884
000050 b4 59 e4 3d 6b dd 6d be 42 d3 e7 bd 66 76 cf bd
       0.11149922 -0.23228996 -0.11319591 -0.101300046
000060 88 9e d5 3d
       0.10430628

fc3.weight f4 [25, 25]
000000 da 2c 0a 3e 81 91 14 3e 79 88 eb 3b 43 2d 3e 3d
       0.13493672 0.1450863 0.0071878997 0.046429884
000010 19 67 e0 3d a8 06 64 3e 00 50 eb bc 20 75 0c 3c
       0.10957164 0.22268164 -0.02872467 0.008572847
000020 97 17 91 3c fb d8 8d be 55 55 f7 3d 52 61 1b bd
       0.017711444 -0.27704605 0.12076823 -0.03793461
000030 6d 26 61 3c 7e d5 18 be aa 52 2b bd 57 08 02 be
       0.013742072 -0.14925191 -0.04182688 -0.12698494
000040 cd 01 ff 3c fe d2 3f 3e 8d ee d9 bd cf 61 d5 bd
       0.031128788 0.18732831 -0.10641203 -0.10419046
000050 21 c6 f4 3d e7 8e 96 be ef 22 91 3d a1 be 28 3e
       0.119518526 -0.294059 0.07086741 0.16478969
000060 c9 bb 9a bd d4 c3 28 bd 99 f0 30 3e 87 27 f1 bd
       -0.075553484 -0.04120238 0.1727928 -0.11775117
000070 3e 1c b3 3d 43 98 c0 bd 13 57 24 be fa a2 a2 bd
       0.08745621 -0.094040416 -0.16048841 -0.079412416
000080 3d c1 bd bd c6 93 ce 3d e6 88 06 be 8b 9a 49 3e
       -0.09265373 0.10086779 -0.1313816 0.1968786
000090 79 ae 2a 3e be 1a 21 be c0 7c e4 bd c9 21 43 3e
       0.16668119 -0.15732858 -0.11156607 0.19055857
0000a0 e3 30 ae bd 90 6d e8 3c cc dd 0b be 53 f0 43 be
       -0.08505418 0.028372556 -0.13658828 -0.19134645
0000b0 d0 fc ca bc 7d 5c 21 be 5d 63 33 be c0 28 26 be
       -0.024778754 -0.15757938 -0.17518373 -0.16226482
0000c0 ee 35 19 be 8d 17 03 be 0c 6d eb 3a 8e 9a bb 3d
       -0.14961979 -0.12801953 0.0017961576 0.09160338
0000d0 a9 8a 5d 3d 72 26 fa 3a f9 d5 48 3e 93 7b 84 3e
       0.054087315 0.0019084944 0.19612874 0.2587553
0000e0 b6 54 57 3e 67 26 21 3d 6a 64 b8 3c b5 9f 64 be
       0.21028408 0.039343264 0.022508819 -0.22326548
0000f0 13 25 3c 3e 2d 99 26 be 4c ca b2 3c 7a 84 b7 be
       0.18373518 -0.1626937 0.021824978 -0.3584326
000100 70 21 43 be 23 9c 47 3d 19 0d 1e 3e a4 8e d6 3d
       -0.19055724 0.048732888 0.15434684 0.10476425
000110 50 61 a0 be 28 80 68 be 13 ce c1 bd 5b a0 40 be
       -0.31324244 -0.22705138 -0.09463134 -0.18811171
000120 0b 3e c6 3c 78 7c 9e 3d e6 87 16 3e 1d 0a 08 bb
       0.024199506 0.07738584 0.14700279 -0.002075798
000130 ec 0f 96 bd a7 6e 23 bb 0f f1 d1 3d 05 52 8d bc
       -0.073272556 -0.002493778 0.102510564 -0.017251024
000140 5e 4c 31 be ae 58 94 3d d6 62 9c 3c d5 77 9e bc
       -0.17314288 0.07243477 0.019090097 -0.01934425
000150 21 e6 30 3e 94 c8 72 bd f6 d3 2b 3d a8 8d 02 3e
       0.17275287 -0.059273317 0.04195019 0.1274935
000160 d3 d2 3e be 72 12 cc bc 5b 29 ae bd 16 8f fa bb
       -0.1863511 -0.02491114 -0.08503982 -0.0076464517
000170 6a 54 17 be 91 59 03 be d8 83 fa 3d 4e 08 7b 3d
       -0.14778295 -0.12827136 0.122321784 0.061287217
000180 d8 18 3c be 38 24 3c 3c 8c 4e a6 3d 0a e1 4d bd
       -0.18368852 0.011483245 0.081204504 -0.050263442
000190 c4 db 30 3e b8 f7 0f 3e 43 2e 4c bd 24 f0 9f 3d
       0.17271334 0.14059341 -0.049848806 0.07809475
0001a0 ab 5b bd bc 3b 63 1d 3e 66 eb 2a be 31 55 07 be
       -0.023115 0.15369885 -0.1669136 -0.13216092
0001b0 fd 97 92 3d 7f 37 e5 bd ce 4e 18 3e 92 d4 20 be
       0.07157896 -0.11192226 0.14873812 -0.15706089
0001c0 78 1e 94 bd 25 01 1a 3d 3f 65 07 be d1 6c 52 be
       -0.07232374 0.037598748 -0.13222216 -0.20549323
0001d0 55 c1 04 be ce 92 46 3e 47 45 19 be b6 05 33 3d
       -0.12964375 0.19391939 -0.14967833 0.04370662
0001e0 5d 4b 2b be 79 6a 30 be 88 3c 91 bc 01 4f 0a 3e
       -0.16727968 -0.17228116 -0.017729059 0.135067
0001f0 d1 f4 b1 3d fd b5 14 3e d4 3d 26 be d2 74 56 be
       0.08689273 0.14522548 -0.16234523 -0.20943001
000200 b3 95 15 3e 63 07 da 3d b7 63 5e 3d 56 b9 b7 bd
       0.14607887 0.1064594 0.054294314 -0.08970897
000210 73 54 17 3e df a5 2b be 0f 96 31 3e ca 8c 2e be
       0.14778309 -0.16762494 0.17342399 -0.17045894
000220 ea 29 87 3d f2 a9 32 3d 0a ed 00 be cc b8 f8 bd
       0.06599791 0.043619104 -0.12590423 -0.12144622
000230 de 0b f1 3d 40 78 fa bd 56 cd 35 be 26 16 05 be
       0.117698416 -0.12229967 -0.1775411 -0.1299673
000240 96 d8 e2 3c 20 ee 04 bd 1c ad 23 bd 8e d5 2e be
       0.027691167 -0.032453656 -0.03996001 -0.17073652
000250 32 4c 84 bc 5b d5 9d bd e5 61 0a 3d 02 1f 6c 3e
       -0.016149614 -0.0770671 0.033784766 0.23058704
000260 8b c4 83 bd 12 c3 ae 3d 70 03 ed bc ab 48 07 3d
       -0.06433972 0.085333005 -0.028932303 0.033028286
000270 0a 67 a7 bb a3 5f 14 3d df 3d ad 3c ad 8a 85 bd
       -0.0051087188 0.03622402 0.021147666 -0.06520591
000280 88 30 ed 3d 36 ab 1f be eb 8c d5 3c 9c e4 bc be
       0.11581522 -0.15592656 0.026068171 -0.36893165
000290 ce 13 83 be 27 8f 56 3d 3d 07 df 3c 83 1a 02 3c
       -0.25601047 0.052382614 0.027225131 0.007940891
0002a0 d9 65 61 be 52 64 3e be 77 de 3b 3e 6d 51 1a be
       -0.22011508 -0.18592957 0.18346582 -0.15070124
0002b0 8c f1 38 3e d7 12 1d 3e ec 2d 0a 3e 63 cd 61 be
       0.18060893 0.15339218 0.1349408 -0.22051005
0002c0 e9 b2 77 bc 77 13 33 be 43 70 25 3e df db 3f be
       -0.015118339 -0.17487894 0.16156106 -0.18736218
0002d0 8c 42 1f be 47 e0 aa 3d a9 99 c4 3d 07 db e5 3d
       -0.1555273 0.08343559 0.09599621 0.11223417
0002e0 c4 de 4d be 91 69 35 be d1 c0 67 be 59 d5 bb 3d
       -0.2010451 -0.17716052 -0.22632147 0.09171552
0002f0 e5 f3 1f be 15 8c 21 be 6f ba bc 3d a6 76 ce bc
       -0.15620382 -0.15776093 0.09215247 -0.02520306
000300 9a 84 2b 3c fb d0 39 3d e7 92 f2 3d 80 ae bc bd
       0.010468626 0.045365315 0.11844426 -0.09212971
000310 b9 1b ba 3d 11 df 42 be 05 8f 9b 3d 7e 3e 51 be
       0.09087319 -0.19030406 0.07595638 -0.20433995
000320 b4 ca ed 3d eb fa ab 3d 52 8e 24 be 79 20 17 3e
       0.11610928 0.08397468 -0.16069916 0.14758481
000330 2c f6 29 3e ab d4 18 3e 2c e0 09 3e 25 09 4e 3d
       0.16597813 0.14924876 0.13464421 0.05030169
000340 7f b8 b3 3c 86 30 52 be 2c c5 52 3e 8f df 65 be
       0.02193856 -0.20526323 0.20583028 -0.22448562
000350 75 4c 46 3d f2 d8 6d be 9c 91 04 be 2e ab 0e be
       0.04841276 -0.2322729 -0.1294617 -0.13932487
000360 2e 41 ff 3c 14 f7 3e bd 55 c2 26 be 39 65 b6 bc
       0.03115901 -0.04662235 -0.1628507 -0.022265064
000370 b4 b5 99 3d 49 c3 59 be c6 69 d6 3c 2b 69 f6 3b
       0.0750536 -0.21265902 0.026173484 0.007519861
000380 dc 07 0c 3e 36 59 e6 3c 46 84 f9 3b f1 2d e6 be
       0.13674873 0.028118711 0.007614645 -0.44956926
000390 d7 db 65 3b e2 69 99 3c 20 69 50 3d 36 d6 fe 3d
       0.0035073662 0.018727247 0.050881505 0.12443201
0003a0 55 99 21 bd db 8d 25 bd 5f dd 51 3e 98 f3 69 3d
       -0.03945287 -0.040418487 0.20494603 0.057117075
0003b0 4c f3 c3 3c 6d 87 14 bd bd 59 90 3d b5 0a 9a bd
       0.023919724 -0.036261965 0.07048366 -0.075215735
0003c0 a9 32 56 be 26 01 93 3b ad 9b 50 bd 16 d2 d5 bc
       -0.20917763 0.004486221 -0.050929714 -0.026101153
0003d0 0e 01 00 3f 61 7d 61 be 0f 66 c4 3d f0 e7 b5 bc
       0.5000161 -0.22020485 0.09589779 -0.022205323
0003e0 91 6b cf bd ca 49 8d be 04 c7 9f bd 62 a3 37 bd
       -0.101279385 -0.2759536 -0.07801631 -0.04483355
0003f0 55 bd 89 be 0c 9b 53 bd b8 da fd bb a9 6d bb bd
       -0.2690226 -0.051661536 -0.0077470206 -0.091517754

fc3.bias f4 [25]
000000 b1 13 00 bd 60 19 03 3d 4c 56 e3 3d 6c 2c 51 be
       -0.03126878 0.03200662 0.11100444 -0.20427102
000010 61 bb 91 bd f3 8c 10 be 70 d0 03 3c 5d 8d e8 3d
       -0.07115818 -0.14116268 0.008045301 0.11355088
000020 f9 26 05 3e 1b bc 33 3e 67 c4 2f 3e 25 7c 25 bc
       0.13003148 0.17552225 0.17164765 -0.010100399
000030 34 28 eb bd 5d d9 ed 3d 40 e2 a0 bd e6 4a f2 bd
       -0.114822775 0.116137244 -0.07855654 -0.11830692
000040 16 dd 01 3e 8f ed 03 3e 69 33 3f be bd c9 14 3b
       0.12681994 0.1288359 -0.18671955 0.0022703253
000050 d6 91 06 3e f1 83 de 3d 2b 86 15 be 6a 8e 70 3d
       0.1314157 0.108650096 -0.14601962 0.058729567
000060 fd 6f ca 3b
       0.006177901

fcFinal.weight f4 [1, 25]
000000 52 7e 57 3e 5f b3 04 3e 09 07 2b 3e 48 5c 5c 3d
       0.21044281 0.1295905 0.16701902 0.053798944
000010 dc 57 d5 bd 20 0e 08 3e 45 be ab be e0 e7 de bd
       -0.104171485 0.13286638 -0.33543602 -0.108840704
000020 69 2e 7d 3e 68 b9 0c bf 31 cb 3f be 85 3a 79 3e
       0.24724735 -0.5497041 -0.18729855 0.2433873
000030 99 c1 06 be 99 a4 a6 3d eb 9b 1a 3e d2 f2 3c 3e
       -0.13159789 0.08136863 0.1509854 0.18452004
000040 ec 86 3a 3e e2 36 91 bd b9 26 29 bf 3e 29 21 be
       0.18215531 -0.07090546 -0.6607471 -0.15738389
000050 8d 8e f2 be 0d 58 75 3e 11 4b fc 3d 32 7c 83 3e
       -0.47374383 0.2395937 0.12319005 0.2568069
000060 ad 9e f7 bd
       -0.12090812

normalize2D.weight f4 [2]
000000 00 00 80 3f 00 00 80 3f
       1.0 1.0

normalize2D.bias f4 [2]
000000 00 00 00 00 00 00 00 00
       0.0 0.0

normalize2D.running_mean f4 [2]
000000 00 00 00 00 00 00 00 00
       0.0 0.0

normalize2D.running_var f4 [2]
000000 00 00 80 3f 00 00 80 3f
       1.0 1.0
