stock market/Stock_Data/NVDA/trained_weights/Moving_average_volatility_order/VO1_30_days.pth (torch, 11512 bytes, 11 tensors)

fc1.weight f4 [25, 3]
00000000: e08c fe3e aeb7 c5bf 15d4 00c0 f060 cbbe
00000010: 860b b83f 0e27 0440 5b6c 9f3e 89fe d2bf
00000020: 9040 0dc0 cf3c 13bf 2115 47be c455 4b3f
00000030: 70cb 733f 584b b8bf a626 09c0 8737 d2be
00000040: ca3e 9d3f 62c8 0c40 fbc5 abbf 1a40 143f
00000050: 6f12 233f 005d 11bf 4545 7b3f 3284 0a40
00000060: 71ac f2bd 6dcc 99bd e28f 543e c0d9 943f
00000070: f6f5 b4bf 68e4 15c0 9486 0bbf 2709 a83f
00000080: 74d5 1340 1501 523f 0b74 94be 4f3d 0dbf
00000090: 6b1d ab3f afec afbe a034 76bf e54e f03e
000000a0: 26ba b0be 22e4 14be 2a91 59bf 08ac ba3f
000000b0: f6a8 0840 48df c2be c79d 61be e5b7 1e3f
000000c0: bc7b b73e ab4e cfbf f121 05c0 aaf5 933d
000000d0: 47e8 b53f e8f3 973f 5836 fb3d 9e98 e3bb
000000e0: af35 273f 5a64 c3bd 46a5 ca3f dc31 0840
000000f0: a2c2 b3be eac5 b53f a1b2 1440 6c1c cbbd
00000100: 1f18 d0bf 1d56 c4bf 1504 8dbf e40e f13e
00000110: 63b8 213f 4942 5f3f 00cb 1cbf 1092 91be
00000120: 0050 72bf a582 a63f 85de 0b40
0.49716854 -1.544668 -2.0129445 -0.39722395 1.4378517 2.0648837 0.31137356 -1.6483928
-2.2070656 -0.5751466 -0.19441654 0.7942774 0.95232296 -1.4397993 -2.142984 -0.4105799
1.2284787 2.1997304 -1.3419794 0.5791031 0.637 -0.5678253 0.9815257 2.1643186
-0.11849297 -0.07509694 0.20758012 1.1628952 -1.4137561 -2.3420658 -0.54502225 1.3127793
2.3099031 0.820329 -0.28994784 -0.55171674 1.3368353 -0.34360263 -0.9617405 0.46935192
-0.3451702 -0.14540151 -0.8498713 1.458375 2.1353126 -0.38060975 -0.22032844 0.6199935
0.3583659 -1.6195883 -2.0801966 0.07224591 1.421151 1.1871309 0.122662246 -0.0069456836
0.6531629 -0.09540625 1.5831687 2.1280432 -0.3510943 1.4201024 2.3234026 -0.099175304
-1.6257361 -1.533878 -1.1016871 0.47081673 0.63171977 0.8721052 -0.61247253 -0.2843175
-0.9465332 1.300862 2.1854565

fc1.bias f4 [25]
00000000: 4ab6 a03f c4e0 a7bf af71 be3f b698 8fbc
00000010: 0b6b 833f 3e7f 9bbf 7f5a 0e3e 76d5 76bf
00000020: 4241 26bd d33d 863f 0995 a0bf 4c92 fc3c
00000030: fa8e 98bc cb74 d63c 0661 87bf 74eb a7bc
00000040: e06c b63f 90fe 64bf 99ef 7abf cd44 c4bf
00000050: 4bdb abbf a584 a93f 644d 78ba aa18 953c
00000060: 94f9 72bf
1.255563 -1.3115468 1.4878443 -0.017528873 1.0267042 -1.2148206 0.13901709 -0.96419466
-0.04058958 1.0487617 -1.2545482 0.030831479 -0.018622864 0.026178738 -1.0576484 -0.020498015
1.4251976 -0.8945093 -0.98021847 -1.5333496 -1.3426298 1.3243605 -0.00094719813 0.018200237
-0.94912076

fc2.weight f4 [25, 25]
00000000: 59b3 1d3c 9f01 85bc ca5c 8b3b b781 793e
00000010: d477 ae3c c567 43bd 2e26 883d a91a e93c
00000020: b9d3 3b3e f7b2 8e3c 1ebd afbc 5808 85be
00000030: 0242 923c eab8 1cbd 192a 80bc 00f8 493d
00000040: 5711 3f3d 760f 46bd 2bea 38be f3ea 993c
00000050: 06a6 aabc 458d 5cbd 5053 febc 2a3b 86be
00000060: 8c77 3abd 05b9 8fbd 7afa a13d 75cb aabd
00000070: b5c5 ca3c ba73 bbbd c69b 7f3c e4ea 853e
00000080: dd38 d93b b607 273d ee12 0fbe fad2 273c
00000090: 012b 3c3e f0a5 28bf 0596 173d 547e 033c
000000a0: 2897 a13e 0a19 dabd 7f7f f53c 587f 0fbe
000000b0: c9ce 523d e3dc c53c e75d 0cbe a24d fa3e
000000c0: f98e 183e 5e2b c63c 87f0 953c 6c1a c9bc
000000d0: 7998 bc3b 9bbf cbbe 932c 113d abb2 bdbc
000000e0: 3b36 3bbe 9936 89bd 273b 9cbe 902e f8bb
000000f0: f73f 9c3b ee93 7d3e d5f1 a13e dd9d c23e
00000100: 2511 a9bc 4d20 d4be f457 353d d399 65bd
00000110: fd74 e63d 74aa 39bc 2a62 6fbb e122 b0b9
00000120: 410e 89be 25e7 153f 5e09 05bb 97ac c5bc
00000130: 1b13 a4b9 3664 8cbc 6259 853e e875 b7bb
00000140: 9b26 07bd 22a4 273e 6feb 21bd eb00 60be
00000150: 4780 3c3d 5377 b1bc 1bd9 08be 6549 12be
00000160: b0db 6f3d 9fd4 c4bd a629 8b3e 9ac8 55bd
00000170: 5049 94bd 96bf d1be b254 233d 4335 a8b9
00000180: 0d72 7cbd b0c0 b33e 75db 533c fee6 8dbd
00000190: f5d8 ccbc aef4 303d 194e 08bd b52a 1cbd
000001a0: b2dc 8fbd 5bce e43c 9373 483d d127 5dbc
000001b0: ba64 9f3d a502 d4bd 929b 023d 649c 18be
000001c0: 3683 2ebe 7ee0 8abe 9ffe f53c 9ec6 a23e
000001d0: 1795 ce3a 982a 123c e89c b8bc a517 e8ba
000001e0: 1e16 28bc 03fb 07bd 586e 913e 97e6 34be
000001f0: fafe a53c 12cf d2bc 6af6 233c 97ab 4a3d
00000200: 1aee e0be d4b4 78ba cf17 de3b ea4b 4fbe
00000210: b1a8 3dbd 25be febd 4ddc bc3c a0ca 97bd
00000220: 20cd 143f 868d 9e3e ef03 863e fa4e 32bd
00000230: 2dc1 80be 221b 0a3d 3cc1 583d 6d72 153d
00000240: ca95 89bc c6f6 3cbd d0ea 033d dea0 c9be
00000250: e67b 083f fc97 81bd f0b4 4dbc d84f 2abd
00000260: 0510 b9bc 5cb8 c9be bd73 87bc 318d 9dbc
00000270: 6658 3abe 92d9 15bd d610 14be 0264 db3b
00000280: fa3d 3a3c 9a91 443f d82f 463e 2c03 de3e
00000290: 2126 97bc 073c f8be 2cec 193c 1c44 71bd
000002a0: 25ab 223c d4e0 d3bc 8257 e1bc 7578 a73c
000002b0: a7e4 6ebe f7ce d93e d659 883c e511 843c
000002c0: 64d1 be3c 1a2e d73c 2518 36be d8a8 063d
000002d0: 0ead 27bd 1bec 0bbe c38a c0bd 3071 51be
000002e0: ba21 4f3c a6ca 41bc e911 2d3e 9d43 c03e
000002f0: afcf 633c 23c1 fcbc 5426 29bd 46b0 923c
00000300: 7af4 bdbd e1b1 873c fd93 e93b ac0a 5cbd
00000310: e9bf 4a3c 5fdf 39be b1ea 863e 24de 0cbd
00000320: f24f adbd 99c5 993c 74c0 103c b481 943d
00000330: 7d7d b9bd 8582 c13d 9274 be3d 2206 bc3c
00000340: 8604 9d3e ac22 2dbd 0b62 993b 3adf a4be
00000350: 4296 95be 4d59 6ebe 8e11 ac3c 13e4 643e
00000360: 59db 713c da38 9a3d 9520 d7b8 91f5 15bc
00000370: c71a 20bd 8079 8dbc 7f14 7d3e db3f a7be
00000380: 0d79 4e3d 7efb 873d b510 81bd 782b 173e
00000390: 4caf 5bbd 0b10 483e 6d1a 1abe db0a dc3c
000003a0: 1590 b5bd 789d f0bd 80e6 933e 9f4e 353d
000003b0: 3291 2b3e 5134 053e 308d 133e cb9b 1fbe
000003c0: db32 8cbe aab5 2e3d 2f23 773d f751 91be
000003d0: 0760 81bd 87c9 833d e4e6 b83d 9475 89be
000003e0: 3817 913e 6093 e5bd 00b6 f93c 3f8e 423d
000003f0: a10d af3d 4e12 fdbe 8ca4 713d 7075 0fbb
0.009625279 -0.016236125 0.0042530047 0.24365889 0.021297373 -0.047706384 0.06647907 0.028455095
0.18342485 0.017419321 -0.021452483 -0.25982928 0.01785374 -0.038262285 -0.015645074 0.049308777
0.046647396 -0.04835459 -0.18058078 0.01878879 -0.02083112 -0.053845663 -0.031045586 -0.26217014
-0.045524165 -0.070177115 0.07909103 -0.083395876 0.024752477 -0.091529325 0.015601104 0.2615577
0.006629093 0.040778838 -0.13972065 0.010243172 0.1837578 -0.658782 0.037008304 0.008025724
0.31560636 -0.10649307 0.029968021 -0.14013422 0.051466737 0.024153179 -0.13707696 0.48887354
0.1489829 0.024190601 0.018303169 -0.024548732 0.005755481 -0.3979462 0.0354429 -0.023156485
-0.18282406 -0.06699867 -0.3051388 -0.00757391 0.0047683674 0.24763462 0.31629816 0.38011065
-0.020638058 -0.41430894 0.04427333 -0.0560549 0.112527825 -0.011332143 -0.0036527016 -0.00033595323
-0.26768687 0.58555824 -0.0020299773 -0.024130149 -0.00031294752 -0.017137628 0.26044756 -0.0055987723
-0.0329958 0.16371205 -0.039531168 -0.2187535 0.046020772 -0.021663344 -0.13364069 -0.1428581
0.05855912 -0.09610867 0.27180213 -0.05219326 -0.07240546 -0.4096648 0.039875694 -0.0003208314
-0.061632205 0.35107946 0.012930741 -0.06928824 -0.025005797 0.043202095 -0.033277605 -0.038126666
-0.07024516 0.02793043 0.048938345 -0.0134982625 0.07782884 -0.10352067 0.031886645 -0.14903408
-0.1704224 -0.271244 0.03002864 0.31792158 0.0015760985 0.008921288 -0.022535756 -0.0017707242
-0.010259179 -0.033198368 0.28404498 -0.17666088 0.020263184 -0.025733504 0.01000748 0.049480047
-0.43931657 -0.0009487395 0.0067777405 -0.20243803 -0.046303455 -0.12438611 0.023054266 -0.074116945
0.58125496 0.3096735 0.26174876 -0.04353235 -0.2514738 0.033717282 0.052918658 0.036486078
-0.016795058 -0.04613378 0.032206357 -0.39380544 0.53314054 -0.06327817 -0.012555346 -0.04158005
-0.022590647 -0.39398468 -0.01653468 -0.019232364 -0.18197784 -0.036584444 -0.14459547 0.0066952715
0.011367315 0.7678467 0.19354188 0.43361795 -0.018450798 -0.48483297 0.009394687 -0.058902845
0.009928499 -0.025864042 -0.027507547 0.02044318 -0.23329411 0.42540714 0.0166444 0.016121814
0.023293205 0.0262671 -0.17782648 0.032875866 -0.040936522 -0.13664286 -0.09401467 -0.20453334
0.012642318 -0.0118281 0.16901363 0.37551585 0.013904496 -0.030853814 -0.04129632 0.01790632
-0.09275146 0.016564311 0.0071282373 -0.053721115 0.0123748565 -0.18151616 0.2635093 -0.034391537
-0.08462514 0.01877098 0.008834947 0.072513014 -0.09057138 0.09448723 0.09299578 0.022952143
0.30667514 -0.042269394 0.004680877 -0.32201558 -0.292162 -0.23276253 0.021004464 0.22352628
0.014761769 0.07530375 -0.00010258068 -0.009152786 -0.039088037 -0.01726985 0.2471485 -0.32665905
0.05040841 0.06639765 -0.06302015 0.14762676 -0.053633973 0.1953737 -0.15049143 0.026860645
-0.08865372 -0.11748785 0.28886795 0.044264432 0.16754606 0.13008238 0.14409328 -0.15586774
-0.2738255 0.042653717 0.060336288 -0.28382847 -0.06317144 0.06434923 0.09028414 -0.26847517
0.28338027 -0.1120975 0.030482292 0.047498938 0.085475214 -0.49428028 0.058994815 -0.0021890067

fc2.bias f4 [25]
00000000: 3a5e 253e 3ff8 49be ab38 bc3b 6556 ad3d
00000010: f2bc e63d 3554 aabd 83fa 9cbd 58a8 ab3c
00000020: 8c2b a43d bc61 11be 0a3f 38be 46dd 00bd
00000030: 2508 373d 42db 5bbc 1e86 55be 45a4 973e
00000040: d207 473e 9546 0f3e d677 123e 2bd7 553e
00000050: a5c1 51bd 9839 9a3d 6e27 23bc ab46 843e
00000060: 1248 5e3e
0.16149226 -0.19723605 0.00574406 0.08463744 0.11266507 -0.083168425 -0.07664969 0.020954296
0.080161184 -0.14197439 -0.17992797 -0.031461023 0.0446855 -0.013418974 -0.20851943 0.29617515
0.19436577 0.13991769 0.14303526 0.20882861 -0.051210064 0.075305164 -0.009958131 0.25835165
0.2170718

fc3.weight f4 [25, 25]
00000000: b0af bb3c 71f7 293e 92b3 803d 4cf3 513d
00000010: 1d5a 18be d0b0 e7bd aace 24be 6038 3fbd
00000020: 5283 2cbe 06a6 e53d 1803 a73c 6065 9abd
00000030: 4041 5ebb 801a 653b 3bbf 11be 5a1e d0bd
00000040: 2dc2 e9bd f783 073e e358 bdbd 5ca8 06be
00000050: 2340 483e 8056 ceba 1d61 cdbd 7d38 47be
00000060: d70e 3fbe 3b65 22bd 0c08 b63c 2873 5b3e
00000070: e264 003d cb85 06be 8942 3e3e 54c9 113e
00000080: 97b7 d53d cfcc 2d3d d1d1 7cbc 1653 9d3c
00000090: cd05 943d c8f9 5ebe 46d6 173e 1b9d 163e
000000a0: d69d 6bbe fa07 afbc 28b0 c73c f08c 4bba
000000b0: a91e 5cbe b0b6 9ebd ee03 1ebd 4336 313e
000000c0: 8abd 4fbe 27a8 22be 4f18 38be 765d 243e
000000d0: ef46 a1bc 1a93 333e 3abc 463e 2c61 5cbe
000000e0: 4800 b03d 86de 91bd c407 163e 73ce 15be
000000f0: 6f1a 183c 21f1 0abd 7c0f 753e 901e 37be
00000100: 7f15 e43c 0f9c ad3d b361 c33c 91ab 2e3e
00000110: f3d4 213c 9374 843c 5d0b 4ebe ba32 1a3d
00000120: 5024 75bd 666e 0d3e ee60 74bc e9cc 09be
00000130: bcbc b63c 754f 673e 9e5a 90bd d754 82bd
00000140: 8401 123e a8aa 053e bdcc ed3d cb8a 88bb
00000150: 21ed d2bb 5dc8 823d 8528 0c3e 6ead 0c3d
00000160: a0a1 9f3d 5a58 993e 985d a1be 389c 1a3c
00000170: 910a 16bc 0ba3 1bbe fc02 64be 9534 2d3e
00000180: 8336 503b 07bc 373e 1ef8 5bbe 4c3a 1abe
00000190: ba71 2bbe 647b 04be 36fb 813d c5ab 1fbe
000001a0: 229f d23d 423f 1abe be6a de3d ec32 3fbd
000001b0: 4076 c33c 131c 1a3e 64a6 533d 4013 e9bc
000001c0: be0e e83d cfed 43be 1d76 25be 0288 8d3d
000001d0: 4ddd 47be 8439 8ebd 150b 1cbe 2324 403e
000001e0: 2045 79bd ae00 903d 9286 38be f209 a13d
000001f0: 57de e9bd 7853 24be 56bc 963e b499 48be
00000200: 2868 cc3d cca1 333d 0352 1d3d b83d 923c
00000210: 1fba 47be 4488 ef3d 3d8d bcbc 77f0 02be
00000220: 09e3 03be f6a8 6e3e 6a42 9ebd 40ac 55be
00000230: db6c 0c3e cf85 37bd 2897 4f3e 349e 3d3d
00000240: 4281 dabc c82c d9bd b90b e8bd 0ddb 8abd
00000250: 2a78 033e b6b3 8b3e 29ca 00be 0e2c 1abe
00000260: ae42 673e 6dd4 d1bd 19a3 5bbe aad4 ad3e
00000270: 898f 0b3e 92da 063e b33a cebd f332 e83d
00000280: 5e9f 843e e9b6 a03e 2b57 93be 81f9 7e3e
00000290: 239d 993e 0d17 0abf 3eab 94bc 0ce1 7bbe
000002a0: ef5e debd 185b 0abf 1c56 383e 8da1 733e
000002b0: 2244 de3e a163 cfbe addf b6be eab1 d73c
000002c0: 3a8b 9d3c 47b8 553e 7b0a 883d f1ae 4bbe
000002d0: 4941 243e 2d61 7d3e 273f c1bd 5693 9abd
000002e0: cc5b 05bd 48c4 e53d 5fd2 693d 9e3d 603c
000002f0: 44a8 c93e 1ae7 e63e e17b abbe 4043 883d
00000300: 1c90 05be c2d4 34bd ec92 c8be c31f 91bb
00000310: 778b d13d 36b4 a23e d083 d6be b821 27be
00000320: f77b f1bd 1a24 193e 0a4b 25be 990d 24be
00000330: 19ab 0cbe be20 c23c 3e3a d83d eed0 4cbe
00000340: 35ad 92bd b37e a03d 2fb0 38be 41f9 363c
00000350: ee74 0dbe 0c69 4b3d f6f3 4abe b0b1 10bd
00000360: b892 f43d 4536 b8bd a9c9 1dbe ce71 a93d
00000370: d9b9 6cbd 79d3 2cbd c825 c3bd 0c34 aebc
00000380: c750 18bd 8808 3d3e 64e2 aebd cd35 1f3e
00000390: 6484 7a3e cea6 2dbe fcae a13d 3a57 7a3d
000003a0: 95ec 173e 20e0 62be a034 103e b490 cb3d
000003b0: 3073 583e 8aec 0abe cc1f ffbd be24 a63d
000003c0: b77b 64bd 5e29 3bbe 222d 41be 1611 37be
000003d0: 0201 0a3d 4123 b03d fe1b bc3c 7d54 babc
000003e0: d54e 8dbe 7a76 4abd ae17 863c 20b7 8c3e
000003f0: 7d7e a8bd f2ff 053e 7f14 27bd b4de 30be
0.022910923 0.16598298 0.0628425 0.051257417 -0.14878125 -0.11313021 -0.16094461 -0.046684623
-0.1684697 0.11213307 0.020387217 -0.07538867 -0.0033913404 0.0034958422 -0.14233105 -0.10162039
-0.11413989 0.13233934 -0.092454694 -0.13150162 0.19555716 -0.0015742332 -0.100282885 -0.19455142
-0.18658005 -0.039647322 0.022220634 0.21430647 0.03134621 -0.13136975 0.18580069 0.14236957
0.104354076 0.04243165 -0.0154308835 0.019204658 0.07227669 -0.21774971 0.14827833 0.14708368
-0.23009428 -0.021366108 0.02437599 -0.0007764837 -0.21496071 -0.077496886 -0.038577966 0.17305855
-0.20287147 -0.15884458 -0.17978023 0.16051278 -0.019687144 0.17536584 0.1940774 -0.21521443
0.08593804 -0.07122521 0.146514 -0.14629535 0.009283646 -0.033921365 0.23931688 -0.17882752
0.027842281 0.084770314 0.023850298 0.17057635 0.009877431 0.016168868 -0.20121522 0.037646033
-0.059849083 0.13811645 -0.014915688 -0.13457073 0.022306792 0.22588904 -0.07048534 -0.06363838
0.1425839 0.13053381 0.11611316 -0.004166936 -0.0064369594 0.063858725 0.13687332 0.034345083
0.077944994 0.2995022 -0.3151672 0.0094366595 -0.009157793 -0.15198915 -0.22266763 0.1691459
0.0031770773 0.1794282 -0.21481368 -0.15061301 -0.16742602 -0.12937695 0.06346743 -0.15592869
0.102842584 -0.15063193 0.10860203 -0.046679422 0.023860097 0.15049772 0.051672354 -0.028451562
0.11330937 -0.19133686 -0.16158338 0.06910707 -0.19518013 -0.06944564 -0.15238602 0.18763785
-0.06085694 0.0703138 -0.18020085 0.07863225 -0.11419361 -0.16047466 0.29440564 -0.19589883
0.09980804 0.043855473 0.03840829 0.017851695 -0.19504593 0.116959125 -0.023016566 -0.12787043
-0.12879576 0.23306641 -0.07727511 -0.2086649 0.137134 -0.044805344 0.20272505 0.046293452
-0.026672963 -0.106042445 -0.11330361 -0.06780062 0.12838808 0.27285546 -0.12577118 -0.15055868
0.2258403 -0.10245595 -0.21448936 0.33951312 0.13628973 0.13169315 -0.1006979 0.11337843
0.25902838 0.3138955 -0.2877744 0.24899866 0.30002698 -0.5394142 -0.01814806 -0.24597567
-0.10857951 -0.5404525 0.18001598 0.23792095 0.43411356 -0.40505698 -0.35717526 0.026329953
0.019231427 0.20871077 0.06642624 -0.19890954 0.1604053 0.24744101 -0.094358735 -0.07547633
-0.032558247 0.11219078 0.05708539 0.013686566 0.3938619 0.45098191 -0.3349295 0.06653452
-0.13043255 -0.044148214 -0.39174592 -0.004428835 0.10231679 0.31778115 -0.4189744 -0.16321456
-0.117912225 0.14955178 -0.16141906 -0.16020812 -0.13737144 0.023697253 0.10557984 -0.20001575
-0.07161943 0.07836666 -0.18035959 0.011167825 -0.13814136 0.049660727 -0.19819626 -0.035325706
0.11942047 -0.08994726 -0.15408958 0.0827366 -0.057794426 -0.042193864 -0.095286906 -0.021265052
-0.03718641 0.18460286 -0.08539274 0.15547867 0.24464566 -0.16958162 0.07894704 0.061118342
0.14836343 -0.2215581 0.14082575 0.09939709 0.2113769 -0.13566795 -0.12457237 0.08112477
-0.055782046 -0.18277499 -0.18864873 -0.17877612 0.033692367 0.08600474 0.022962566 -0.022745365
-0.27599207 -0.049429394 0.016368713 0.27483463 -0.08227251 0.13085917 -0.04079103 -0.17272455

fc3.bias f4 [25]
00000000: ea32 a83d 6426 363d 64b4 3fbe 7438 b7bd
00000010: c090 30be ca9d 49bd 6c42 59be 6ac3 f7bd
00000020: dfa3 253e 834e fa3d 9e4f 203e e825 18be
00000030: 3a48 38be 2566 0a3e 03e0 9fbd b722 51be
00000040: 9f4d b13b e560 57be 0450 933d 7940 8f3c
00000050: dc9e 2c3d d83d afbd 63b8 7c3d 214c 77be
00000060: e0c6 1abe
0.08212836 0.044470206 -0.18721157 -0.089463145 -0.17242718 -0.049222745 -0.21216744 -0.12097819
0.16175793 0.12222006 0.15655372 -0.1485821 -0.17996302 0.13515528 -0.07806399 -0.20423399
0.0054108645 -0.21033056 0.07192996 0.017486798 0.042143688 -0.08556718 0.061699282 -0.24150135
-0.15114927

fcFinal.weight f4 [1, 25]
00000000: 7579 423e d313 573e b273 fcbd c330 423e
00000010: d229 ce3d f0d1 ddbd 38dd 00bf d921 053e
00000020: 0612 19be 4ae5 233e 3f5d bbbd 2701 c1bd
00000030: 334d 3a3e 20c9 2e3e 4e11 3f3e 6a83 e43d
00000040: a4f1 423d 0ed0 8a3c 7e84 4e3e 1b1b 623e
00000050: 3b7a 4f3e fa11 b0bd 134f c3bd 2f6d 273e
00000060: 2cbb 5e3d
0.18991645 0.21003656 -0.12326755 0.18963914 0.1006657 -0.10831058 -0.50337553 0.13001193
-0.14948282 0.16005436 -0.09148645 -0.09424048 0.18193512 0.1706891 0.18658945 0.11157878
0.047593728 0.016944911 0.2016773 0.22080652 0.20261471 -0.08597179 -0.095365666 0.16350244
0.05437772

normalize2D.weight f4 [2]
00000000: 0000 803f 0000 803f
1.0 1.0

normalize2D.bias f4 [2]
00000000: 0000 0000 0000 0000
0.0 0.0

normalize2D.running_mean f4 [2]
00000000: 0000 0000 0000 0000
0.0 0.0

normalize2D.running_var f4 [2]
00000000: 0000 803f 0000 803f
1.0 1.0
